model/model_full_4.pth (torch, 224912 bytes, 6 tensors)

weight f4 [64, 20, 3, 3]
0	0x3d6e69ab	0.05820624
1	0x3d781d61	0.060574893
2	0x3d79c4bb	0.060978632
3	0xb9980c20	-0.00029000733
4	0x3d7a75ef	0.061147626
5	0x3ca14c2f	0.019689647
6	0xbd901c17	-0.07036608
7	0xbd03e2d9	-0.03219876
8	0xbd3ab846	-0.045585893
9	0x3d4fce95	0.05073412
10	0x3d447f06	0.0479727
11	0xbc3f0b2f	-0.011660381
12	0x3da4bcfc	0.080438584
13	0x3c3418f2	0.010992276
14	0x3cca9012	0.024726901
15	0xbd7d10ad	-0.06178348
16	0x3d976a3d	0.0739331
17	0x3ddb34c3	0.10703423
18	0xbc522299	-0.012825632
19	0x3da7f935	0.08201829
20	0x3b1fdc86	0.0024392917
21	0x3d687de3	0.05676068
22	0x3ca9bc2a	0.020719606
23	0x3d8dfdfb	0.069332086
24	0xbb804f18	-0.0039156787
25	0xbddb5601	-0.10709763
26	0xbd7e4e21	-0.06208623
27	0xbcfeebf9	-0.03111838
28	0x3c27bce1	0.010237903
29	0xbda1b7ee	-0.0789641
30	0xbd0681fc	-0.032838807
31	0xbd42d0c9	-0.047562394
32	0xbd84c866	-0.064835355
33	0x3cf7f37d	0.030267471
34	0x3c6d7446	0.014493054
35	0xbda75dd7	-0.081721954
36	0x3d15d9d7	0.0365847
37	0xbd7e2c37	-0.062053885
38	0xbd8c443d	-0.06848953
39	0xbd758dc3	-0.059949648
40	0xbcebd700	-0.028789043
41	0xbda47ed9	-0.08032007
42	0x3d2dfe99	0.04247913
43	0x3b8a99c2	0.004229755
44	0x3b65c4a2	0.003505983
45	0xbd14d24d	-0.03633337
46	0xbc43e90b	-0.011957417
47	0x3c55f4e1	0.013058872
48	0x3d2d2aa0	0.04227698
49	0x3c4f6a97	0.01265969
50	0xbd66d234	-0.05635281
51	0xbd5c4788	-0.053779155
52	0xbdaa1d13	-0.08306327
53	0xbca27741	-0.019832255
54	0x3d5121ed	0.051057745
55	0x3c99ad1d	0.018759305
56	0x3c998b14	0.018743075
57	0x3d5c96a6	0.053854607
58	0xbd470634	-0.0485899
59	0x3d06d37a	0.032916524
60	0xbd40beb5	-0.047056872
61	0x3d18526b	0.037187975
62	0x3c7cb71f	0.015424519
63	0x3d90ba88	0.07066828
64	0x3c91e0f0	0.017807454
65	0x3d71dbbb	0.059047442
66	0x3d1d55e2	0.038411982
67	0xbd988fc8	-0.07449299
68	0xbd250302	-0.04028607
69	0x3d8c75ee	0.06858431
70	0xbdb18ac4	-0.086690456
71	0xbd9b75fc	-0.07590863
72	0x3c7a78c4	0.015287582
73	0x3d3dedf4	0.046369508
74	0x3d9a75b0	0.07541978
75	0xbd24bfa4	-0.040221825
76	0x3d5c02d6	0.053713642
77	0xbc20e2bf	-0.0098196855
78	0xbdd1d116	-0.10244958
79	0xbcb1de98	-0.021712586
80	0x3ca3d561	0.019999208
81	0x3c2e404b	0.010635446
82	0x3d9e81e9	0.07739622
83	0x3cd27a02	0.025692943
84	0x3d89ca72	0.067280665
85	0xbb4fdd57	-0.0031717622
86	0x3abdf2f7	0.0014491965
87	0xbcde9a30	-0.027173132
88	0xbd3fee08	-0.046857864
89	0xbcef7df5	-0.029234866
90	0xbd311bb6	-0.043239318
91	0x3cd58cff	0.026068209
92	0x3d297d1b	0.041379075
93	0xbcaf4873	-0.021396851
94	0xbccbfeb6	-0.02490173
95	0x3d8b9823	0.06816127
96	0x3d28be60	0.04119718
97	0x3d8dd00c	0.069244474
98	0xbd6c61f9	-0.05771062
99	0xbd385fba	-0.045013167
100	0x3d3dc7e9	0.046333227
101	0x3d9cdc70	0.076592326
102	0x3d66d6f0	0.056357324
103	0x3d372326	0.044711255
104	0x3dbdf161	0.09274555
105	0xbd7554d6	-0.05989536
106	0xbd2172e4	-0.03941621
107	0x3d037905	0.032097835
108	0xbd315840	-0.043297052
109	0xbd3d96ed	-0.046286512
110	0xbd69f736	-0.057120524
111	0x3d8f094f	0.06984197
112	0x3da3f13a	0.08004995
113	0x3d02e2f9	0.03195474
114	0x3d145757	0.036216106
115	0xbc025de9	-0.00795696
116	0x3c3c473d	0.011491594
117	0xbc6cabc9	-0.014445254
118	0x3ceb96b2	0.02875838
119	0xbb48fdcb	-0.003066885
120	0x3d095a9d	0.03353368
121	0x3c834538	0.016024217
122	0xbd11ed02	-0.03562642
123	0x3d587c3e	0.05285286
124	0xbc858c7e	-0.016302343
125	0xbd632a1b	-0.055460077
126	0xbcfdf8b1	-0.031002374
127	0xbd0a03c1	-0.033694986
128	0xbd8c76f7	-0.06858628
129	0x3d327dd4	0.04357703
130	0xbd38a8d8	-0.045082897
131	0x3d23161e	0.039816014
132	0xbc55ad30	-0.013041779
133	0x3d32368a	0.043509044
134	0xbc02b742	-0.007978262
135	0x3cd9b9dd	0.026577884
136	0x3d2c76f4	0.04210563
137	0xbcb9a66e	-0.022662368
138	0x3c622250	0.013802126
139	0x3ddec5c0	0.108775616
140	0x3d08bdf3	0.033384275
141	0xbcd9042f	-0.026491253
142	0xbda3ec2a	-0.08004029
143	0xbdc50bf4	-0.096214205
144	0xbb5ec84a	-0.0033993893
145	0x3d771ccc	0.060330197
146	0xbd146d45	-0.03623702
147	0x3c28c652	0.0103011895
148	0x39a62bb4	0.0003169455
149	0xbd8a35d6	-0.0674855
150	0x3d60bc62	0.054867156
151	0x3ce9e49a	0.028551389
152	0x3da33b7e	0.079703316
153	0xbd1b6d5f	-0.0379461
154	0x3c4c9524	0.01248673
155	0xba1c25f7	-0.0005956585
156	0xbd93219b	-0.07184144
157	0x3baeef51	0.0053385873
158	0xbd2b1215	-0.04176529
159	0xbb91adf2	-0.0044457847
160	0xbcc6212c	-0.02418574
161	0x3c2553bb	0.010090764
162	0xbcb43060	-0.021995723
163	0xbc3804ce	-0.011231614
164	0xbd55694b	-0.05210237
165	0x3d284659	0.041082714
166	0x3d461f23	0.048369538
167	0x3d7b9850	0.061424553
168	0xbd96abf6	-0.07357018
169	0xbccf0f9a	-0.025275994
170	0x3c8b362a	0.0169936
171	0xbc237910	-0.009977594
172	0x3bc880c3	0.006118865
173	0x3c83e635	0.016100982
174	0xbcfc94c2	-0.030832652
175	0x3d424d0e	0.047436766
176	0xbd4af6f7	-0.04955193
177	0xbbcf0a06	-0.0063183336
178	0xbc0f8665	-0.0087600695
179	0x3d6ba689	0.057531867
180	0xbbfce79a	-0.0077180387
181	0xbd2b598a	-0.041833438
182	0xbbd3c29a	-0.0064624073
183	0x3d820ca5	0.06350068
184	0xbb6aeb22	-0.0035845716
185	0xbda0def3	-0.07855024
186	0xbca443a3	-0.020051783
187	0xbd8f8629	-0.07008011
188	0xbc20e837	-0.009820989
189	0x3d44c76d	0.04804175
190	0x3da6cd63	0.08144643
191	0xbb1d9559	-0.0024045317
192	0x3c30f0cd	0.010799599
193	0xbc904ceb	-0.017614802
194	0x3c8265c9	0.015917676
195	0x3c5c4e95	0.01344647
196	0xb8f9efb5	-0.00011917894
197	0xbc93e250	-0.01805225
198	0xbd949982	-0.07255842
199	0xbda67777	-0.08128255
200	0xbcf08bc3	-0.029363519
201	0xbda0beee	-0.07848917
202	0x3cc0c3c5	0.02353085
203	0x3db73cce	0.089471444
204	0x3d6b8ca0	0.057507157
205	0x3de2cd26	0.11074285
206	0x3daf59de	0.08562063
207	0x3c2ab9f6	0.010420313
208	0x3d3447cc	0.044013783
209	0x3cc26810	0.023731261
210	0xbd69af36	-0.05705186
211	0x3ddbdcbc	0.10735461
212	0xbc52ac87	-0.012858517
213	0x3d3903b5	0.04516955
214	0x3db44b10	0.088033795
215	0x3d7462a9	0.059664402
216	0x3d61ae7a	0.055098034
217	0x3d2b80ae	0.041870765
218	0xbcafa9fa	-0.021443356
219	0xbc0f70f6	-0.008754959
220	0x3d94c988	0.072650015
221	0xbcb29259	-0.0217983
222	0x3d1fccd4	0.0390137
223	0x3d84ebb1	0.06490267
224	0xbd03d837	-0.03218862
225	0x3d3698be	0.04457926
226	0xbd11303f	-0.0354464
227	0x3c6dd36a	0.014515737
228	0x3c07808a	0.008270392
229	0xbdac3095	-0.08407704
230	0x3d1d4b8e	0.038402133
231	0xbd6d37a2	-0.057914384
232	0xbcefa831	-0.029255005
233	0xbd6f0ece	-0.05836373
234	0x3d2d069f	0.042242642
235	0xbd0f7cc2	-0.035031088
236	0x3d239c0b	0.039943736
237	0xbc163649	-0.009168216
238	0x3d9128bc	0.070878476
239	0xbd69a9dc	-0.057046756
240	0x3bafe215	0.0053675273
241	0x3c008abe	0.007845579
242	0x3b08ce91	0.0020875076
243	0xbd850b4d	-0.06496296
244	0x3d7f08eb	0.062264364
245	0xbd35af81	-0.044356827
246	0x3d2a4ff6	0.041580163
247	0xbd819567	-0.06327324
248	0xb75da4b6	-1.3210976e-05
249	0xbd73786e	-0.059441023
250	0xbdc72464	-0.09723738
251	0xbd5dc6b9	-0.054144595
252	0xbd7e9fd3	-0.06216414
253	0x3d517a34	0.051141933
254	0x3d3432bd	0.0439937
255	0xbd75adc2	-0.05998016

bias f4 [64]
0	0xbd9ef6be	-0.07761906
1	0xbcd087a4	-0.025455303
2	0xbbf66519	-0.007519376
3	0x3d1eee8b	0.03880171
4	0xba882134	-0.0010385872
5	0x3c50b432	0.012738274
6	0x3c191428	0.0093431845
7	0x3c655202	0.013996603
8	0x3d2fdd5d	0.042935718
9	0xbd62f950	-0.055413544
10	0xbd511294	-0.051043108
11	0xbc1549dc	-0.009111848
12	0xbc1a280d	-0.009408963
13	0xbc31d81d	-0.010854748
14	0x3cf30da8	0.029669598
15	0xbd929e4d	-0.071591
16	0xbbe47012	-0.0069713676
17	0x3d3509b3	0.044198703
18	0xbd997edd	-0.074949004
19	0xbcfbe922	-0.030750815
20	0xbd191c6a	-0.037380613
21	0xbd5cbba6	-0.053889893
22	0x3d1020d1	0.035187546
23	0xbd7880e2	-0.060669787
24	0xbc9af9a8	-0.018917874
25	0x3d728655	0.05921014
26	0x3d6e6d9d	0.058210004
27	0x3b981ecb	0.0046423427
28	0x3d6ddc27	0.05807128
29	0x3d8ce5ce	0.06879769
30	0xbcc8bde5	-0.024504611
31	0x3d72b91a	0.059258558
32	0x3d2aaa42	0.041666277
33	0x3d3bcede	0.04585158
34	0xbd286057	-0.0411075
35	0x3d963121	0.07333589
36	0x3d696874	0.05698438
37	0x3ca48c93	0.020086562
38	0x3c3f3df5	0.011672487
39	0xbcef8760	-0.029239357
40	0xbd551565	-0.052022357
41	0x3c3a04d2	0.011353688
42	0x3d834d02	0.064111724
43	0x3b7a86fa	0.0038227425
44	0x3c844c86	0.01614977
45	0xbd10c631	-0.03534526
46	0xbc702a3f	-0.01465851
47	0xbc2db6c6	-0.010602659
48	0x3d713371	0.05888695
49	0x3d15d9fe	0.036584847
50	0x3cfbf88d	0.030758167
51	0x3d2a8604	0.041631714
52	0xbca7a8f1	-0.0204663
53	0xba2c4389	-0.0006571343
54	0x3d5f15f8	0.05446431
55	0xbd104c3d	-0.035228956
56	0xbd491e0d	-0.049100924
57	0xbd190056	-0.037353836
58	0xbd28bd74	-0.0411963
59	0xbd62a6e7	-0.05533495
60	0xbb7c934c	-0.0038539944
61	0xbd4db188	-0.050218135
62	0xbb85d0cf	-0.00408373
63	0x3d973500	0.07383156

weight f4 [512, 64]
0	0x3b5c3ad2	0.0033604396
1	0xbdef0fa6	-0.116729066
2	0x3d8f0862	0.06984021
3	0x3ddda608	0.108226836
4	0x3dd5049a	0.10401268
5	0x3d958a1f	0.07301735
6	0x3b5b7def	0.003349181
7	0xbdd72545	-0.105051555
8	0x3c4f85ea	0.012666205
9	0x3c8a7a3f	0.016903995
10	0x3db6dfd6	0.08929412
11	0x3d0519a4	0.032495156
12	0xbe0b65a5	-0.13612993
13	0x3d4b247b	0.049595337
14	0xbd26dc74	-0.040737584
15	0xbd8ac7fc	-0.06776425
16	0xbab85b76	-0.0014065343
17	0xbd2b1bf9	-0.041774724
18	0xbbab5990	-0.0052291825
19	0xbd5e4f7a	-0.054275014
20	0x3d07812e	0.03308218
21	0xbc8e8fd7	-0.017402573
22	0x3dc309ae	0.09523331
23	0xbdd81058	-0.10549992
24	0xbe058e03	-0.13042454
25	0xbc5af8d9	-0.013364994
26	0x3dd733c9	0.10507924
27	0xbd948781	-0.07252408
28	0xbd612538	-0.054967135
29	0xbda36a36	-0.079792425
30	0xbdfa0c62	-0.12209393
31	0xbde39953	-0.11113229
32	0x3b052fe6	0.002032274
33	0x3c4a801b	0.012359644
34	0xbd008b65	-0.031382937
35	0xbda5d289	-0.08096797
36	0x3d1c0799	0.038093183
37	0x3bf5594a	0.0074874507
38	0x3d59ac5c	0.05314289
39	0xbd54f571	-0.051991884
40	0xbdb8df1c	-0.0902693
41	0x3df501e7	0.119632535
42	0x3e175096	0.14776835
43	0x3ce2744a	0.027643342
44	0xbd3b62cd	-0.04574852
45	0x3de0da35	0.1097912
46	0xbdc0944e	-0.09403287
47	0x3d8b0444	0.06787923
48	0xbd2e157d	-0.04250096
49	0xbd0555c2	-0.03255249
50	0x3d11848b	0.035526793
51	0x3dadc9ef	0.084857814
52	0xbe071211	-0.13190486
53	0x3db6fe9f	0.08935284
54	0xbcbba8b8	-0.0229076
55	0x3dca802f	0.0988773
56	0xbe20a628	-0.15688384
57	0x3d0c1cff	0.03420734
58	0xbd21697b	-0.039407235
59	0xbdc8d4d9	-0.098062225
60	0x3d5143f5	0.0510902
61	0xbd437049	-0.047714505
62	0xbdb96378	-0.09052175
63	0x3d8f7f41	0.07006694
64	0x3cacf58e	0.021113183
65	0x3de9fe8c	0.11425504
66	0x3dc84c9d	0.09780238
67	0x3db31d0a	0.08745773
68	0xbd7ca4c1	-0.06168056
69	0xbe0b6fdd	-0.13616891
70	0xbd124653	-0.035711598
71	0xbe0e34a9	-0.13887276
72	0x3db47f5c	0.088133544
73	0xbdd78a28	-0.10524398
74	0xb906cdc2	-0.00012855887
75	0x3dc082b7	0.09399932
76	0xbc06362a	-0.008191625
77	0xbca44c42	-0.020055894
78	0xbdadfc50	-0.084953904
79	0xbceb0014	-0.02868656
80	0x3ccb6d43	0.024832373
81	0x3cb06697	0.021533294
82	0x3da22f8a	0.079192236
83	0x3d33a2d9	0.043856476
84	0x3beb040e	0.007172114
85	0x3d27eac2	0.040995367
86	0xbcd93964	-0.026516624
87	0xbc02ec4d	-0.007990909
88	0xbdbc7f61	-0.09203983
89	0xbd584949	-0.052804265
90	0x3d58d06c	0.05293314
91	0xbd875802	-0.06608583
92	0xbda60266	-0.08105926
93	0x3cc791b2	0.024361465
94	0xbde1b737	-0.110212736
95	0x3c89f20d	0.016839052
96	0xbdebb3f8	-0.11508936
97	0x3da6b88f	0.081406705
98	0x3c434870	0.011919126
99	0xbe1af4e7	-0.15132485
100	0x3da47b5c	0.080313414
101	0xbe082031	-0.1329353
102	0xbdb759e9	-0.08952696
103	0xbdd24556	-0.10267131
104	0xbe17f94b	-0.14841191
105	0xbdb8a384	-0.09015563
106	0xbde49d39	-0.111628
107	0x3d87e374	0.0663518
108	0xbc0012c3	-0.007816973
109	0xbcab9f95	-0.020950118
110	0xbdfc3e91	-0.12316621
111	0x3dd02945	0.101641215
112	0x3dd86a88	0.10567194
113	0xbd4d71e4	-0.050157443
114	0x3dcf33f8	0.10117334
115	0xbd308864	-0.043098822
116	0xbcdc9b65	-0.026929567
117	0xbb0b8ea2	-0.0021294733
118	0x3d86dbfa	0.06584926
119	0x3de73804	0.11289981
120	0x3d2619b9	0.040551875
121	0x3dbe5418	0.09293383
122	0x3dcd2e46	0.100185916
123	0xbc9d2c57	-0.019186182
124	0xbe1abf08	-0.15111935
125	0x3dbb2cb1	0.091393836
126	0x3dab15f6	0.08353798
127	0x3da61fee	0.08111559
128	0x3d44eb4e	0.048075967
129	0x3c893917	0.016750855
130	0x3d3374c7	0.04381254
131	0x3c659d69	0.01401458
132	0x3d057ea1	0.032591466
133	0x3caa908f	0.020820884
134	0x3d06dfff	0.032928463
135	0x3d966615	0.07343689
136	0xbcb17093	-0.021660125
137	0x3c5e1165	0.013553952
138	0x3d2c4f32	0.042067714
139	0xbc8d3f35	-0.017242054
140	0xbd8aeca5	-0.067834176
141	0xbda94612	-0.08265318
142	0x3cdb430d	0.02676537
143	0xbcf4ceb8	-0.029883727
144	0x3d0d8fa1	0.034560803
145	0x3dfe1e61	0.12408138
146	0xbdcd1da5	-0.1001542
147	0xbe04a685	-0.12954147
148	0xbd21d4e8	-0.039509684
149	0x3e094bf2	0.13407877
150	0x3de90516	0.11377923
151	0xbd56f4cf	-0.05247956
152	0xbe0fbfe9	-0.14038052
153	0xbdf41864	-0.11918715
154	0xbd2f35ae	-0.042775802
155	0x3dc6ecff	0.09713172
156	0xbdb36392	-0.08759226
157	0xbc717567	-0.014737464
158	0x3e132a39	0.14371575
159	0xbd82c325	-0.06384877
160	0x3e09a2c8	0.13441002
161	0xbd8d7afd	-0.06908224
162	0xbd02cb3d	-0.031932104
163	0x3df2c041	0.11853076
164	0x3da30e7b	0.07961746
165	0xbcb7a066	-0.022415351
166	0xbce2df74	-0.027694441
167	0x3dcd6853	0.10029664
168	0x3d3cffc9	0.046142373
169	0xbd84fc42	-0.06493427
170	0xbc418037	-0.011810354
171	0x3dda5fb2	0.10662784
172	0x3e1de957	0.15421043
173	0xbd3bf3a9	-0.04588667
174	0x3d605d70	0.05477661
175	0xbe076143	-0.13220696
176	0x3dba5343	0.09097912
177	0x3c9478bc	0.018123977
178	0xbd191d7d	-0.037381638
179	0xbe19ff05	-0.15038688
180	0xbd964f21	-0.073393114
181	0xbc3c8407	-0.011506087
182	0xbdb0e8fa	-0.08638187
183	0x3dee2001	0.11627198
184	0xbe061d73	-0.13097171
185	0xbcc9257d	-0.024554009
186	0xbe00b4b5	-0.12568934
187	0xbbde9a68	-0.006793309
188	0xbde3c8b4	-0.111222655
189	0xbe041ac2	-0.12900832
190	0x3d769b20	0.060206532
191	0x3dc93d33	0.09826126
192	0x3da84d1b	0.08217832
193	0xbd8b613e	-0.06805657
194	0x3d75bbc3	0.059993517
195	0xbd4c43d2	-0.049869366
196	0x3d810745	0.06300215
197	0xbe017bc3	-0.12644868
198	0x3d5b9ff4	0.05361934
199	0xbd417cb6	-0.047238074
200	0xbd94add3	-0.07259717
201	0xbdf7f9de	-0.12108205
202	0xbdc28a4b	-0.094990335
203	0xbe28e96e	-0.16495296
204	0x3df809bf	0.12111234
205	0xbd07a337	-0.03311464
206	0x3c02461c	0.007951286
207	0xbd92efd8	-0.07174653
208	0xbe1fbf72	-0.15600374
209	0x3b7eaf0b	0.0038861658
210	0xbd310198	-0.04321441
211	0x3d58683d	0.052833784
212	0x3cf585f4	0.0299711
213	0xbdf10084	-0.117676765
214	0x3d897451	0.06711639
215	0xbc4ecc81	-0.012622
216	0xbde515d0	-0.11185801
217	0xbdc9faaa	-0.098622635
218	0x3d964d8a	0.07339008
219	0x3d9e3830	0.07725561
220	0x3d89170d	0.0669385
221	0x3d95ff1f	0.07324051
222	0xbe1cdf45	-0.15319546
223	0x3d6190b5	0.055069644
224	0xbe1af9c9	-0.15134348
225	0xbe04049b	-0.12892382
226	0xbd2cd3a7	-0.042194035
227	0xbd8ce311	-0.06879247
228	0xbc804fd1	-0.01566306
229	0x3d39f008	0.045394927
230	0xbcad44fa	-0.021151055
231	0xbe1a2424	-0.15052849
232	0x3cd1ff52	0.025634442
233	0xbd532e94	-0.051558092
234	0x3d9e9b93	0.07744517
235	0x3d55b9cc	0.052179143
236	0xbc9ff7c2	-0.01952732
237	0x3c9b9e0d	0.018996263
238	0x3d0f301c	0.03495799
239	0xbd633c90	-0.05547768
240	0xbdcf2183	-0.10113814
241	0x3d8007c0	0.06251478
242	0x3d23b1d3	0.03996451
243	0xbdf2a041	-0.11846972
244	0x3de08212	0.10962309
245	0x3e162315	0.1466182
246	0xbdbebfe1	-0.09313942
247	0xbd03ae04	-0.032148376
248	0xbddf61f7	-0.10907357
249	0xbe015bd5	-0.12632687
250	0x3d438bbd	0.047740687
251	0x3d73be01	0.059507374
252	0x3d4dea0e	0.05027204
253	0x3dc47f6b	0.095946155
254	0x3c1d3c7c	0.00959694
255	0xbdaad14d	-0.08340702

bias f4 [512]
0	0xbd2453b0	-0.040118873
1	0x3c90536d	0.017617906
2	0xbcebc9ac	-0.028782688
3	0x3d875abf	0.06609105
4	0x3d8146d0	0.063123345
5	0x3c9ec2c4	0.01937998
6	0xbd8961a8	-0.067080796
7	0xbdad603d	-0.084656216
8	0x3dc5d839	0.09660382
9	0x3ce9b4f3	0.028528666
10	0x3d909fc6	0.07061724
11	0xbdb1ef23	-0.0868819
12	0x3da62dda	0.08114214
13	0x3d32e639	0.04367659
14	0x3b054bd9	0.0020339398
15	0x3dcb9f69	0.099425144
16	0x3d6ce381	0.057834152
17	0xbcd6f85f	-0.02624148
18	0x3de67568	0.11252862
19	0x3dcef48d	0.10105238
20	0xbdaed68e	-0.08537017
21	0x3d56afc0	0.052413702
22	0x3dd4ff91	0.10400308
23	0xbd8eb99e	-0.069689974
24	0xbd3771d0	-0.044786274
25	0x3d88c8b2	0.066789046
26	0xbda5793b	-0.080797635
27	0x3db7e0d0	0.089784265
28	0xbc263f45	-0.010146921
29	0xbb624e08	-0.0034531374
30	0xbca476f3	-0.02007625
31	0xbdb2c3bc	-0.087287396
32	0xbdd606f9	-0.10450549
33	0x3c6886bd	0.01419228
34	0xbd74f163	-0.059800517
35	0xbdeca366	-0.11554603
36	0x3b80f327	0.003935236
37	0x3cf94a44	0.03043092
38	0xbd83ed50	-0.06441748
39	0x3cab9116	0.020943206
40	0x3dc61b33	0.096731566
41	0xbd9870d5	-0.07443396
42	0x3c967858	0.018367931
43	0xbd46f359	-0.04857192
44	0xbbc38adb	-0.0059674806
45	0xbd2ff267	-0.042955782
46	0x3d0ad717	0.033896532
47	0xbe097f01	-0.13427354
48	0x3d06135f	0.032733317
49	0xbdc848c1	-0.09779502
50	0x3dc5f814	0.09666458
51	0xbd8d3b13	-0.06896033
52	0x3d493a5e	0.04912793
53	0x3c87669e	0.016528424
54	0xbd42d3b6	-0.047565185
55	0xbc88dcf0	-0.016706914
56	0xbd0cef80	-0.034408092
57	0x3da28be2	0.07936837
58	0x3b6c312c	0.003604005
59	0x3dc99921	0.0984366
60	0x3d738d9f	0.059461232
61	0xbc987da2	-0.018614594
62	0x3cc98ef9	0.024604307
63	0xbcb4b6b9	-0.022059785
64	0xbda79780	-0.08183193
65	0xbddb51fd	-0.107089974
66	0xbd430879	-0.047615502
67	0xbd202677	-0.039099183
68	0xbdc87e96	-0.09789769
69	0xbdd97593	-0.10618129
70	0x3d8af595	0.06785122
71	0xbdc8f430	-0.098122
72	0x3d0d7c6b	0.034542482
73	0xbde1ce24	-0.11025646
74	0xbd51e62a	-0.051244892
75	0xbde9b671	-0.11411751
76	0x3c9107a5	0.01770384
77	0x3d4afa68	0.049555212
78	0x3c42ce86	0.011890059
79	0xbd6078a1	-0.05480254
80	0x3ce3a77a	0.02778982
81	0xbdb87007	-0.090057425
82	0x3dcd8086	0.100342795
83	0x3d26501d	0.040603746
84	0x3de9b0d5	0.11410681
85	0x3d7db87d	0.06194352
86	0x3d2b8803	0.041877758
87	0x3c8747ec	0.016513787
88	0x3d239ec9	0.03994635
89	0x3dd40f07	0.10354429
90	0xbded3b72	-0.11583604
91	0xbdb6bf62	-0.08923222
92	0xbd7351c6	-0.059404157
93	0x3db300b1	0.08740366
94	0xbe094c22	-0.13407949
95	0xbde2a78f	-0.110671155
96	0xbd169d90	-0.036771357
97	0x3d4d238f	0.05008274
98	0xbd83345a	-0.0640647
99	0x3c52fba4	0.012877379
100	0x3cd163d4	0.025560297
101	0xbcd46f48	-0.02593197
102	0xbdc8ca62	-0.098042265
103	0x3d586809	0.05283359
104	0x3daa62bf	0.083196156
105	0x3d9d0ea1	0.07668806
106	0xbd270fdb	-0.040786605
107	0xbde2c32d	-0.11072383
108	0x3df3b8e5	0.119005
109	0x3ca192a8	0.019723251
110	0xbdc0d30f	-0.09415256
111	0x3c7ab1cb	0.015301178
112	0xbcd9e69a	-0.026599217
113	0xbc2b5575	-0.010457386
114	0x3d028fc9	0.031875405
115	0xbc9530d9	-0.018211769
116	0xbcb45a7e	-0.022015806
117	0x3cb0261d	0.021502549
118	0x3dbfae08	0.09359366
119	0xbd2637b1	-0.040580455
120	0x3449d4eb	1.8797043e-07
121	0xbd058e35	-0.032606322
122	0xbdf85b5f	-0.12126803
123	0xbd2fd55d	-0.04292809
124	0x3d8ea949	0.06965882
125	0x3db53a29	0.08848984
126	0x3dd2c89f	0.10292172
127	0xbd6e3854	-0.058159187
128	0x3dd03c8d	0.10167799
129	0x3d0f9c35	0.03506108
130	0xbbe03b65	-0.006843018
131	0xbe0bc942	-0.13650993
132	0x3dcb9e5b	0.09942313
133	0x3d9d974b	0.076948725
134	0xbd213b27	-0.039363053
135	0x3c110b30	0.008852765
136	0x3df84109	0.121217795
137	0x3dc254d8	0.09488839
138	0xbdbc4a07	-0.09193807
139	0xbc630054	-0.013855059
140	0xbd5f0282	-0.05444575
141	0x3d4c6616	0.049902044
142	0xbb99b378	-0.004690584
143	0x3d4c1b53	0.049830746
144	0xbbddbcf8	-0.0067669116
145	0x3c4a0682	0.012330653
146	0xbcb673e1	-0.022272052
147	0xbd92a7fc	-0.07160947
148	0x3dbe2962	0.09285237
149	0x3c7bf1ab	0.015377442
150	0xbc8d7484	-0.017267473
151	0xbdca507f	-0.09878635
152	0xbac3f8ed	-0.0014951505
153	0xbae31c18	-0.0017327098
154	0x3d6d1c38	0.05788824
155	0xbd591427	-0.052997734
156	0x3d6ee9d8	0.05832848
157	0xbe0cc802	-0.13748172
158	0xbdc55083	-0.09634497
159	0x3d82dbb3	0.063895606
160	0xbd6cabb7	-0.057780948
161	0x3d2ff151	0.042954747
162	0x3bfa275f	0.007634088
163	0xbd2b195a	-0.041772224
164	0xbdf2fda5	-0.11864785
165	0xbcc9227d	-0.024552578
166	0xbdaf6e2b	-0.08565935
167	0x3addb867	0.0016915918
168	0x3cfbc2f1	0.030732604
169	0xbd6511ed	-0.0559253
170	0x3d8b3398	0.0679695
171	0xbda60df6	-0.081081316
172	0x3d8e0bf8	0.069358766
173	0xbd06c395	-0.032901365
174	0xbcaffd60	-0.021483123
175	0xbd859af3	-0.06523695
176	0xbdfc4b38	-0.12319034
177	0x3c43ce0c	0.011950981
178	0x3d73c59f	0.059514638
179	0xbc235183	-0.009968164
180	0x3dc99db0	0.0984453
181	0xbdaa3fd2	-0.08312954
182	0xbdbcd59b	-0.092204295
183	0xbcacc9d1	-0.021092327
184	0xbc10cd71	-0.008838044
185	0xbb588dcd	-0.0033043504
186	0xbd8a48b9	-0.06752152
187	0xbde0d466	-0.10978012
188	0xbcb74c2d	-0.02237519
189	0xbc9b42ac	-0.01895269
190	0x3dbe754a	0.09299715
191	0x3d4668f1	0.048439924
192	0xbe0d3b1f	-0.13792084
193	0xbd95c811	-0.0731355
194	0xbdf88d4f	-0.121363275
195	0x3ccd2e60	0.025046527
196	0xbca9abe0	-0.02071184
197	0xbdc3d8f8	-0.09562868
198	0xbdd4ac4b	-0.10384425
199	0xbd264f69	-0.040603075
200	0x3d6397d3	0.055564713
201	0x3b013e5e	0.0019721012
202	0x3d4ee644	0.050512567
203	0x3d4fc20c	0.050722167
204	0x3c05880d	0.008150113
205	0x3dce9f7d	0.10089014
206	0x3d8a6937	0.067583494
207	0xbde4eef5	-0.1117839
208	0x3d7f3d97	0.062314596
209	0xbe0556d3	-0.13021402
210	0x3d1023d9	0.035190437
211	0x3da5e825	0.08100919
212	0x3bd089a3	0.006364064
213	0xbcb13ebe	-0.021636363
214	0xbb8ad446	-0.0042367307
215	0x3c5abdc6	0.01335091
216	0xbd55a627	-0.05216041
217	0x3d9540ca	0.07287748
218	0x3c5d5106	0.013508087
219	0x3d3ceccc	0.046124265
220	0xbca7525d	-0.020425016
221	0x3da714a0	0.08158231
222	0x3bcaa3a1	0.006184057
223	0x3ca0e372	0.019639704
224	0x3dce56ab	0.10075124
225	0x3d8d7bf2	0.06908406
226	0xbdbcb73a	-0.09214635
227	0x3d8c90ca	0.06863554
228	0x3d16825d	0.036745418
229	0xbd826023	-0.06365993
230	0x3d19037b	0.037356835
231	0x3d0f5e34	0.03500195
232	0xbdecd228	-0.115635216
233	0x3d92838e	0.07153998
234	0xbdc21885	-0.09477333
235	0xbd47d5cb	-0.048787873
236	0xbc2dad0e	-0.0106003415
237	0x3da7e7f7	0.08198541
238	0xbdd4ecea	-0.1039675
239	0xbd4e38f1	-0.050347272
240	0xbc582fbf	-0.013194977
241	0x3da4a2e2	0.0803888
242	0x3db9742d	0.09055362
243	0x3da4fffe	0.08056639
244	0xbd3c7249	-0.04600743
245	0xbe1ee266	-0.15516052
246	0x3cea82c6	0.02862681
247	0x3d38cdc7	0.04511812
248	0xbd4b20b8	-0.04959175
249	0x3d810866	0.0630043
250	0xbe04113b	-0.12897198
251	0x3d0de25c	0.0346397
252	0xbd56bf4b	-0.052428525
253	0xbd9014c6	-0.07035212
254	0xbc5f71e8	-0.013637997
255	0x3dabd77d	0.083907105

weight f4 [20, 512]
0	0xbd025572	-0.03181977
1	0xbcfbfdf0	-0.030760735
2	0x3c8245f0	0.01590249
3	0x3b1ecca0	0.0024230853
4	0x3c854e38	0.01627265
5	0xbc97aa43	-0.018513804
6	0x3c176f1c	0.009242799
7	0x3c47e720	0.012201101
8	0xbb8d8f38	-0.0043200515
9	0xbd0280ce	-0.03186112
10	0xbb7327c0	-0.003710255
11	0xbcb0493c	-0.021519296
12	0x3c3c60b0	0.0114976615
13	0x3cd754a2	0.026285473
14	0x3cde944e	0.027170327
15	0xbcebdf56	-0.028793018
16	0x3c99d412	0.01877788
17	0x3c1852d0	0.009297088
18	0xbce6d018	-0.028175399
19	0xbb3b3a10	-0.0028568543
20	0x3ae21780	0.0017249435
21	0xbcbd2681	-0.02308965
22	0x3cd4b3ca	0.025964636
23	0xbd2fff6a	-0.04296819
24	0xbcc50cf7	-0.024054034
25	0x3c275160	0.010212272
26	0x3b3f4f70	0.0029191636
27	0x3bbcd250	0.005762376
28	0xbce97ef9	-0.028502928
29	0xbc8aeb5c	-0.016957931
30	0xbcb8f803	-0.022579199
31	0x39744d00	0.00023298338
32	0x3cf59116	0.029976409
33	0xbcc0356b	-0.023462972
34	0x3b00ab20	0.0019633248
35	0x3cc56aae	0.02409872
36	0x3ca6d0a6	0.020363163
37	0xbd1100fa	-0.035401322
38	0x3d22b2d5	0.03972133
39	0xbca0a87b	-0.019611588
40	0xbcf65aa2	-0.030072514
41	0x3d0f1637	0.034933295
42	0x3d2bdad1	0.041956726
43	0x3b1e00b0	0.0024109297
44	0x3a057e80	0.00050923973
45	0x3c859404	0.01630593
46	0xbce25813	-0.027629888
47	0xbc060018	-0.008178733
48	0xbcb79ab9	-0.022412645
49	0xbc5e4b56	-0.013567766
50	0xbd29519f	-0.041337606
51	0x3d2cd473	0.042194795
52	0x3c93b654	0.018031277
53	0x3ce33f5a	0.02774017
54	0x3cdbb52e	0.026819792
55	0xbd0d4198	-0.034486383
56	0x3c868b84	0.016423948
57	0xbcc71308	-0.024301067
58	0x3c88c1a2	0.016693894
59	0xbbde3ad0	-0.0067819133
60	0xbb632bc0	-0.0034663528
61	0xbd1dd3ac	-0.038531944
62	0xbcea0a43	-0.028569346
63	0x3cb95616	0.022624057
64	0x3cb9b956	0.022671383
65	0x3cd02392	0.025407586
66	0xbb6d9950	-0.0036254711
67	0xb7f9c000	-2.977252e-05
68	0xbc8b45e7	-0.017001105
69	0x3cdd517a	0.02701639
70	0x3d0f8c17	0.03504571
71	0x3cfd344a	0.030908722
72	0xbd08d9a9	-0.033410702
73	0x3cee9d12	0.029127631
74	0xbaaeba80	-0.0013330728
75	0x3ca32d92	0.01991919
76	0x3d124899	0.035713766
77	0xbccc91eb	-0.024971923
78	0x3c196a98	0.009363793
79	0xbbcbf1a8	-0.006223876
80	0xbb1f4ab0	-0.0024305992
81	0x3d009b3d	0.031398047
82	0x3c5ee720	0.013604909
83	0xbcf54cfe	-0.02994394
84	0xbc667668	-0.014066316
85	0xbad1a800	-0.0015995502
86	0xbc8b2267	-0.016984178
87	0x3d0139d5	0.031549294
88	0xbcfb8e01	-0.030707361
89	0x3cce66d6	0.02519552
90	0xbc9dc7ba	-0.019260276
91	0x3cf59a1e	0.029980715
92	0xbd0456a2	-0.032309182
93	0x3d09468d	0.033514548
94	0x3be3b1f0	0.006948702
95	0xbd245287	-0.040117767
96	0x3ca7bef2	0.020476792
97	0x3d0603e9	0.032718573
98	0xbc7b3f8a	-0.015334973
99	0x3be0b5e0	0.0068576187
100	0xbd122b0d	-0.035685588
101	0x3d11cbf9	0.035594914
102	0x3d295bff	0.0413475
103	0x3b0adfa0	0.002119042
104	0x3be47750	0.006972231
105	0x3c70da0c	0.014700424
106	0xbc68a6a8	-0.01419989
107	0x3cca71d2	0.024712477
108	0xbcb7fc54	-0.022459187
109	0xbc41e9d0	-0.01183553
110	0xbccedb3f	-0.025251029
111	0x3cdaf1be	0.0267266
112	0xbc94853b	-0.018129935
113	0xbc0cc164	-0.00859103
114	0x3c7fa608	0.01560355
115	0x3a9bfe40	0.0011901334
116	0xbd2a6cdd	-0.041607726
117	0xbcdbadb7	-0.026816232
118	0x3d1f3cbb	0.038876276
119	0xbc4b874c	-0.012422394
120	0x3c960a6a	0.018315513
121	0x3c7cfb7c	0.015440818
122	0x3bba5a60	0.005687043
123	0xbcb92e87	-0.022605194
124	0xbd033f5e	-0.032042854
125	0x3d2abebb	0.0416858
126	0xbbc74e08	-0.0060823
127	0xbc8f80e2	-0.01751751
128	0xbc688ed6	-0.014194211
129	0x3ce1eeca	0.027579684
130	0x3d327e6b	0.043577593
131	0x3d278c9b	0.040905576
132	0xbc0d7438	-0.008633666
133	0x3cc4430e	0.023957755
134	0xbcc1d4ff	-0.023661135
135	0xbcefadad	-0.02925762
136	0x3b3185c0	0.0027087778
137	0xbc5c0fe8	-0.013431527
138	0xbc73bdd2	-0.0148768
139	0xbd2a1852	-0.0415271
140	0x3bf36178	0.0074273907
141	0x3d150185	0.036378402
142	0xbd06d5d5	-0.03291877
143	0x3b8a92b8	0.004228916
144	0x3a945780	0.0011317581
145	0x3cb4f366	0.022088718
146	0xbcece868	-0.028919414
147	0xbbf55b28	-0.0074876733
148	0x3d20eee5	0.039290328
149	0x3d257639	0.04039595
150	0xbd020012	-0.03173835
151	0xbc279cc4	-0.010230247
152	0xbd0c2afa	-0.034220673
153	0x3bb66558	0.0055662803
154	0x3d00e751	0.0314706
155	0x3cf63b66	0.03005762
156	0x3c9a81de	0.018860754
157	0x3b702340	0.0036642104
158	0x3d2077f5	0.0391769
159	0xbbfb3710	-0.007666476
160	0x3b569dd0	0.0032747872
161	0xbc6f2060	-0.014595121
162	0x3b8aebb8	0.0042395256
163	0x3c830b1a	0.015996505
164	0x3c631f60	0.013862461
165	0xbc485554	-0.012227375
166	0xbc051d38	-0.008124642
167	0xbb653ca0	-0.0034978762
168	0x3a756fc0	0.00093626603
169	0x3b8545b0	0.0040671453
170	0x3cc6514a	0.024208684
171	0x372a0000	1.013279e-05
172	0x3c7babb0	0.015360758
173	0xbc21061c	-0.009828117
174	0xbd195b85	-0.037440795
175	0x398bbe80	0.0002665408
176	0x3d24fafd	0.040278424
177	0xbd17558c	-0.03694682
178	0xbcb56d48	-0.022146836
179	0xbc5bce90	-0.013415948
180	0xbd068e2d	-0.032850433
181	0x3c232aa8	0.0099589005
182	0xbcb7856f	-0.022402493
183	0xbd317b25	-0.04333033
184	0x3c89326a	0.016747672
185	0x3c90e1e2	0.017685834
186	0xbb557a80	-0.0032574236
187	0xbd1610a8	-0.03663698
188	0x3a930e40	0.0011219457
189	0xbd04075f	-0.032233592
190	0xbcae93ec	-0.021310769
191	0xbc3aaabc	-0.011393245
192	0x3c4fb02c	0.01267628
193	0xbc248500	-0.010041475
194	0xbcfdead6	-0.030995768
195	0x3d11131f	0.035418626
196	0x3cb1ae06	0.021689426
197	0x3be90118	0.007110726
198	0x3bf7f968	0.0075675733
199	0xbcfb7c4e	-0.030698922
200	0xbc7d8f36	-0.015476039
201	0xbb89fa48	-0.004210744
202	0xbca3c141	-0.019989612
203	0x3d31bf27	0.043395188
204	0x3bd6a3b8	0.0065502785
205	0xbbaba858	-0.005238574
206	0x3c219500	0.0098621845
207	0x3ca5adbe	0.020224448
208	0xbd1ebbfc	-0.038753495
209	0x3cf38aa6	0.029729199
210	0x3c66b57c	0.014081355
211	0x3be63ca8	0.0070262738
212	0x3b801728	0.0039090104
213	0x3af29da0	0.0018510111
214	0x3d20c1d1	0.039247338
215	0xbcc2e122	-0.023788992
216	0x3d315d41	0.043301824
217	0x3d18d18f	0.037309226
218	0xbb636b20	-0.0034701303
219	0x3cb9ffd6	0.022705
220	0xbc8b53f5	-0.017007807
221	0xbd135c91	-0.03597695
222	0xbc9429ac	-0.018086277
223	0x3cb7bb82	0.022428278
224	0x3d1c004f	0.03808623
225	0xbcd4232e	-0.025895681
226	0xbc5fc7bc	-0.01365846
227	0x3cddfd0a	0.027098197
228	0x3d13567b	0.035971146
229	0xbc8a8ecf	-0.0169138
230	0xbbd6d998	-0.006556701
231	0x3cdaa9e2	0.026692335
232	0xbbd947d8	-0.006630879
233	0xbc93ccd2	-0.018042002
234	0x3d292bad	0.041301418
235	0x3c5ae30c	0.013359796
236	0x3ca3281e	0.01991659
237	0xbbcde260	-0.0062830895
238	0xbc792ad8	-0.015207969
239	0xbcdaae16	-0.026694339
240	0xbcf4da49	-0.029889243
241	0xbc8d6e63	-0.01726455
242	0x3c1c61e4	0.009544823
243	0xbcf76608	-0.03020002
244	0x3bcb52c0	0.006204933
245	0x3b3da210	0.0028935708
246	0x3d225db3	0.03964014
247	0x3b9ab248	0.00472096
248	0xbcf2efda	-0.029655386
249	0x3cb22c1a	0.021749545
250	0x39cf2600	0.0003951043
251	0x3c9f1f92	0.019424234
252	0xbcc98da0	-0.024603665
253	0xbd08e668	-0.033422858
254	0x3c9c8e7e	0.019110914
255	0xbc87ddb3	-0.016585207

bias f4 [20]
0	0x3b0421f0	0.002016183
1	0x3cb15cb3	0.021650648
2	0x3d18cc26	0.037304066
3	0x39c8a51b	0.00038269986
4	0x3c82fdac	0.0159901
5	0x3c80dbfb	0.015729895
6	0xbc174261	-0.009232135
7	0xbc7aa600	-0.015298367
8	0x3c2d42ef	0.01057504
9	0x3d1bffb6	0.03808566
10	0xbca32e02	-0.0199194
11	0x3c53fb58	0.012938343
12	0xbc4f82f6	-0.012665501
13	0xbc1328cb	-0.008981894
14	0xbc477fe4	-0.012176488
15	0xbc81c336	-0.015840154
16	0xbc06d5a9	-0.0082296515
17	0xbd05de01	-0.032682423
18	0x3d0171d3	0.03160269
19	0x3b9c5161	0.0047704433
