model_full_delta_scaled.pth (torch, 224808 bytes, 6 tensors)

weight f4 [64, 20, 3, 3]
0	0xbd513d32	-0.05108375
1	0x3d0e5c7e	0.034756176
2	0xbda21db4	-0.07915822
3	0x3d397541	0.045277838
4	0x3c6eefcc	0.014583539
5	0x3d1df6a9	0.03856531
6	0xbd020206	-0.03174021
7	0xbcac1dda	-0.021010328
8	0x3c25e1b4	0.010124613
9	0xbdc5b9f4	-0.09654608
10	0xbcbf8a05	-0.023381243
11	0xbd0bbc61	-0.0341152
12	0x3cce7e21	0.025206627
13	0x3d27675f	0.040870067
14	0x3d43fb7b	0.047847252
15	0xbd2607f2	-0.04053492
16	0x3d945c0a	0.072441176
17	0x3d6e1b6d	0.058131624
18	0xbbb490a8	-0.0055104084
19	0xbd31fd03	-0.04345418
20	0xbd1a6701	-0.03769589
21	0xbd2e6c3b	-0.042583685
22	0xbcddf25c	-0.027093105
23	0xbcbc4e4e	-0.022986557
24	0x3d2e0191	0.042481963
25	0xbd3e207e	-0.046417706
26	0xbd86f429	-0.065895386
27	0xbd2034dc	-0.03911291
28	0xbd59d5f7	-0.05318257
29	0x3ab5f250	0.0013881419
30	0x3d0743c5	0.033023614
31	0x3d97d120	0.07412934
32	0xbcc08c58	-0.023504421
33	0xbb36116d	-0.0027781383
34	0xbc2113dc	-0.009831395
35	0x3d432cbc	0.047650084
36	0x3d967b73	0.07347765
37	0x3dd09812	0.10185255
38	0xbd65c906	-0.056099914
39	0x3d8193cc	0.06327018
40	0x3d0ddb2e	0.034632854
41	0x3d139014	0.036026075
42	0x3d3bf6d2	0.045889683
43	0x3c95598d	0.018231178
44	0xbbe980ff	-0.0071259732
45	0xbd65ff99	-0.05615196
46	0xbdab0f0d	-0.0835248
47	0x3cc5b14e	0.024132397
48	0xbcdfa5c8	-0.02730073
49	0x3d2ed6f4	0.042685464
50	0xbd602c3f	-0.054729696
51	0x3ce55ade	0.02799743
52	0x3d0d5094	0.034500673
53	0x3d6a724c	0.05723791
54	0x3d90736a	0.070532635
55	0x3b92f737	0.0044850367
56	0xbc69a9d8	-0.014261685
57	0x3cb4dec5	0.022078881
58	0x3d4ee2e2	0.05050934
59	0x3c620536	0.013795188
60	0x3d989006	0.07449345
61	0x3d000c66	0.031261824
62	0x3d847dfd	0.06469343
63	0xbe3e89aa	-0.18607202
64	0xbc823e0d	-0.015898729
65	0x3d2888c4	0.041146055
66	0xbd7be832	-0.061500736
67	0x3d49edf9	0.049299214
68	0x3db1727a	0.08664413
69	0xbd8f11ad	-0.06985793
70	0x3caa63b0	0.020799488
71	0x37f07469	2.8664437e-05
72	0x3da8f84b	0.08250483
73	0xb9aadb72	-0.00032588426
74	0xbc0bf07b	-0.008541222
75	0x3d9c6d49	0.07638032
76	0xbdf98efd	-0.12185476
77	0xbd86176f	-0.06547438
78	0x3da18b1f	0.07887863
79	0xbd1bf55e	-0.038075797
80	0xbdebaa7e	-0.11507128
81	0xbd273cf5	-0.040829618
82	0xbcc44d69	-0.023962693
83	0xbd5f01a8	-0.05444494
84	0xbca589b3	-0.020207262
85	0x3d86f014	0.0658876
86	0x3c8b2d95	0.016989509
87	0x3cf02ce0	0.029318273
88	0xbaacb6e2	-0.0013177062
89	0x3c586c61	0.013209433
90	0x3abbbef2	0.0014323874
91	0x3be1c15a	0.0068895044
92	0xbd07f7fc	-0.03319548
93	0x3d53f212	0.051744528
94	0x3dccd09d	0.10000727
95	0xbd8089a7	-0.06276255
96	0x3adb4146	0.0016727827
97	0x3da4800d	0.08032236
98	0xbd4578d6	-0.04821094
99	0x3dabc71d	0.08387587
100	0x3d237037	0.03990194
101	0xbcf9d184	-0.030495413
102	0x3dc58730	0.096449256
103	0xbd3f594f	-0.04671603
104	0x3cfa1b1f	0.03053051
105	0xbbf28bd4	-0.0074019227
106	0x3bda20b0	0.0066567287
107	0xbbde4f3f	-0.006784349
108	0xbcf17673	-0.029475426
109	0x3d29ba2f	0.041437324
110	0xbb228311	-0.002479736
111	0xbd49d5e9	-0.049276266
112	0x3d7b7465	0.0613903
113	0x3ddd7486	0.10813241
114	0x3d4ad539	0.04951975
115	0x3d0d1684	0.0344453
116	0x3daf6125	0.08563451
117	0xbdb302e3	-0.08740785
118	0x3d93c784	0.07215789
119	0xbcff5220	-0.03116709
120	0xbc42e2c4	-0.011894885
121	0x3d8f482e	0.06996189
122	0x3cea8454	0.028627552
123	0x3d80d73b	0.06291052
124	0x3d15f86c	0.036613867
125	0xbc741110	-0.014896646
126	0x3d1ce814	0.038307264
127	0x3c63b99e	0.013899235
128	0xbc76ab56	-0.015055498
129	0xbd48cde8	-0.049024493
130	0x3dbb8023	0.091552995
131	0xbd177dae	-0.036985092
132	0xbb94e582	-0.004543961
133	0xbd0080af	-0.031372722
134	0xbc8fe4fa	-0.01756524
135	0xbcef7a08	-0.029232994
136	0xbd61b596	-0.055104814
137	0x3c91dd73	0.01780579
138	0x39992164	0.00029207312
139	0xbcf56e11	-0.02995971
140	0xbc571f00	-0.01312995
141	0xbd014a5e	-0.031565063
142	0xbcb8585d	-0.022503072
143	0x3db07bf1	0.0861739
144	0x3cb79084	0.022407778
145	0xbd7c1e08	-0.061552078
146	0x3cdf8195	0.02728347
147	0x3a6153b8	0.0008595544
148	0x3cf2fbfa	0.029661167
149	0xbc6fd0c6	-0.014637178
150	0xbcb8ae23	-0.022543972
151	0x3d8736eb	0.06602272
152	0x3d3e1803	0.046409618
153	0x3d70a7b7	0.058753695
154	0x3c782fe5	0.015148138
155	0x3bd16a4b	0.006390845
156	0xbbf29349	-0.0074028117
157	0x3ca2a1cd	0.019852543
158	0x3d4dfacd	0.05028801
159	0x3d734ea5	0.059401173
160	0x3c870347	0.016481055
161	0xbc7ffdd2	-0.01562448
162	0xbbe036d7	-0.006842475
163	0x3cf013e3	0.029306358
164	0xbd7383e3	-0.05945195
165	0x3d30bb44	0.04314734
166	0xbc42ad86	-0.0118821915
167	0x3d0851a3	0.03328098
168	0x3d0ac2fe	0.033877365
169	0xbd586c58	-0.0528377
170	0xbd353053	-0.04423554
171	0xbca47e1d	-0.020079667
172	0xbd7c1906	-0.0615473
173	0x3cb94c43	0.022619372
174	0x3ca44990	0.020054609
175	0xbc8bde4d	-0.017073775
176	0xbc299a87	-0.010351784
177	0xbd0260bf	-0.031830546
178	0xbd9b6da7	-0.07589274
179	0xbc99cffe	-0.018775936
180	0x3d1e4ef6	0.03864952
181	0x3c050742	0.008119406
182	0xbd178473	-0.036991548
183	0xbd35184b	-0.04421262
184	0x3ca9516e	0.020668712
185	0xbcc6e958	-0.024281189
186	0x3dc1888f	0.094498746
187	0x3c3f62bd	0.011681256
188	0x3ccb7f78	0.024841055
189	0x3d088cf4	0.03333755
190	0x3ccd2266	0.025040817
191	0xbd8c182e	-0.068405494
192	0x3c052b06	0.008127933
193	0x3d92786e	0.071518764
194	0xbc992a8f	-0.018697051
195	0x3d0eb3f2	0.034839578
196	0xbd98325d	-0.07431481
197	0xbdf05b1f	-0.1173613
198	0x3d0f6529	0.035008583
199	0x3c91faed	0.017819846
200	0x3d9bdc99	0.07610435
201	0xb951727a	-0.00019974439
202	0x3cb2164b	0.021739146
203	0x3bff7612	0.0077960575
204	0xbd30bf25	-0.04315104
205	0x3d111be2	0.03542698
206	0xbc974219	-0.018464135
207	0xbbdf2927	-0.0068103257
208	0xbd840c59	-0.06447668
209	0xbd1b4c85	-0.03791477
210	0x3d372517	0.044713106
211	0xbb09ec6b	-0.0021045457
212	0xbdbc011f	-0.09179901
213	0x3d6518f4	0.055932
214	0xbcb9da6f	-0.022687165
215	0xbddbc1bf	-0.107303135
216	0x3d4ad55b	0.049519878
217	0xbcf06a46	-0.02934755
218	0xbdd8316a	-0.105563
219	0xbd6dac17	-0.058025446
220	0xbdf6dc4d	-0.12053738
221	0xbc865704	-0.016398914
222	0x3c84ab42	0.016194943
223	0xbd575e52	-0.052580185
224	0x3c689c9f	0.014197498
225	0xbcd51b77	-0.026014073
226	0xbd907b30	-0.07054746
227	0xbc8f71d0	-0.017510325
228	0xbd345364	-0.04402484
229	0x3d0a9adf	0.033839103
230	0x3d8e7709	0.06956298
231	0x3ccce629	0.025012093
232	0x3bc1061a	0.00589062
233	0x3c23c18e	0.0099948775
234	0x3c9c21d4	0.0190591
235	0x3d9fa3b0	0.07794893
236	0x3dc5809c	0.09643671
237	0x3cda9c08	0.02668573
238	0x3b80ff94	0.0039367173
239	0xbd32cb43	-0.043650877
240	0xbdca42fc	-0.098760575
241	0xbd4545ab	-0.048162144
242	0x3ccecb3b	0.025243392
243	0xbdd969a8	-0.106158555
244	0xbd65fab6	-0.0561473
245	0xbda63f83	-0.08117583
246	0xbd1960b3	-0.037445735
247	0xbd77cc45	-0.06049754
248	0xbcd7f0fb	-0.026360026
249	0x3c741666	0.014897918
250	0xbcaf0664	-0.021365352
251	0x3cbffd7e	0.023436304
252	0x3d66c859	0.05634341
253	0xbd0b1404	-0.033954635
254	0xbce33978	-0.027737364
255	0x3badbf64	0.0053023566

bias f4 [64]
0	0xbd9794ff	-0.074014656
1	0x3d3b1fe2	0.045684703
2	0x3d3e2621	0.04642308
3	0x3d587756	0.052848183
4	0xbd69401e	-0.056945913
5	0xbcb5943a	-0.022165406
6	0x3d339190	0.04383999
7	0x3cd52e93	0.026023185
8	0x3c08447e	0.008317111
9	0xbd596744	-0.053076997
10	0xbd187553	-0.037221264
11	0x3cb100cd	0.021606827
12	0xbce57037	-0.02800761
13	0xbcc9fbe8	-0.024656251
14	0xbcd5d120	-0.026100695
15	0x3d360b28	0.044444233
16	0x3d29f766	0.041495703
17	0xbd4b2a69	-0.049600992
18	0x3d8b47ad	0.068007804
19	0x3ba04669	0.004891206
20	0x3d545c06	0.051845573
21	0xbcced8ea	-0.025249917
22	0xbbe9bc3d	-0.0071330355
23	0x3cc2b998	0.023770139
24	0xbd38d1c4	-0.045121923
25	0xbc821dce	-0.015883353
26	0xbd64c1bd	-0.055848826
27	0xbd76832e	-0.060183696
28	0x3a81ed66	0.0009912669
29	0x3d035790	0.032065928
30	0x3d439543	0.04774977
31	0x3d868c44	0.06569722
32	0x3d13a7d2	0.036048718
33	0xbd83e3d0	-0.06439936
34	0xbd859df3	-0.06524267
35	0xbd1ba7cd	-0.038001824
36	0x3d7f865b	0.06238399
37	0x3d8ed8f9	0.06974978
38	0xbc5eda2e	-0.013601823
39	0x3b3a4e0b	0.0028427865
40	0x3d6954fe	0.05696582
41	0xbc4f3072	-0.012645828
42	0xbbc3663b	-0.0059631146
43	0xbcaa3327	-0.020776344
44	0x3d70bcf4	0.05877395
45	0xbbb1e7b4	-0.0054292325
46	0xbd2f5193	-0.042802405
47	0x3dabd064	0.08389357
48	0x3c6d510f	0.014484658
49	0xbd9cc262	-0.07654263
50	0x3ce4e567	0.027941419
51	0x3b00f6d7	0.0019678378
52	0xbd3841f2	-0.044984765
53	0x3d00cf1b	0.03144751
54	0x3d974ba3	0.073874734
55	0xbc800dc4	-0.015631564
56	0xbcf75fa8	-0.03019698
57	0x3d124d77	0.035718407
58	0x3c8368cc	0.016041182
59	0x3d94772a	0.07249291
60	0x3d44f541	0.048085455
61	0xbd392d7e	-0.0452094
62	0x3c02c81b	0.007982279
63	0x3d5a004f	0.05322295

weight f4 [512, 64]
0	0x3d8d60b2	0.06903209
1	0xbe0ac9ac	-0.13553494
2	0xbe27d2e1	-0.16389038
3	0xbdbd398b	-0.09239491
4	0x3be63711	0.0070256074
5	0xbdaf98dc	-0.085740775
6	0xbd82b6fe	-0.06382559
7	0x3d701834	0.058616832
8	0x3d65b176	0.056077443
9	0x3d9c1947	0.07622009
10	0x3d63d956	0.05562719
11	0x3dd04448	0.101692736
12	0x3d9efc6d	0.0776299
13	0xb9436aa1	-0.00018636372
14	0xbcce9ab7	-0.025220258
15	0xbd449e44	-0.048002496
16	0xbda7def4	-0.08196822
17	0xbe17c011	-0.14819361
18	0xbd23a5e6	-0.039953135
19	0x3c96479a	0.01834469
20	0x3dc343a7	0.09534388
21	0x3b3fcc1c	0.0029265946
22	0xbd3029c0	-0.043008566
23	0x3c79d6cc	0.0152489655
24	0x3d45709f	0.048203107
25	0xbba20c29	-0.0049452973
26	0xbdb98bf3	-0.09059896
27	0x3c4ae5e7	0.012383915
28	0xbd9dba92	-0.07701601
29	0x3b6628d1	0.0035119543
30	0xbdbf29c7	-0.0933414
31	0xbc5bc44f	-0.013413503
32	0xbd960d9d	-0.07326815
33	0xbdb00519	-0.08594722
34	0x3cae9f30	0.02131614
35	0x3d24eefe	0.040266983
36	0x3d9d3292	0.07675661
37	0x3dcba5f4	0.099437624
38	0xbb8c8560	-0.0042883605
39	0xbd412eaf	-0.04716366
40	0x3cde10b9	0.027107583
41	0x3d12adc5	0.03581025
42	0xbdbbeffa	-0.09176631
43	0xbd697b0c	-0.057002112
44	0x3d125f67	0.035735514
45	0x3d9acade	0.07558225
46	0x3d54ef48	0.05198601
47	0x3d4cb81a	0.04998026
48	0xbd37e743	-0.044898283
49	0xbd98fa66	-0.07469635
50	0x3dba25c5	0.09089235
51	0xbd84d5bf	-0.06486081
52	0xbd892715	-0.066969074
53	0x3dbae17c	0.09125039
54	0xbd8347b6	-0.06410162
55	0xbc6c5b48	-0.01442606
56	0x3dc161a4	0.094424516
57	0x3c1770bc	0.009243187
58	0xbcb8cc55	-0.02255837
59	0x3daf18f4	0.08549681
60	0x3d29fb8b	0.041499656
61	0xbd448232	-0.047975726
62	0xbd8902e9	-0.06690008
63	0x3b840903	0.0040293946
64	0x3dc24978	0.09486669
65	0x3db994f2	0.09061612
66	0x3e03bebf	0.12865733
67	0xbc87075b	-0.016483
68	0x3dba310c	0.09091386
69	0x3dbdc853	0.092667244
70	0xbe021de0	-0.12706709
71	0x3d81b8de	0.06334089
72	0x3cc716f3	0.024302935
73	0xbdf86e88	-0.12130457
74	0x3d1f4656	0.038885437
75	0x3db078b7	0.086167745
76	0xbd028f0f	-0.031874713
77	0x3b841f2e	0.004032037
78	0xbddd69c1	-0.108111866
79	0x3dbdd71f	0.09269547
80	0x3dbe569b	0.092938624
81	0x3da0b4c0	0.07846975
82	0x3dd74699	0.10511512
83	0x3d8b1d79	0.06792731
84	0xbc21bc8d	-0.009871614
85	0x3d56d89b	0.052452665
86	0x3d8f724c	0.07004222
87	0x3d1f855f	0.038945552
88	0xbdc8a009	-0.09796149
89	0x3c96706d	0.018364156
90	0x3d7a874c	0.061164185
91	0xbdd20c7d	-0.10256288
92	0xbd313193	-0.04326017
93	0x3b9ff035	0.00488093
94	0x3d0924ca	0.03348235
95	0x3cc3b975	0.023892144
96	0xbd59ef17	-0.05320653
97	0x3dbd20cd	0.09234772
98	0xbdf0a7a9	-0.11750729
99	0x3cb40318	0.021974131
100	0xbd850745	-0.06495527
101	0x3d53e8f0	0.05173582
102	0xbde36ab4	-0.111043364
103	0x3ccdb2c6	0.02510966
104	0xbccb0fb1	-0.024787756
105	0xbda3f349	-0.08005387
106	0xbd9aa31c	-0.07550642
107	0x3db3bc73	0.08776178
108	0xbd258e12	-0.040418692
109	0xbdebdff9	-0.11517329
110	0x3ddd5472	0.10807122
111	0xbd809dd6	-0.06280105
112	0x3d9b1bc2	0.07573654
113	0xbe0c631b	-0.1370968
114	0x3cefbc75	0.029264668
115	0x3a7834b3	0.0009468302
116	0xbc23cf88	-0.00999821
117	0x3d83d03b	0.06436201
118	0xbdbea7c4	-0.093093425
119	0xbd1467ba	-0.036231734
120	0x3c9986dc	0.018741064
121	0xbc86f858	-0.016475841
122	0x3d180bac	0.037120506
123	0xbd363020	-0.04447949
124	0xbd56e895	-0.0524679
125	0x3da43e95	0.08019749
126	0xbcf270a4	-0.029594727
127	0xbde33b06	-0.11095242
128	0xbbe23e9f	-0.0069044377
129	0xbdc90a9d	-0.098164774
130	0xbd179575	-0.037007768
131	0xbd59cd7a	-0.053174473
132	0x3c47a35d	0.012184945
133	0x3cbd0574	0.02307389
134	0x3c5985fa	0.013276571
135	0xbd8522b2	-0.06500758
136	0x3daf6b4e	0.085653886
137	0xbd01b244	-0.031664148
138	0x3e045ac1	0.12925245
139	0xbc96059b	-0.01831322
140	0xbd28f1be	-0.04124617
141	0xbd07b737	-0.03313371
142	0xbd4b8002	-0.049682625
143	0x3db100f7	0.08642762
144	0x3d8e091d	0.06935332
145	0x3dd8fc3a	0.105949834
146	0xbdf35147	-0.11880737
147	0xbddebe9b	-0.10876199
148	0x3d00f859	0.031486843
149	0x3deded55	0.11617533
150	0xbdaa9b89	-0.08330447
151	0xbc9ee2c8	-0.019395247
152	0x3baa440c	0.0051961
153	0x3cd8570b	0.026408693
154	0xbdbae7d9	-0.09126253
155	0xbd9159e9	-0.07097227
156	0x3e0957e9	0.13412441
157	0x3da4dab7	0.08049529
158	0xbd8127d2	-0.06306423
159	0xbd9a1e7d	-0.075253464
160	0x3d205a2c	0.039148495
161	0xbdd18ef6	-0.10232346
162	0xbdae84ff	-0.08521461
163	0x3dafde03	0.08587267
164	0x3dbea9ac	0.09309706
165	0x3d14dc07	0.036342647
166	0x3cad3154	0.021141686
167	0xbc983bb3	-0.018583154
168	0xbda04062	-0.0782478
169	0xbc13b7bc	-0.009015974
170	0xbd337e5e	-0.043821685
171	0x3d17e398	0.037082285
172	0xbde3100f	-0.11087047
173	0xbd1b91c2	-0.037980802
174	0xbda64998	-0.08119506
175	0x3d9abb8c	0.07555303
176	0x38bcda30	9.005179e-05
177	0x3dc10fed	0.09426866
178	0x3cdb7ee8	0.026793912
179	0xbd9fa641	-0.07795382
180	0xbe1dfd62	-0.15428689
181	0xbdbd2cb4	-0.09237042
182	0xbd9f6dd9	-0.07784624
183	0xbd3208d1	-0.04346544
184	0x3d98bc64	0.07457808
185	0x3dbddbc2	0.09270431
186	0xbdf6a786	-0.12043671
187	0xbc00c44a	-0.007859299
188	0x3dc35223	0.09537151
189	0x3d5f3131	0.054490272
190	0xbc8f0abb	-0.017461171
191	0x3e03f407	0.12886058
192	0xbc3157cd	-0.010824156
193	0xbe2a0aed	-0.1660573
194	0xbd35636f	-0.04428428
195	0xbde66645	-0.11249975
196	0x3c3766fe	0.011193989
197	0x3db9672f	0.09052884
198	0x3d5771cd	0.052598763
199	0xbdc2e179	-0.09515662
200	0xbd161e9b	-0.03665028
201	0xbe0d3980	-0.13791466
202	0x3bcfadfa	0.0063378783
203	0x3d5bdc25	0.053676743
204	0xbd80ec73	-0.06295099
205	0x3e034c92	0.12822178
206	0x3d00982c	0.031395122
207	0xbd574b83	-0.052562248
208	0x3d8cfb5b	0.0688388
209	0x3dde55d7	0.108562164
210	0x3dc88520	0.097910166
211	0x3d6cc734	0.057807162
212	0xbb423da6	-0.0029638796
213	0xbdd11ede	-0.102109656
214	0xbda1224f	-0.07867872
215	0x3d7d0afa	0.061778046
216	0x3e093a11	0.13401057
217	0x3e052107	0.1300088
218	0x3c8d916f	0.017281262
219	0x3dc22aba	0.09480806
220	0xbdab94bb	-0.083779775
221	0x3dc0983f	0.09404039
222	0xbc7f8d92	-0.015597718
223	0x3db5b6df	0.088727705
224	0xbdcb3ac2	-0.099233165
225	0xbc9454a4	-0.018106766
226	0x3d10982b	0.03530137
227	0xbe1036a6	-0.14083347
228	0xbde8621a	-0.113468364
229	0xbced1026	-0.028938364
230	0xbc44d385	-0.012013321
231	0xbd9b3a52	-0.07579483
232	0x3d4248ac	0.047432587
233	0x3d7476f9	0.059683774
234	0x3cd36dfb	0.025809279
235	0xbdf31e8f	-0.11871063
236	0x3ce7fa5b	0.028317621
237	0xbdb341d5	-0.08752791
238	0xbdaa6f74	-0.08322039
239	0xbd3ae7f0	-0.04563135
240	0xbd2160e4	-0.039399043
241	0xbdc25359	-0.094885536
242	0xbd8a0428	-0.06739074
243	0x3da3cca7	0.07998019
244	0xbce83c3f	-0.02834904
245	0x3dab70d4	0.0837113
246	0xbdd7396b	-0.105089985
247	0xbc21055f	-0.009827941
248	0x3dfbc393	0.12293162
249	0x3d8ada15	0.06779877
250	0xbd145df5	-0.036222417
251	0x3db1bd7e	0.08678721
252	0x3e022ad9	0.12711658
253	0xbd040eb5	-0.03224059
254	0x3d8d7ae8	0.06908208
255	0xbd185fac	-0.037200615

bias f4 [512]
0	0x3db63e07	0.088985495
1	0x3c8b11b6	0.016976219
2	0x3ccd0bce	0.025030043
3	0xbdbc8d7e	-0.09206675
4	0xbd6c4ef2	-0.057692476
5	0xbdc42c54	-0.095787674
6	0x3be70c26	0.0070510088
7	0xbccb5e5b	-0.024825266
8	0x3d031931	0.032006446
9	0x3c4aa371	0.012368069
10	0x3bb9b1ea	0.005666961
11	0x3da60860	0.08107066
12	0x3d80cb34	0.06288758
13	0x3d123f54	0.035704926
14	0xbba4f391	-0.005033918
15	0x3de29251	0.11063064
16	0xbd78b88f	-0.060722884
17	0xbdd13da4	-0.10216835
18	0xbd8350ba	-0.06411882
19	0xbdebfebe	-0.115231976
20	0x3dd4213f	0.10357904
21	0x3cba0079	0.022705304
22	0xbd9d961b	-0.07694646
23	0xbd989a7f	-0.07451343
24	0x3ce13109	0.027489202
25	0x3d89f104	0.06735423
26	0x3d714cbe	0.058911078
27	0x3c1dfa3a	0.009642178
28	0xbd974642	-0.073864475
29	0xbdf19ad2	-0.11797108
30	0x3d309153	0.043107342
31	0xbcff5dd0	-0.031172663
32	0xbbc612e8	-0.0060447343
33	0xbdc832b8	-0.09775299
34	0xbc8dd3dd	-0.017312938
35	0x3d3626ad	0.044470478
36	0x3ca99055	0.020698706
37	0xbdee1eb3	-0.11626949
38	0x3c8aaeb8	0.016929016
39	0x3d45be04	0.048276916
40	0x3d86dcd0	0.065850854
41	0xbda414de	-0.080117926
42	0x3d986375	0.07440845
43	0x3be361a9	0.006939132
44	0xbc90c641	-0.01767266
45	0x3dae5780	0.08512783
46	0xbcd071e2	-0.025444929
47	0x3b497a2d	0.0030742988
48	0x3c58893c	0.013216313
49	0x3d10ab0d	0.035319377
50	0x3d702387	0.05862763
51	0xbb3ca406	-0.002878429
52	0xbdb17190	-0.086642385
53	0xbdf6d730	-0.120527625
54	0xbe097d33	-0.13426666
55	0x3c509f75	0.01273333
56	0xbce988c1	-0.028507592
57	0x3cc1eb53	0.023671782
58	0xbd76703c	-0.06016563
59	0xbd9afc83	-0.07567694
60	0x3cc6e2c4	0.024278052
61	0x3cade2db	0.021226337
62	0x3db08eb2	0.08620967
63	0x3ccb83cb	0.024843117
64	0xbd403a5b	-0.046930652
65	0x3d471c90	0.048611224
66	0x3d9ddb80	0.07707882
67	0x3db84abe	0.08998631
68	0xbd6eef56	-0.058333717
69	0xbd0ea231	-0.034822647
70	0x3d82d571	0.06388367
71	0x3d1bcfc0	0.038039923
72	0x3dce48bf	0.10072469
73	0xbe0d32d4	-0.1378892
74	0xbdd2dc9f	-0.102959864
75	0xbda68f96	-0.081328556
76	0x3d18fce1	0.03735054
77	0x3d985f18	0.07440013
78	0x3c6d2e08	0.014476307
79	0xbd64d27c	-0.055864796
80	0xbbc1ab77	-0.005910333
81	0xbd51abc1	-0.051189188
82	0xbd068ff4	-0.03285213
83	0xbdc05b92	-0.09392466
84	0x3c8ec9da	0.017430235
85	0x3de03311	0.1094724
86	0xbcf1f322	-0.02953488
87	0x3caf645e	0.021410163
88	0x3d37aeae	0.044844322
89	0xbdf48ea3	-0.11941268
90	0xbbb34a8a	-0.0054715322
91	0xbde9b20b	-0.11410912
92	0x3c4c0a8e	0.012453688
93	0xbbb07e4f	-0.005386151
94	0xbe2a8376	-0.16651711
95	0x3d3fd4bd	0.046833742
96	0xb95b63a9	-0.00020922594
97	0xbc94f9bc	-0.018185489
98	0x3d8a8a32	0.0676464
99	0x3cd08285	0.025452862
100	0xbd806eb5	-0.06271116
101	0x3d981263	0.07425382
102	0x3ae7e4b7	0.0017692064
103	0x3da89157	0.082308464
104	0x3da14160	0.078737974
105	0xbd07740c	-0.033069655
106	0xbde43b74	-0.11144152
107	0xbd986419	-0.07440967
108	0xbd1a2fc2	-0.0376432
109	0x3a89afbf	0.0010504647
110	0x3d814327	0.063116364
111	0xbd64d4ed	-0.055867124
112	0xbddda7d5	-0.10823027
113	0xbc830b55	-0.015996614
114	0xbe02578a	-0.12728706
115	0xbda815dd	-0.08207295
116	0xbcf153ec	-0.029458962
117	0xbd50850c	-0.050908133
118	0xbd56f245	-0.05247714
119	0x3d0ee8b1	0.03488988
120	0x3ce2baa1	0.027676882
121	0xbd740d12	-0.059582777
122	0x3c47beae	0.012191458
123	0xbde8724f	-0.11349928
124	0x3daa1c90	0.08306229
125	0x3cd4ec90	0.025991708
126	0x3d4d51e8	0.05012694
127	0x3c9d2c4e	0.019186165
128	0x3d3750a4	0.04475464
129	0x3df9bb6a	0.121939495
130	0x3cc0690a	0.023487587
131	0x3d86a872	0.06575097
132	0xbe21c606	-0.15798196
133	0x3d14ff6c	0.0363764
134	0x3c11c025	0.0088959085
135	0xbd5a77b4	-0.053336814
136	0x3dbb8bad	0.091575004
137	0x3d079909	0.03310493
138	0xbda08e9b	-0.078397
139	0x3b0c17da	0.0021376521
140	0x3d6a61da	0.057222225
141	0xbc31191a	-0.010809207
142	0xbca3d442	-0.019998673
143	0x3ddb6bbe	0.107139096
144	0x3deb1d5d	0.1148021
145	0x3db1777b	0.08665367
146	0x3db856a9	0.09000904
147	0xbaf3bb27	-0.0018595204
148	0x3d829503	0.06376078
149	0x3c02c674	0.007981885
150	0xbd9f310e	-0.07773028
151	0xbd087bf2	-0.03332133
152	0x3c12fa89	0.008970865
153	0x3d791117	0.060807314
154	0x3cebf5dd	0.02880376
155	0x3d1e4601	0.03864098
156	0x3d626067	0.055267718
157	0xbbc3f99e	-0.0059806844
158	0xbcfa6905	-0.030567655
159	0xbd73844c	-0.05945234
160	0x3ddbdb85	0.107352294
161	0xbd06ce65	-0.032911677
162	0x3c782338	0.015145116
163	0x3de13d98	0.10998076
164	0xbe02bcba	-0.12767306
165	0x3d879803	0.06620791
166	0x3d635148	0.055497438
167	0xba512417	-0.0007978095
168	0xbdda58b1	-0.10661448
169	0x3dedb100	0.11606026
170	0x3db74ba4	0.08949974
171	0x3dbfcee5	0.09365634
172	0xbccb612c	-0.024826609
173	0x3c1e1a02	0.009649755
174	0xbe1a9708	-0.15096676
175	0xbdcb7134	-0.09933701
176	0x3d5bb26c	0.053636953
177	0xbdc23079	-0.09481902
178	0xbd85a97a	-0.06526466
179	0xbd317105	-0.043320674
180	0x3d37c041	0.044861082
181	0xbdc13030	-0.09433019
182	0xbcbb834b	-0.022889754
183	0xbca74304	-0.020417698
184	0x3dd5a6e9	0.10432226
185	0xbbdc79b5	-0.006728376
186	0xbd3ccffe	-0.046096794
187	0xbddcee9f	-0.10787701
188	0x3cd95541	0.02652991
189	0xbdb012f8	-0.08597368
190	0xbcd5b21f	-0.026085911
191	0x3cf57d30	0.02996692
192	0x3cc2d3f2	0.023782704
193	0xbd5b90bf	-0.053604838
194	0x3d0b61c4	0.034028783
195	0xbd94b7a4	-0.07261589
196	0xbc58a567	-0.013223029
197	0xbd7aab67	-0.06119862
198	0xbd8dc7b6	-0.069228575
199	0xbd0c601a	-0.034271337
200	0xbc59d329	-0.013294973
201	0x3d95befb	0.07311817
202	0xbcc9acd2	-0.02461854
203	0x3d4c8c41	0.049938444
204	0xbdc4c6ec	-0.09608254
205	0x3d28f14a	0.041245736
206	0xbbce9e61	-0.0063055013
207	0x3d3ce14f	0.04611331
208	0x3d9115f9	0.07084269
209	0xbcadf190	-0.02123335
210	0xbe0ca250	-0.13733792
211	0x3d8a3810	0.06748974
212	0x3d4d5e20	0.050138593
213	0xbcacd13d	-0.021095866
214	0x3dbd1655	0.09232775
215	0x3de5d7e5	0.11222819
216	0xbd9be4e2	-0.07612015
217	0xbdc57247	-0.09640937
218	0x3dd73607	0.10508352
219	0xbd1d55c9	-0.03841189
220	0xbd88d23a	-0.066807225
221	0x3ddb03f3	0.10694113
222	0x3c9d4f0b	0.01920273
223	0xbcb7438f	-0.022371082
224	0xbe113ef1	-0.14184166
225	0xbdcdb242	-0.100437656
226	0xbdf1b85b	-0.11802741
227	0xbd061956	-0.032739006
228	0x3db46bae	0.08809601
229	0xbba46963	-0.005017446
230	0xbd8a57d7	-0.06755035
231	0x3dc82fa7	0.09774714
232	0x3d96fb08	0.07372099
233	0x3d2fb297	0.042894926
234	0x3da13acf	0.07872545
235	0x3dd55357	0.104162864
236	0xbdc21372	-0.09476365
237	0x3ce6820f	0.028138189
238	0x3c555c86	0.013022548
239	0xbc8ba61d	-0.017046982
240	0x3daecf48	0.085356295
241	0x3d51c08e	0.051209025
242	0xbda9e961	-0.082964666
243	0x3cab7571	0.020930024
244	0x3d9f279d	0.077712275
245	0xbcc0c5f2	-0.023531888
246	0x3c24f5b3	0.010068345
247	0x3da33f4e	0.07971059
248	0x3d615793	0.055015158
249	0x3d5e615a	0.05429206
250	0x3dace2cc	0.084416956
251	0xbdbd1acb	-0.09233626
252	0xbdd3b9fa	-0.103382066
253	0xbd18053d	-0.03711437
254	0xbc6da5b4	-0.014504839
255	0x3dd6cbf8	0.10488123

weight f4 [20, 512]
0	0xbd1da07d	-0.03848313
1	0x3cee7e68	0.02911301
2	0xbc271aae	-0.010199232
3	0x3d08e70e	0.033423476
4	0xbd1825e9	-0.03714553
5	0x3d05fca1	0.03271163
6	0xbb9221e2	-0.0044596056
7	0xbc61e9c1	-0.013788641
8	0x3b8c5d7d	0.0042836056
9	0xbc742295	-0.014900823
10	0xbcf60844	-0.030033238
11	0xbd289afe	-0.041163437
12	0xbbc5f718	-0.0060414188
13	0xbceeab2f	-0.029134361
14	0xbc774f0c	-0.01509453
15	0x3c2bc501	0.010483981
16	0xba955807	-0.0011394032
17	0xbd00d0e7	-0.031449225
18	0x3cee07dd	0.029056484
19	0x3c1916d7	0.009343824
20	0x3d1541fa	0.036439873
21	0xbc93da8d	-0.01804855
22	0x3b9ea87a	0.0048418613
23	0x3c555ffa	0.013023371
24	0x3d1d02b6	0.038332663
25	0xbbc44143	-0.005989225
26	0xbb8274a7	-0.003981191
27	0xbd2022d4	-0.039095715
28	0x3aff0e3d	0.0019459199
29	0xbd1c8f26	-0.038222454
30	0x3bd74600	0.006569624
31	0xbd188d89	-0.037244353
32	0x3c82b478	0.015955195
33	0xbc810aef	-0.015752284
34	0x3c162538	0.009164147
35	0x3d2b0b1e	0.04175865
36	0x3cf4b269	0.029870229
37	0xbaaae3a3	-0.0013037812
38	0xbd019816	-0.03163918
39	0xbd1a441a	-0.037662603
40	0xbcae14bb	-0.02125012
41	0xbd162b60	-0.03666246
42	0x3cf3fc3e	0.029783364
43	0xbd1c6ffa	-0.038192727
44	0x3c04beb1	0.008102105
45	0xbc352b9e	-0.011057762
46	0x3d00f551	0.031483952
47	0xbcd6885d	-0.02618807
48	0xbcb55ed7	-0.02213995
49	0xbca61db6	-0.02027784
50	0xbba6ad4c	-0.0050865766
51	0xbd088c82	-0.033337124
52	0xbd1d4b82	-0.038402088
53	0xbca95ba2	-0.020673577
54	0x3c36f2d2	0.011166291
55	0xbcfcc1c3	-0.030854112
56	0xbc8ff643	-0.017573481
57	0xbc154d3e	-0.009112654
58	0x3c063c1b	0.008193041
59	0xbd34917e	-0.044084065
60	0x3cfa1cb5	0.030531267
61	0x3d003eb1	0.031309787
62	0x3d2b42b1	0.04181165
63	0x3d1c5548	0.038167268
64	0xbbca3404	-0.0061707515
65	0x3c33ba77	0.01096975
66	0xba9c1530	-0.001190817
67	0xbd147403	-0.03624345
68	0xbb939511	-0.004503854
69	0x3c546d98	0.012965582
70	0xbc334c99	-0.010943555
71	0x3cb218c1	0.02174032
72	0x3c00eeed	0.007869464
73	0xbc743185	-0.0149043845
74	0xbb92f215	-0.004484425
75	0xbcdcf72c	-0.02697333
76	0x3c85f9ed	0.016354525
77	0xbd1af5f2	-0.037832208
78	0xbc6a0199	-0.0142826075
79	0xbc97cd6e	-0.018530574
80	0xbce0488a	-0.02737834
81	0xbd00a185	-0.031404037
82	0x3c36e52f	0.01116304
83	0xbcc938da	-0.024563242
84	0x3ccb2e6c	0.02480241
85	0x3ca0581a	0.01957326
86	0xbd042648	-0.03226307
87	0xbc1a1358	-0.009404026
88	0x3d2f9454	0.042866066
89	0x3d00696d	0.03135054
90	0x3cd33cf1	0.025785895
91	0x3cef1bdc	0.02918809
92	0xbc0adc99	-0.008475446
93	0xbd08a0f8	-0.033356637
94	0x3cdc9aed	0.026929343
95	0xbc8630c8	-0.016380683
96	0x3cfb0c2c	0.030645452
97	0x3b9730f3	0.0046139895
98	0xbc1ac19a	-0.009445572
99	0x3cdd3cf1	0.027006598
100	0x3cb956aa	0.022624332
101	0x3cfec03d	0.031097526
102	0xbb4f32d2	-0.0031615985
103	0xbce4fc99	-0.02795248
104	0x3cee3bb7	0.029081209
105	0x3bce8db6	0.0063035144
106	0xbd0dcd0d	-0.03461938
107	0xbd134855	-0.035957653
108	0x3d1fe603	0.039037716
109	0x3cd2dddb	0.025740555
110	0x3c8562c0	0.01628244
111	0x3b8438d9	0.004035097
112	0xbcc0b071	-0.023521634
113	0x3cd29afe	0.025708672
114	0x3cc6f48f	0.024286536
115	0x3d2fa0b2	0.04287786
116	0xbcb2cbdf	-0.021825729
117	0x3d111b54	0.035426453
118	0xbcd0e342	-0.02549899
119	0xbcba70cd	-0.022758866
120	0xbb68a4b0	-0.0035498552
121	0xbc5bcbe3	-0.01341531
122	0x3b89ce5a	0.004205507
123	0x3c222473	0.0098963855
124	0x3ce3d9d0	0.027813822
125	0x3cbdce50	0.023169667
126	0x3d118f2a	0.035536923
127	0x3d26514d	0.04060488
128	0x3cf80f9a	0.030280877
129	0xbcd8bf4f	-0.02645841
130	0x3b9b3b67	0.004737306
131	0xbce1a883	-0.027546173
132	0x3ccb1678	0.024790987
133	0x3c314bf8	0.010821335
134	0xbc932e27	-0.017966343
135	0xbcd75011	-0.026283296
136	0xbae67190	-0.0017581452
137	0x3cd61efc	0.026137821
138	0xbc9a6be0	-0.018850267
139	0x3d00a74b	0.031409543
140	0xbd0d7011	-0.034530703
141	0xbd0583b8	-0.03259632
142	0xbd237927	-0.03991046
143	0xbd25a90e	-0.040444426
144	0x3d02292e	0.031777553
145	0xbd06553a	-0.032796122
146	0x3cc1d907	0.023663057
147	0x3b37b9a6	0.002803424
148	0x3ce20d8a	0.027594347
149	0xbcecc501	-0.028902533
150	0x3b99d4cf	0.004694558
151	0xbc02701a	-0.007961297
152	0xbd0be62c	-0.034155056
153	0xbcb843d0	-0.022493273
154	0xbcbb0159	-0.022827791
155	0xbbe2d75d	-0.006922646
156	0x3c76c5c8	0.015061803
157	0x3d2fcf57	0.042922344
158	0xbc8a143f	-0.016855357
159	0x3ab77ace	0.0013998391
160	0xbd095f7b	-0.033538323
161	0x3ce02a9c	0.027364068
162	0xbc70c0d1	-0.0146944085
163	0x3d0ff3cb	0.03514461
164	0x3b433736	0.0029787547
165	0x3d13a89d	0.036049474
166	0x3d1c7e47	0.038206365
167	0x3b214ef2	0.0024613705
168	0xbc7294b9	-0.014805966
169	0xbbe852f9	-0.0070899692
170	0x3c9a73ff	0.01885414
171	0xbce96bcb	-0.028493783
172	0x3ce2b42a	0.0276738
173	0xbb7a9d1f	-0.0038240624
174	0xb97d24ec	-0.00024141715
175	0xbcb4abe6	-0.022054624
176	0x3d0bccef	0.034130987
177	0x3c5be50f	0.013421311
178	0x3cfad39a	0.030618478
179	0x3c2148a6	0.009843981
180	0xbd2e379f	-0.042533513
181	0xbcde0f82	-0.027107004
182	0x3ceb421b	0.028718045
183	0x3d010298	0.031496614
184	0xbd23487c	-0.03986405
185	0x3cfb0aea	0.030644853
186	0xbb99a509	-0.004688863
187	0x3d1fcbdf	0.039012786
188	0xbd26f55b	-0.040761333
189	0xbb25efb4	-0.0025319876
190	0xbc76df53	-0.015067893
191	0xbc3f9783	-0.011693838
192	0xbc4f492e	-0.012651725
193	0x3d0a7f4a	0.0338128
194	0xbc46ef06	-0.012141949
195	0x3aedc694	0.0018140846
196	0x3d190136	0.03735467
197	0x3c86729c	0.016412072
198	0x3c621e7a	0.0138012115
199	0x3b6bf389	0.0036003313
200	0x3d2f2d2e	0.042767696
201	0xbceb983e	-0.028759118
202	0x3cbd6529	0.023119526
203	0xbc65e20b	-0.014030944
204	0xbd2acdfe	-0.041700356
205	0x3cd07d0a	0.025450248
206	0x3d26a7b9	0.040687297
207	0x3c614056	0.013748249
208	0x3cd14da8	0.025549725
209	0x3d1ccfad	0.038283993
210	0x3cb345af	0.021883814
211	0xbc8de6c2	-0.017321948
212	0xbd29f075	-0.041489083
213	0xbc4d3422	-0.012524636
214	0x3d004723	0.03131784
215	0xbc3f4a70	-0.011675462
216	0x3c81cd2b	0.015844902
217	0xbd28c4fa	-0.041203476
218	0x3cae3c5c	0.021269016
219	0x3bb25e64	0.005443381
220	0xbc8d5716	-0.01725344
221	0xbc67476b	-0.014116148
222	0x3b803adb	0.003913266
223	0x3c85a447	0.016313685
224	0xbca5870b	-0.020205995
225	0xbd0439d9	-0.03228173
226	0x3ce89b92	0.028394494
227	0x3c206096	0.009788653
228	0xbd2409ce	-0.040048413
229	0x3c4bb2c3	0.012432757
230	0x3beb7e82	0.0071867118
231	0xbb30975e	-0.002694569
232	0x3d1ec671	0.038763467
233	0x3d296833	0.041359138
234	0xbc9d1e2d	-0.019179428
235	0x3b925bc7	0.004466507
236	0xbccbbd11	-0.024870427
237	0x3d188944	0.03724028
238	0xbd1f97ef	-0.038963255
239	0x3c81e423	0.015855854
240	0x3b481550	0.0030530281
241	0xbd1a8ee8	-0.037733942
242	0x3cd59716	0.02607302
243	0xbd2423bd	-0.040073145
244	0x3ca2bf95	0.019866744
245	0xbd0fbb88	-0.035090953
246	0x3cf9f4ee	0.0305123
247	0x3cc0b822	0.023525301
248	0xbd073bd6	-0.03301605
249	0x3ace0855	0.0015719036
250	0xbc253b81	-0.010084988
251	0xba6f7ec1	-0.0009136014
252	0xbcc29a5e	-0.023755249
253	0xbc8a04cd	-0.016847992
254	0x3d1b5847	0.037925985
255	0x3a8d2be0	0.0010770522

bias f4 [20]
0	0x3d26da62	0.04073561
1	0xbca51af5	-0.020154456
2	0xbba8ccda	-0.0051513733
3	0xbcf8620a	-0.030320186
4	0x3c909d61	0.01765317
5	0x3c7eba64	0.015547369
6	0xbc3e2329	-0.0116050625
7	0xbceb1e65	-0.028701017
8	0x3d1bf664	0.038076773
9	0xbcd39241	-0.025826575
10	0xbbbaadc3	-0.0056969835
11	0x3c99a221	0.018754067
12	0xbce25b09	-0.0276313
13	0xbc6c14b9	-0.014409238
14	0x3d0aaab7	0.033854213
15	0xbc1ded36	-0.009639075
16	0xbaaea319	-0.0013323753
17	0xbb2e8e1f	-0.0026635004
18	0x3ca3f96f	0.0200164
19	0xbc8de5b1	-0.01732144
