model_full.pth (torch, 94054 bytes, 6 tensors)

weight f4 [64, 20, 3, 3]
0.075196534 0.076681785 0.013263244 0.09121444 0.02794822 0.001711594 0.06303304 -0.03517655
0.058292188 -0.028864687 -0.09540876 -0.1177361 -0.08144398 -0.0408688 -0.031876616 -0.03500692
0.0523399 0.039763816 0.049167626 0.0704743 0.051676948 0.112626374 0.036831863 0.060242698
0.0732282 0.022217365 0.08355082 -0.056148 0.016240083 0.04992789 -0.082660004 0.049571104
0.018311352 -0.06911404 0.08244456 0.014737485 -0.1059893 -0.026537111 0.050950103 -0.05673787
0.12333569 0.040821895 -0.010689002 0.105756626 0.09389624 0.09386406 -0.03449418 -0.049706504
0.06219108 -0.025239768 -0.0652607 0.028745724 -0.041797385 -0.10841342 -0.058140002 0.042347323
-0.049381576 -0.03649813 0.048698056 0.035245556 -0.08504183 -0.021207158 0.08310429 -0.08250693
0.044608023 -0.06954089 -0.06891643 0.083813645 -0.0018118944 -0.046647854 0.0075582387 0.10106004
-0.13239487 -0.016494282 0.06613399 -0.10762256 -0.09904028 -0.022104677 -0.06291828 -0.04420506
0.017381743 -0.044010613 0.008139475 0.040739045 -0.004294249 0.026952015 -0.034883566 -0.055134088
0.06513382 0.074082114 -0.03420336 0.050589137 0.018851189 0.010080947 -0.091966085 0.016628679
-0.11551905 -0.03933599 0.03915024 -0.08560295 -0.16599357 -0.076861694 -0.081557326 0.007494942
0.024799788 -0.06417822 0.0164309 0.06783805 0.03423364 -0.07812866 0.029366275 0.10038944
0.041091263 -0.0068401676 0.018155647 0.01638629 0.06807342 0.12955241 0.098704465 -0.04787005
0.05192594 -0.13893619 -0.047082916 0.007210958 -0.038514853 -0.05769895 -0.00067275995 0.06616155
-0.064006 0.019808536 0.059371725 -0.04082451 -0.008513432 -0.0873577 -0.05936178 -0.17786135
-0.06305052 0.0019476397 -0.049479686 -0.017148886 0.14714384 0.068096966 0.04268608 0.12295149
-0.07823544 -0.1172531 -0.07493388 0.05504379 -0.15523419 -0.054648735 0.00051851035 -0.024454918
-0.029368473 0.07224341 0.15654741 0.1456957 0.04685214 0.16022168 0.03038138 -0.031918265
-0.031279262 -0.04682643 -0.011565722 0.030424705 0.0018077987 0.033222046 0.054550823 -0.014543346
0.02731376 0.06616669 -0.09254486 -0.062386937 0.0011395449 -0.053133976 -0.0558283 -0.058689643
0.06175137 -0.040114995 -0.04850354 0.037485056 -0.03048579 -0.1233409 -0.082343 -0.094922654
-0.0978499 -0.086220846 -0.0006188283 -0.09122047 -0.17418754 -0.0048393724 -0.054141648 0.04475404
-0.076700374 -0.0062311525 0.038927246 0.0058024433 0.008582118 -0.021251189 0.11899302 0.19040343
0.1982576 0.04471673 0.051821124 0.18963274 0.019933319 0.019151311 0.14102606 -0.09563861
-0.0042856517 -0.009193554 0.008728077 -0.026447896 -0.058491584 0.01279828 0.03578349 -0.022280836
0.02575402 0.07921429 0.059864286 0.09094002 0.09380775 0.040894017 0.058255304 0.060630485
-0.025299361 -0.010261917 -0.08374637 -0.050088692 -0.0091572935 -0.036554232 -0.015750935 -0.07454537
-0.053661022 0.0021031129 0.026178196 0.021232119 -0.028170845 -0.09314598 -0.08887379 0.019758565
-0.08703701 -0.06933834 -0.12516272 0.040859338 0.067620955 0.03976208 0.105400555 0.04313635
0.013562946 0.017979693 0.10404992 0.028831026 -0.09731215 0.009358096 0.04302988 0.061621122
00000000: a400 9a3d 570b 9d3d 144e 593c a3ce ba3d
00000010: aaf3 e43c 9157 e03a 7717 813d 4915 10bd
00000020: cac3 6e3d a375 ecbc ab65 c3bd a01f f1bd
00000030: 1acc a6bd 0b66 27bd 0e91 02bd 6b63 0fbd
00000040: 5d62 563d 62df 223d fe63 493d d454 903d
00000050: 35ab 533d a8a8 e63d 02dd 163d 0cc1 763d
00000060: abf8 953d 3101 b63c b11c ab3d 72fb 65bd
00000070: ec09 853c 3081 4c3d a649 a9bd 120b 4b3d
00000080: b001 963c a98b 8dbd b2d8 a83d 7e75 713c
00000090: eb10 d9bd 5b64 d9bc 0eb1 503d f865 68bd
000000a0: 6c97 fc3d dc34 273d ed20 2fbc ee96 d83d
000000b0: ac4c c03d cd3b c03d c549 0dbd 0c99 4bbd
000000c0: 13bc 7e3d a1c3 cebc 67a7 85bd 277c eb3c
000000d0: bc33 2bbd db07 debd 3624 6ebd 6374 2d3d
000000e0: 5644 4abd 107f 15bd 9d77 473d a55d 103d
000000f0: 692a aebd a2ba adbc 9532 aa3d 65f9 a8bd
00000100: e7b6 363d 746b 8ebd 0f24 8dbd 7da6 ab3d
00000110: 167d edba d211 3fbd 1aab f73b 91f8 ce3d
00000120: 8592 07be 041f 87bc 4271 873d 3769 dcbd
00000130: a1d5 cabd de14 b5bc 4ddb 80bd 5d10 35bd
00000140: 2864 8e3c 7944 34bd 6f5b 053c fcdd 263d
00000150: c6b6 8cbb 79ca dc3c 12e2 0ebd 48d4 61bd
00000160: e164 853d 5db8 973d d318 0cbd 8e36 4f3d
00000170: cf6d 9a3c 8e2a 253c b758 bcbd de38 883c
00000180: 4095 ecbd c61e 21bd 015c 203d 9950 afbd
00000190: 38fa 29be aa69 9dbd 8707 a7bd 2198 f53b
000001a0: ed28 cb3c df6f 83bd 189a 863c adee 8a3d
000001b0: 9338 0c3d eb01 a0bd 8b91 f03c fb98 cd3d
000001c0: 504f 283d 7c23 e0bb 27bb 943c 8a3c 863c
000001d0: 146a 8b3d 63a9 043e 9125 ca3d 6313 44bd
000001e0: 4bb0 543d 4a45 0ebe 04da 40bd e649 ec3b
000001f0: c0c1 1dbd bc55 6cbd 285c 30ba b57f 873d
00000200: 9415 83bd 8345 a23c c42f 733d 9a37 27bd
00000210: ec7b 0bbc 98e8 b2bd 5625 73bd 4921 36be
00000220: a220 81bd f247 ff3a 36ab 4abd d27b 8cbc
00000230: e0ac 163e 6c76 8b3d 99d7 2e3d fecd fb3d
00000240: e739 a0bd 6522 f0bd ef76 99bd 9975 613d
00000250: b6f5 1ebe 5ad7 5fbd a4ec 073a ae55 c8bc
00000260: 2796 f0bc 5af4 933d f74d 203e 4131 153e
00000270: 08e8 3f3d 2711 243e 5fe2 f83c babc 02bd
00000280: af1e 00bd 12cd 3fbd 277e 3dbc 3b3d f93c
00000290: a9f3 ec3a d713 083d af70 5f3d 3747 6ebc
000002a0: 1bc1 df3c 6782 873d 2988 bdbd 7289 7fbd
000002b0: c85c 953a 03a3 59bd 37ac 64bd 8d64 70bd
000002c0: 01ef 7c3d 9f4f 24bd a6ab 46bd ee89 193d
000002d0: 56bd f9bc 279a fcbd 72a3 a8bd cf66 c2bd
000002e0: 8765 c8bd 8e94 b0bd dd38 22ba ccd1 babd
000002f0: 385e 32be 9993 9ebb a2c3 5dbd 0350 373d
00000300: 1615 9dbd b22e ccbb 2d72 1f3d 6c22 be3b
00000310: 039c 0c3c f916 aebc 9db2 f33d 1ef9 423e
00000320: 0a04 4b3e e428 373d 6342 543d 162f 423e
00000330: 334b a33c 36e3 9c3c 2369 103e 2dde c3bd
00000340: a76e 8cbb 8fa0 16bc 3500 0f3c 42a9 d8bc
00000350: df94 6fbd e1af 513c b591 123d 4d86 b6bc
00000360: 18fa d23c 1a3b a23d 4134 753d c33e ba3d
00000370: 471e c03d 7c80 273d 1d9d 6e3d ac57 783d
00000380: 9b40 cfbc 9921 28bc 3883 abbd cd29 4dbd
00000390: 7908 16bc e4b9 15bd 1b08 81bc 3eab 98bd
000003a0: a9cb 5bbd 61d4 093b a873 d63c fbee ad3c
000003b0: 8bc6 e6bc 52c3 bebd 7603 b6bd b7dc a13c
000003c0: 7640 b2bd 4201 8ebd a82a 00be 1f5c 273d
000003d0: db7c 8a3d 90dd 223d 3fdc d73d beaf 303d
000003e0: 1e37 5e3c 264a 933c 2018 d53d 0b2f ec3c
000003f0: 984b c7bd b352 193c 1940 303d 6e66 7c3d

bias f4 [64]
-0.084698856 -0.09956763 -0.009817484 -0.03717451 0.048988562 -0.011011185 -0.07519339 0.07204998
0.015649138 0.036794193 0.008536333 -0.13887882 0.08407012 0.04601531 -0.021944068 0.06687246
0.04001559 -0.1465749 0.043170787 0.041018214 -0.16024898 0.0045714877 -0.15805657 -0.03785566
-0.06861464 0.035723682 -0.12936087 0.028830893 -0.04824547 0.011276565 0.065852426 -0.11671389
-0.13100043 0.008175014 0.065242626 -0.09736372 -0.034019563 -0.038458493 0.0040985993 0.020689143
0.055577815 0.050849922 0.020149998 -0.015671784 -0.007262071 -0.11334914 0.09999025 0.038574096
0.08276338 0.005995759 -0.075571515 -0.034934115 0.06549999 0.047599696 0.05540691 -0.0020267093
-0.1780248 -0.07337951 -0.017613675 -0.10951217 -0.05607666 -0.15195847 -0.15395734 -0.01085171
00000000: 9876 adbd 1dea cbbd 83d9 20bc 4d44 18bd
00000010: 3ba8 483d 4268 34bc fefe 99bd f18e 933d
00000020: 9f32 803c 82b5 163d fadb 0b3c 4036 0ebe
00000030: f42c ac3d 8d7a 3c3d 0cc4 b3bc 6ef4 883d
00000040: 63e7 233d bb17 16be dad3 303d b702 283d
00000050: 4f18 24be 6bcc 953b 95d9 21be 890e 1bbd
00000060: d585 8cbd ff52 123d 2d77 04be c42e ec3c
00000070: 0b9d 45bd 57c1 383c a3dd 863d b107 efbd
00000080: fa24 06be 7ef0 053c ed9d 853d a166 c7bd
00000090: 1958 0bbd a786 1dbd 8b4d 863b 477c a93c
000000a0: 90a5 633d 0248 503d 9c11 a53c 1d62 80bc
000000b0: abf6 edbb 9823 e8bd b0c7 cc3d dfff 1d3d
000000c0: d97f a93d 1278 c43b 3dc5 9abd 1317 0fbd
000000d0: dc24 863d e6f7 423d 5bf2 623d 8ad2 04bb
000000e0: 224c 36be ff47 96bd 8e4a 90bc eb47 e0bd
000000f0: a4b0 65bd 009b 1bbe fea6 1dbe 5fcb 31bc

weight f4 [128, 64]
0.02948744 -0.106305264 0.14266303 0.13279869 -0.14366561 0.020504596 0.032875538 0.07809671
-0.10045187 -0.12106402 0.055798564 -0.02554327 0.019857198 -0.13113898 0.012322489 -0.047580864
-0.044806946 -0.08868912 0.008312963 0.09312852 -0.1321225 -0.022469582 0.008409054 -0.0671907
-0.07530616 -0.08570639 0.1890833 0.051236745 -0.11509163 0.15425158 0.041762836 0.044635393
-0.09179614 -0.045474634 0.02566999 -0.01344215 -0.16202539 -0.121832274 -0.030619701 0.0024679154
0.0720461 -0.04133082 0.09040184 -0.05568934 0.04143372 -0.04974626 -0.10609123 -0.018818757
0.028333323 0.040238257 -0.08142527 -0.13108724 0.21969877 0.051385947 0.04401004 -0.13565877
0.19390777 0.030320618 -0.25908652 -0.066365585 -0.15515208 0.06270515 0.11833411 -0.05516585
-0.02598464 -0.1620574 0.02773434 -0.039317593 -0.28993437 -0.011983929 0.030507812 -0.17833377
0.084698565 -0.031690866 0.017581396 -0.016242327 -0.0131050935 0.18843761 0.048534308 -0.34618336
0.034072284 -0.26586556 -0.029882763 -0.14564951 -0.008176277 -0.04287125 -0.07899034 0.19557334
-0.0250836 0.06386753 -0.1112318 0.13555364 -0.0057073124 -0.019588817 -0.035339292 -0.07647195
-0.1125228 0.00029643712 0.024386093 0.036931746 -0.067094855 0.07197824 0.01983599 -0.30429718
-0.03395792 -0.05537846 -0.029539486 -0.092425965 -0.057160463 -0.15313737 0.01954191 -0.13349016
-0.11048598 -0.18038557 -0.021644346 -0.0737917 0.074405834 -0.11809332 -0.28781992 0.0900747
0.18499883 -0.034796674 -0.05061688 -0.12592039 -0.2271798 -0.09233314 -0.19689947 0.092191
0.082739905 -0.012646364 -0.071291395 -0.08134501 0.09305107 0.048664823 -0.062758036 -0.055269595
-0.13492389 -0.13892013 0.18290189 -0.0143238595 0.042118073 0.052969795 0.08083617 -0.1281517
-0.19124931 -0.058028463 -0.18777616 -0.15082322 -0.06069827 -0.070353396 -0.039823662 0.17210838
-0.19147393 -0.030727318 -0.010927442 -0.0517098 -0.011588948 0.015405159 0.11135071 0.0073262616
-0.050650917 -0.19201382 0.104085915 -0.048036806 -0.21085815 -0.029343447 -0.16397996 -0.036330204
0.0027201765 -0.17268652 -0.04308354 -0.1514736 -0.11419946 -0.10523437 0.08907977 -0.09665353
-0.055552453 0.052306857 -0.019517127 -0.02402388 0.054238573 -0.07443611 -0.015130399 -0.025628285
0.064727336 0.05890606 0.051734995 0.05484019 0.050765123 -0.06855961 -0.04001577 0.024641031
0.007510389 -0.12801158 -0.10328114 -0.04104811 -0.119811766 0.09187258 -0.21658415 0.070548356
-0.086721525 -0.057887856 0.0038319523 -0.05555387 -0.07985292 -0.079125956 -0.003775692 0.14528166
-0.17631587 0.022274237 -0.010195206 0.028877646 -0.027764628 -0.014597868 0.0074221618 0.05375706
-0.06646538 -0.06309062 0.016063808 -0.020226846 0.03154375 -0.08096308 -0.0660596 -0.06308672
-0.1297975 -0.07653997 0.114271745 -0.09816032 -0.026618592 -0.14214928 -0.0075476132 -0.061950155
-0.040880978 0.043384854 0.06916834 0.14753257 -0.14796172 -0.08985728 0.12335067 -0.11819037
-0.21952501 -0.0059717107 -0.06746388 -0.01099596 -0.06389595 -0.01904324 0.17917523 -0.042081468
-0.0420268 -0.14186458 0.16602464 0.015611725 0.105199106 0.034250986 0.037570376 -0.09068928
00000000: a58f f13c 93b6 d9bd 4216 123e 61fc 073e
00000010: 141d 13be 41f9 a73c 80a8 063d 2bf1 9f3d
00000020: b6b9 cdbd 6af0 f7bd 098d 643d 1f40 d1bc
00000030: 90ab a23c 4c49 06be 44e4 493c 27e4 42bd
00000040: 7d87 37bd a4a2 b5bd 1833 083c 2aba be3d
00000050: 1f4b 07be 2112 b8bc 21c6 093c 479b 89bd
00000060: 1e3a 9abd d586 afbd 0d9f 413e 9fdd 513d
00000070: 29b5 ebbd 20f4 1d3e 820f 2b3d 9ad3 363d
00000080: 9dff bbbd 9c43 3abd df49 d23c 773c 5cbc
00000090: fce9 25be 3383 f9bd 2bd6 fabc c0bc 213b
000000a0: e88c 933d 824a 29bd 9a24 b93d 811a 64bd
000000b0: 68b6 293d bcc2 4bbd 5c46 d9bd cb29 9abc
000000c0: 491b e83c dfd0 243d 4bc2 a6bd bc3b 06be
000000d0: b7f8 603e 127a 523d df43 343d 22ea 0abe
000000e0: c28f 463e f262 f83c fda6 84be aeea 87bd
000000f0: 30e0 1ebe 8f6b 803d 2759 f23d 96f5 61bd
00000100: bddd d4bc 60f2 25be 2033 e33c 7c0b 21bd
00000110: 4772 94be 3e58 44bc 85eb f93c 219d 36be
00000120: 7176 ad3d 48ce 01bd dc06 903c a10e 85bc
00000130: bfb6 56bc caf5 403e e9cb 463d f23e b1be
00000140: 618f 0b3d 881f 88be b2cc f4bc 2525 15be
00000150: cbf5 05bc c499 2fbd b0c5 a1bd 6144 483e
00000160: 1f7c cdbc fbcc 823d 7fcd e3bd 93ce 0a3e
00000170: 6804 bbbb ba78 a0bc efbf 10bd 539d 9cbd
00000180: 5b72 e6bd 1e6b 9b39 58c5 c73c be45 173d
00000190: 0769 89bd 5469 933d 167f a23c d7cc 9bbe
000001a0: 7617 0bbd 86d4 62bd cbfc f1bc d349 bdbd
000001b0: 1721 6abd 0bd0 1cbe 5b16 a03c a5b1 08be
000001c0: 7946 e2bd ffb6 38be 7c4f b1bc 1a20 97bd
000001d0: 1662 983d e9da f1bd 225d 93be 1679 b83d
000001e0: 5570 3d3e f586 0ebd a553 4fbd 46f1 00be
000001f0: d2a1 68be 2819 bdbd 04a0 49be a3ce bc3d
00000200: 8a73 a93d b232 4fbc 3901 92bd 3698 a6bd
00000210: 8f91 be3d c454 473d 4987 80bd 5f62 62bd
00000220: 7d29 0abe 1441 0ebe a24a 3b3e 9fae 6abc
00000230: 0084 2c3d dbf6 583d 6f8d a53d 333a 03be
00000240: dcd6 43be 41af 6dbd 6548 40be 6771 1abe
00000250: c09e 78bd 7115 90bd 231e 23bd 2e3d 303e
00000260: be11 44be dbb7 fbbc 0409 33bc a8cd 53bd
00000270: 92df 3dbc ec65 7c3c d70b e43d 2311 f03b
00000280: 5677 4fbd 459f 44be ff2a d53d 3ec2 44bd
00000290: 33eb 57be ab61 f0bc 5dea 27be fbce 14bd
000002a0: fd44 323b bcd4 30be 5e78 30bd e51b 1bbe
000002b0: 68e1 e9bd 1e85 d7bd 746f b63d 49f2 c5bd
000002c0: f88a 63bd b73f 563d 62e2 9fbc bacd c4bc
000002d0: 4429 5e3d f671 98bd 7ee5 77bc 69f2 d1bc
000002e0: c48f 843d 7b47 713d 13e8 533d 1ba0 603d
000002f0: 17ef 4f3d fb68 8cbd 93e7 23bd fddb c93c
00000300: b619 f63b 7815 03be 1085 d3bd 1022 28bd
00000310: df5f f5bd b127 bc3d 3cc8 5dbe a87b 903d
00000320: 0e9b b1bd d11b 6dbd 7e21 7b3b 748c 63bd
00000330: ed89 a3bd ca0c a2bd 9a71 77bb b7c4 143e
00000340: 268c 34be 7678 b63c cb09 27bc d090 ec3c
00000350: a572 e3bc e52b 6fbc 9b35 f33b 5d30 5c3d
00000360: 001f 88bd a835 81bd 3f98 833c c5b2 a5bc
00000370: 0534 013d f9cf a5bd 414a 87bd 9c33 81bd
00000380: a3e9 04be fdc0 9cbd 4e07 ea3d 4708 c9bd
00000390: 3c0f dabc 958f 11be f851 f7bb 72bf 7dbd
000003a0: d072 27bd 51b4 313d 21a8 8d3d c712 173e
000003b0: 4783 17be 1807 b8bd 479f fc3d cb0d f2bd
000003c0: 2acb 60be 57ae c3bb 812a 8abd 6628 34bc
000003d0: e1db 82bd 9200 9cbc b679 373e 9e5d 2cbd
000003e0: 4b24 2cbd f344 11be 5d02 2a3e 52c8 7f3c
000003f0: a172 d73d c34a 0c3d 65e3 193d 4dbb b9bd

bias f4 [128]
0.011400488 -0.16081317 0.06291568 0.07828032 -0.067656696 -0.23897599 -0.086836636 0.03666242
0.09856725 -0.15557846 -0.03137436 0.057629235 -0.040008754 -0.041152574 -0.16031848 0.025966156
-0.0035462459 0.046317674 0.114808805 -0.0055728764 -0.12816443 -0.09005901 -0.037100304 -0.023388525
-0.09730728 -0.267516 -0.12595838 -0.14101107 -0.2735261 -0.23753168 -0.24655333 0.026123993
0.014680767 0.040678762 -0.12633547 -0.11813817 -0.11570656 0.038763575 -0.13750668 0.091203235
-0.053636514 -0.16603144 -0.060364954 -0.051455643 -0.039265506 -0.09632674 -0.18395218 -0.125924
-0.045564864 -0.0034731156 0.1265042 -0.15060504 0.091506205 0.0060290038 0.09513213 0.09001825
-0.07468702 -0.11576239 -0.17823285 0.1107901 -0.074205734 0.03726461 -0.25854766 0.047012106
0.10830776 -0.03634881 0.12366952 0.0051288838 0.038588155 -0.07065162 -0.013462249 -0.0008937379
-0.10849413 -0.014519585 -0.096462324 -0.01425805 -0.0909941 -0.025007164 -0.13532257 -0.013905778
0.08027709 0.08450261 -0.1305541 0.008712623 0.011620359 -0.1327133 -0.21070763 -0.11319683
-0.08304335 -0.13747431 -0.15994114 0.039445452 -0.046675075 -0.11500277 -0.14766367 -0.12428394
0.06003954 -0.10407447 -0.0038240629 0.10451043 -0.08437249 0.090447076 -0.04732937 0.016943721
0.12644903 -0.09631894 0.08244749 0.05791655 0.11624464 -0.085096985 -0.1891793 -0.12505803
0.06727084 0.0551274 0.083416685 -0.12243018 -0.21788147 0.031500027 -0.06483339 -0.016388144
0.003713239 0.07773736 -0.05298741 0.032881927 -0.006732688 0.032618206 0.059334766 0.08686852
00000000: 1dc9 3a3c 35ac 24be f0d9 803d 6f51 a03d
00000010: 988f 8abd 1fb6 74be 68d7 b1bd 552b 163d
00000020: a0dd c93d f64f 1fbe 6782 00bd a20c 6c3d
00000030: 38e0 23bd 9a8f 28bd 872a 24be fab6 d43c
00000040: 2268 68bb 9ab7 3d3d e120 eb3d ad9c b6bb
00000050: 893d 03be dc70 b8bd 7df6 17bd 4b99 bfbc
00000060: 0a49 c7bd dbf7 88be 3cfb 00be 3565 10be
00000070: 9d0b 8cbe 813b 73be 7a78 7cbe fc01 d63c
00000080: 9a87 703c c69e 263d 165e 01be 6df2 f1bd
00000090: 90f7 ecbd 8ec6 1e3d 8dce 0cbe c3c8 ba3d
000000a0: f6b1 5bbd 2504 2abe 3e41 77bd 27c3 52bd
000000b0: ded4 20bd f446 c5bd f65d 3cbe 39f2 00be
000000c0: 39a2 3abd 369d 63bb 518a 013e 3538 1abe
000000d0: 9b67 bb3d f38e c53b a2d4 c23d 7d5b b83d
000000e0: 82f5 98bd d514 edbd ac82 36be ece5 e23d
000000f0: 2df9 97bd c7a2 183d 5c60 84be c48f 403d
00000100: 75d0 dd3d 7de2 14bd 7246 fd3d 3210 a83b
00000110: 9d0e 1e3d ccb1 90bd c490 5cbc bc49 6aba
00000120: 2c32 debd 8ee3 6dbc 0a8e c5bd 999a 69bc
00000130: 1d5b babd d3db ccbc 0092 0abe 0fd5 63bc
00000140: 5168 a43d b40f ad3d f9af 05be 64bf 0e3c
00000150: 5163 3e3c ffe5 07be bec3 57be bdd3 e7bd
00000160: a212 aabd 11c6 0cbe 9cc7 23be 8e91 213d
00000170: 5d2e 3fbd 9386 ebbd 2535 17be 9488 febd
00000180: 05ec 753d ff24 d5bd 219d 7abb 9009 d63d
00000190: 7ccb acbd 513c b93d 71dc 41bd 8fcd 8a3c
000001a0: db7b 013e dd42 c5bd 3bda a83d e839 6d3d
000001b0: ab11 ee3d 5447 aebd 38b8 41be 360f 00be
000001c0: 4bc5 893d 45cd 613d 5ed6 aa3d adbc fabd
000001d0: 521c 5fbe 2c06 013d 5ec7 84bd 6e40 86bc
000001e0: d059 733b c434 9f3d 5409 59bd 33af 063d
000001f0: e19d dcbb ab9a 053d 0309 733d 1fe8 b13d

weight f4 [20, 128]
-0.039797563 0.0032312497 -0.04775615 0.044897817 -0.018361516 -0.008838497 0.008222789 0.06315752
-0.07020721 -0.008141741 -0.0815113 -0.020682164 -0.026342958 -0.08413421 0.06577056 -0.06389121
-0.07991724 0.06337985 -0.035475243 -0.04781817 -0.007572226 0.06078533 -0.0672831 0.045073338
-0.025554664 -0.056735653 -0.03246107 -0.004193336 -0.04056376 -0.026110668 -0.047189485 0.07309302
-0.029793415 -0.08633729 0.038080074 0.012794189 0.0148501545 0.004235305 0.080525465 0.04632897
0.041618757 0.06299994 -0.06376569 0.01730302 0.06693826 -0.006401822 -0.04462403 -0.015410699
0.04709045 0.04550951 0.08225467 -0.07828507 0.035058327 0.011340007 -0.07484749 -0.03204412
-0.018823951 -0.033020526 0.072230704 0.04750421 -0.018145882 0.053218238 -0.009605214 -0.002462566
0.017117418 -0.04691726 -0.047378715 0.0065069124 -0.013889864 0.08727922 -0.06789539 0.050281323
-0.014691621 0.07194909 -0.016611777 -0.0862564 -0.046049837 -0.052373707 -0.023959637 -0.08258696
0.056437366 0.067776434 -0.020321816 -0.044550642 0.05846194 0.009935349 -0.035191417 -0.044238552
-0.084858455 -0.04869941 0.0014728233 -0.06961338 -0.07211305 -0.072636485 -0.07465401 -0.051258564
0.0061314255 -0.045755062 -0.02334068 -0.015127949 -0.075380765 -0.057163306 -0.024930008 -0.029961046
0.057832666 0.021115579 0.018072866 -0.048145693 -0.019622073 -0.06589569 0.049990244 -0.053141873
-0.0073571876 -0.05676834 0.06980284 -0.02675778 -0.08715916 -0.011575736 -0.006914705 -0.04269777
0.07590943 -0.039984558 -0.051467463 0.05436001 0.059204422 -0.00239674 0.065982275 0.022914134
0.055880383 -0.0012958513 -0.014860135 -0.003170611 0.05658303 0.012594072 0.10107211 -0.020946987
0.083510175 0.018024383 0.014130696 0.06422144 0.047866832 0.06207709 0.067071885 0.029177867
-0.025261354 0.103721336 0.054854423 0.08561361 0.03887168 0.08622004 0.010594406 0.100690424
-0.06307323 -0.0010521879 -0.019482492 0.047393475 0.037056338 -0.036549076 0.08864934 0.06979598
-0.004191459 0.021314327 0.10759343 -0.048580926 0.012525376 0.016897712 0.040766075 -0.018256573
0.015160271 0.11081365 0.03673568 0.043886043 -0.03356477 -0.021235008 0.09090549 0.048369236
0.059018083 0.03345213 0.13041787 -0.01114988 0.064299464 0.04717915 0.119999774 0.019430518
0.0131957205 0.054526694 0.032914724 0.12187917 0.05081782 0.07962221 -0.108656645 -0.05486735
0.029359525 0.002681478 0.097743705 -0.07275769 -0.014041232 0.0432669 -0.011730064 -0.01273885
0.019517025 0.11920486 0.022249872 0.051101524 -0.06607407 0.10570034 0.0033128306 -0.007865649
-0.011248372 0.04192498 0.008485825 0.046961643 -0.008394999 0.05530205 -0.053043857 0.13029456
-0.052213542 0.056607552 -0.016870387 0.14554165 -0.15146251 -0.015460908 0.072175495 0.043376
-0.087807395 -0.011402097 0.04774345 -0.062934436 -0.005129262 0.099848025 0.08624637 -0.050681535
0.105073124 0.095420755 -0.056406185 0.05956307 0.02970726 0.0059328857 -0.0064727836 0.062545225
0.03463347 0.10368349 -0.04378184 0.045917366 -0.093988545 0.02804923 0.016164346 0.11458361
0.0102086235 -0.06987043 0.008178115 0.037991118 0.11278405 0.11715104 0.014800624 0.06249683
00000000: c502 23bd 60c3 533b f49b 43bd c6e6 373d
00000010: e46a 96bc 58cf 10bc e0b8 063c bb58 813d
00000020: ccc8 8fbd f064 05bc 65ef a6bd a46d a9bc
00000030: 30cd d7bc 8f4e acbd b7b2 863d 65d9 82bd
00000040: a6ab a3bd 4bcd 813d 7d4e 11bd fcdc 43bd
00000050: 7020 f8bb 0afa 783d b9cb 89bd d29e 383d
00000060: 0458 d1bc a563 68bd e6f5 04bd 4068 89bb
00000070: 2f26 26bd 0ae6 d5bc c349 41bd cbb1 953d
00000080: 5211 f4bc 9bd1 b0bd daf9 1b3d b89e 513c
00000090: 104e 733c 50c8 8a3b 89ea a43d 72c3 3d3d
000000a0: 6e78 2a3d 1d06 813d 9697 82bd 10bf 8d3c
000000b0: ed16 893d 60c6 d1bb b0c7 36bd 287d 7cbc
000000c0: eae1 403d 2e68 3a3d 2375 a83d ec53 a0bd
000000d0: 5299 0f3d 70cb 393c a449 99bd b240 03bd
000000e0: b034 9abc 8840 07bd b1ed 933d c693 423d
000000f0: aca6 94bc 5efb 593d 305f 1dbc 0063 21bb
00000100: d439 8c3c 502c 40bd 2f10 42bd f037 d53b
00000110: 5092 63bc 73bf b23d bd0c 8bbd caf3 4d3d
00000120: 20b5 70bc 0b5a 933d 6c15 88bc 32a7 b0bd
00000130: c19e 3cbd d085 56bd 0047 c4bc 5a23 a9bd
00000140: de2a 673d 5fce 8a3d f079 a6bc bc7a 36bd
00000150: ca75 6f3d e0c7 223c e024 10bd 7c33 35bd
00000160: 45ca adbd 0879 47bd c00b c13a 7691 8ebd
00000170: 02b0 93bd 70c2 94bd 34e4 98bd 80f4 51bd
00000180: 20ea c83b a969 3bbd f434 bfbc 38db 77bc
00000190: 3b61 9abd 1224 6abd 043a ccbc de70 f5bc
000001a0: f2e1 6c3d 94fa ac3c 8c0d 943c 6b34 45bd
000001b0: 78be a0bc 52f4 86bd 92c2 4c3d 4bab 59bd
000001c0: 9014 f1bb eb85 68bd cbf4 8e3d 2233 dbbc
000001d0: 8080 b2bd 28a8 3dbc c094 e2bb dbe3 2ebd
000001e0: 6776 9b3d d9c6 23bd 8ccf 52bd 9aa8 5e3d
000001f0: 5680 723d a012 1dbb b721 873d 6cb6 bb3c
00000200: d4e2 643d 8ed9 a9ba ec77 73bc 07ca 4fbb
00000210: 9bc3 673d 5e57 4e3c e5fe ce3d 0499 abbc
00000220: 6207 ab3d dfa7 933c 6f84 673c 8886 833d
00000230: 0310 443d 8c44 7e3d fc5c 893d 6c06 ef3c
00000240: e6f0 cebc da6b d43d 08af 603d 3056 af3d
00000250: e937 1f3d 2294 b03d 2994 2d3c c836 ce3d
00000260: 8a2c 81bd 91e9 89ba bf99 9fbc a91f 423d
00000270: 63c8 173d 7cb4 15bd c98d b53d 32f1 8e3d
00000280: 8258 89bb 629b ae3c f259 dc3d cbfc 46bd
00000290: 3c37 4d3c 126d 8a3c 54fa 263d cf8e 95bc
000002a0: c962 783c 44f2 e23d 2778 163d dac1 333d
000002b0: 367b 09bd 0af5 adbc a82c ba3d d21e 463d
000002c0: f2bc 713d 1a05 093d 438c 053e fcad 36bc
000002d0: 70af 833d ed3e 413d 71c2 f53d c02c 9f3c
000002e0: dd32 583c 6257 5f3d 97d1 063d c99b f93d
000002f0: 5926 503d f810 a33d 6087 debd 96bc 60bd
00000300: 6383 f03c bcbb 2f3b da2d c83d fc01 95bd
00000310: 320d 66bc a238 313d 742f 40bc 9cb6 50bc
00000320: 2be2 9f3c ad21 f43d 5d45 b63c d54f 513d
00000330: d851 87bd 6b79 d83d 131c 593b ecde 00bc
00000340: 174b 38bc 87b9 2b3d 2108 0b3c da5a 403d
00000350: 2e8b 09bc 6784 623d 8444 59bd f06b 053e
00000360: dedd 55bd 52dd 673d c433 8abc df08 153e
00000370: fd18 1bbe c04f 7dbc bfd0 933d 08ab 313d
00000380: 5dd4 b3bd dccf 3abc a38e 433d c5e3 80bd
00000390: 5e13 a8bb 1f7d cc3d f0a1 b03d 7197 4fbd
000003a0: 9430 d73d f56b c33d 2c0a 67bd 68f8 733d
000003b0: a45c f33c a768 c23b a519 d4bb b617 803d
000003c0: d3db 0d3d 0258 d43d 9654 33bd d913 3c3d
000003d0: 117d c0bd 80c7 e53c 176b 843c d0aa ea3d
000003e0: 1242 273c 3a18 8fbd 80fd 053c 939c 1b3d
000003f0: 53fb e63d e2ec ef3d 517e 723c adfc 7f3d

bias f4 [20]
0.043658905 -0.051471915 -0.0015340287 0.022511937 0.035847913 0.012390633 -0.005856669 0.018883426
-0.016488116 -0.022286784 0.009950406 0.013455682 -0.062078144 -0.007907862 0.030311577 -0.038226433
-0.03385037 -0.032945182 -0.027463103 0.01604805
00000000: aed3 323d 37d4 52bd 7611 c9ba f46a b83c
00000010: 43d5 123d 1502 4b3c 4de9 bfbb 6ab1 9a3c
00000020: 1612 87bc c692 b6bc 0707 233c 3975 5c3c
00000030: a745 7ebd fa8f 01bc fc4f f83c 5293 1cbd
00000040: b0a6 0abd 87f1 06bd 4dfa e0bc 3377 833c
