model_full.pth (torch, 224614 bytes, 6 tensors)

weight f4 [64, 20, 3, 3]
0	0xbd21c647	-0.039495733
1	0x3c4e3b98	0.01258745
2	0x3b162ca2	0.0022914787
3	0x3ccdc76f	0.025119511
4	0x3cf3bb42	0.029752377
5	0xbd5d4c5f	-0.05402791
6	0x3d1c2a9b	0.03812657
7	0x3d6e6062	0.058197387
8	0xbc138377	-0.009003512
9	0xbbd64806	-0.0065393476
10	0xbd8d461a	-0.068981364
11	0xbd46d480	-0.0485425
12	0x3c288289	0.010285028
13	0xbdee9fcb	-0.11651572
14	0xbd99bbe2	-0.07506539
15	0xbd269228	-0.04066673
16	0xbcdaa003	-0.026687628
17	0xbd982532	-0.074289694
18	0x3d06e57c	0.032933697
19	0xbd3c50a5	-0.045975346
20	0xbbfdead5	-0.0077489414
21	0x3d600ba1	0.05469859
22	0xbc4fc1e8	-0.012680508
23	0x3c048990	0.008089438
24	0x3d146663	0.036230456
25	0xbc014d56	-0.0078919735
26	0x3d221af5	0.03957649
27	0x3d7b6030	0.06137103
28	0xbd6525c4	-0.05594422
29	0x3cdbc401	0.02682686
30	0x3c36ad74	0.011149753
31	0xbcdf12bb	-0.027230611
32	0xbd339f64	-0.04385318
33	0x3d16a1d4	0.036775425
34	0x3d08e6a0	0.033423066
35	0x3d3edcd6	0.046597324
36	0x3d07ab0a	0.0331221
37	0x3c46459f	0.01210156
38	0x3da44bfa	0.08022304
39	0x3ced338f	0.02895525
40	0x3c8d29e5	0.017231891
41	0xbd54325c	-0.05180584
42	0xbdbd1279	-0.09232039
43	0xbc63b6b4	-0.01389854
44	0xbb995ba5	-0.0046801143
45	0xbd331795	-0.04372366
46	0xbd59c9fa	-0.053171135
47	0x3d6c66e0	0.057715297
48	0xbd78d85e	-0.06075322
49	0x3d73d80c	0.05953221
50	0xbc340af8	-0.010988943
51	0x3c6813b6	0.014164856
52	0x3d4e33f6	0.050342523
53	0xbaf825a8	-0.0018932121
54	0xbd2883cd	-0.04114132
55	0x3d9d80c3	0.07690575
56	0x3d72e781	0.05930281
57	0xbd149437	-0.03627416
58	0x3c08b75d	0.008344498
59	0x3d2972ea	0.041369356
60	0x3c4dc4d0	0.012559131
61	0xbc5f1861	-0.013616652
62	0xbca651a2	-0.020302597
63	0xbd9dd410	-0.07706463
64	0x3cadc248	0.021210805
65	0xbc8ff2bf	-0.017571805
66	0x3d4e507b	0.05036972
67	0x3d22e63b	0.039770346
68	0x3cb589fa	0.022160519
69	0x3cda2b4b	0.026631972
70	0xbcfd3a64	-0.030911632
71	0xbc1dd562	-0.009633394
72	0xbd5db564	-0.054128066
73	0xbd651353	-0.055926632
74	0x3b5a5166	0.0033312677
75	0xbca3b9c7	-0.019986046
76	0xbc2993e9	-0.010350206
77	0x3d113f6e	0.035460882
78	0x3da94bb8	0.08266395
79	0x3d95e522	0.07319094
80	0xbd30fc7b	-0.043209534
81	0x3c694882	0.014238479
82	0x3d419237	0.047258582
83	0xbd130235	-0.035890777
84	0xbd2ab1c7	-0.041673448
85	0xbbfe63f4	-0.00776338
86	0xbd71e739	-0.0590584
87	0x3cacfb23	0.021115845
88	0x3bdd84e4	0.0067602266
89	0x3d6f0709	0.05835632
90	0x3b6ff0f3	0.0036612123
91	0xbd7e9196	-0.06215056
92	0xbd354ee2	-0.04426468
93	0x3d5030a5	0.05082764
94	0xbd6bb324	-0.05754389
95	0xbc79ea27	-0.01525358
96	0xbc3ecb8c	-0.011645209
97	0x3da1ff0b	0.07909974
98	0x3d46075c	0.048346862
99	0xbd087f0c	-0.033324286
100	0xbd046e32	-0.032331653
101	0x3d23f66a	0.04002992
102	0x3d6ab64d	0.05730276
103	0x3d10df12	0.035368986
104	0xbcc55f80	-0.02409339
105	0xbd976f31	-0.07394255
106	0xbc2df436	-0.010617306
107	0xbdbdbd92	-0.09264673
108	0xba714340	-0.00092034414
109	0x3d3b10dc	0.045670375
110	0x3d82ab31	0.063803084
111	0x3d78b621	0.060720567
112	0xbd155a32	-0.03646297
113	0x3d8ec230	0.06970632
114	0x3d713e7d	0.058897484
115	0x3d64b42a	0.05583588
116	0x3d78d5da	0.06075082
117	0xbd0813f0	-0.03322214
118	0x3d42b9b5	0.047540385
119	0x3d3b23ba	0.04568837
120	0x3bd83050	0.006597556
121	0x3c1dbe85	0.009627943
122	0x3cec9f76	0.02888463
123	0xbd86af55	-0.06576411
124	0xbc745a05	-0.01491404
125	0xbcac0755	-0.02099959
126	0x3d981b44	0.074270755
127	0x3da65451	0.08121551
128	0x3d97c0f9	0.074098535
129	0xbd2b8236	-0.041872226
130	0xbc160f3c	-0.009158906
131	0x3cc0e5e4	0.02354712
132	0x3c13abb5	0.009013106
133	0x3d76f934	0.060296252
134	0xbc9cd5a4	-0.01914484
135	0xbd870ecb	-0.065946184
136	0x3d44d531	0.048054878
137	0xbc778b8b	-0.015108953
138	0xbbc74c51	-0.0060820957
139	0x3d92bef4	0.07165328
140	0x3b42cb2d	0.0029723153
141	0x3c13a39a	0.009011174
142	0xbca856d5	-0.020549217
143	0x3c1210e3	0.008915159
144	0x3c1398f9	0.0090086395
145	0xbd54b9f2	-0.051935144
146	0x3d7b9762	0.061423667
147	0x3d22caa7	0.039744046
148	0x3c3752b8	0.011189155
149	0x3cf05f63	0.029342359
150	0x3d39d304	0.045367256
151	0xbd805aaf	-0.062672965
152	0x3d45bf98	0.04827842
153	0x3d3a24c5	0.045445222
154	0xbc03ee51	-0.0080524245
155	0xbce7a57f	-0.028277157
156	0x3d6e4224	0.058168545
157	0x3ce7e4ab	0.02830728
158	0x3d3293cd	0.043597985
159	0xbc71f440	-0.014767706
160	0xbc440290	-0.011963502
161	0xbd81b1d8	-0.06332749
162	0x3b5ac5b7	0.0033382007
163	0x3cec53b6	0.02884851
164	0x3d0478d6	0.0323418
165	0x3d71226a	0.05887071
166	0xbd6ac018	-0.0573121
167	0x3cd9866f	0.02655336
168	0x3d7ed008	0.062210113
169	0x3c958dc8	0.018256083
170	0x3d63adb9	0.055585597
171	0xbca2bf8f	-0.019866733
172	0xbd87e508	-0.06635481
173	0xbc2e66b6	-0.010644605
174	0x3d5dc1d9	0.054139946
175	0x3d59d359	0.053180072
176	0x3b9edcef	0.0048481147
177	0xbc09efd7	-0.008418999
178	0x3d9fab51	0.07796348
179	0xbb16063e	-0.0022891904
180	0xbc90b0ac	-0.017662369
181	0x3c99b4af	0.018762914
182	0xbc5156f0	-0.012777075
183	0x3c3cf189	0.011532196
184	0x3c1e0a3b	0.009645994
185	0xbd572a93	-0.052530836
186	0xbd3bbbe3	-0.04583348
187	0x3cba4e8b	0.02274253
188	0xbaf69cae	-0.0018815005
189	0xbd260c3a	-0.040539004
190	0xbd891e11	-0.06695188
191	0x3c4662da	0.012108529
192	0xbd0af838	-0.033928126
193	0x3a204327	0.0006113522
194	0x3d0368b5	0.03208228
195	0xbce1fb2d	-0.02758559
196	0x3d94a94a	0.07258852
197	0x3da50ddd	0.08059285
198	0x3d99b893	0.07505908
199	0x3d2abc6d	0.041683603
200	0x3a9c5b96	0.001192915
201	0xbd0602a6	-0.03271737
202	0x3caf1782	0.021373514
203	0xbd41f77e	-0.047355168
204	0x3bfa6730	0.0076416954
205	0xbcb0b9dd	-0.021573002
206	0xbdc5cd82	-0.09658338
207	0xbcc9a425	-0.024614403
208	0x3cd995f4	0.026560761
209	0x3c14b5af	0.00907652
210	0xbd250422	-0.040287144
211	0xbcf15021	-0.029457154
212	0xbccfcbb4	-0.025365688
213	0x3cd22cab	0.025656065
214	0x3cdc8e27	0.026923252
215	0xbd0e0596	-0.034673296
216	0xbd8e34cd	-0.06943665
217	0xbd3e75a8	-0.046498924
218	0x3d83e900	0.064409256
219	0x3c1cb87c	0.009565469
220	0xbcfdf99d	-0.031002814
221	0xbd2f98ad	-0.042870212
222	0xbc9e09a7	-0.019291712
223	0xbd310369	-0.043216143
224	0x3d91e40f	0.07123577
225	0xbd641a43	-0.055689108
226	0x3cc0ea8f	0.023549346
227	0x3b0b2b87	0.002123566
228	0xbc186e06	-0.009303575
229	0xbc102c0e	-0.008799566
230	0x3d2062ed	0.039156843
231	0x3d272c76	0.040813886
232	0x3d901092	0.070344105
233	0xbd83071a	-0.06397839
234	0x3c5af80f	0.013364806
235	0x3c8d9acd	0.017285729
236	0x3ceba74b	0.028766295
237	0xbd83b2c3	-0.064305805
238	0x3bb767dc	0.005597098
239	0x3b5fa6eb	0.003412659
240	0xbc4149e1	-0.011797399
241	0xbd0e4511	-0.034733836
242	0x3cd9f1d7	0.026604576
243	0x3d901612	0.070354596
244	0xbd7d54ea	-0.06184856
245	0xbd1f1d83	-0.038846504
246	0xbb9b2995	-0.0047351816
247	0x3cc4f7ac	0.02404388
248	0x3af59019	0.0018734961
249	0x3cdbb748	0.026820794
250	0x3d7686ad	0.06018703
251	0xbc040b66	-0.008059358
252	0x3bf5b8ac	0.0074988212
253	0x3cd546ff	0.02603483
254	0xbccf78b6	-0.025326114
255	0xbd8dd05d	-0.06924508

bias f4 [64]
0	0x3d5c7530	0.053822696
1	0x3b773e59	0.003772637
2	0xbd2a6e03	-0.04160882
3	0x39034314	0.00012518122
4	0x3ac27041	0.001483448
5	0x3d0edfde	0.034881465
6	0xbcde3320	-0.027123988
7	0xbaf11259	-0.0018392309
8	0xbd63a280	-0.055574894
9	0xbc1ce0a4	-0.009575043
10	0xbd863b6f	-0.06554305
11	0xbdc053f0	-0.0939101
12	0x3d7a0ff1	0.06105036
13	0x3d68608f	0.05673271
14	0x3d91b39c	0.07114336
15	0xbbb32eff	-0.005468249
16	0xbcfa1110	-0.030525714
17	0xbcf73114	-0.03017477
18	0xbd90f819	-0.07078571
19	0xbcd9044a	-0.026491303
20	0xbc76ccd1	-0.0150634805
21	0xbd54dd16	-0.051968656
22	0xbb858daf	-0.004075728
23	0x3c1a07e6	0.009401297
24	0xbd44323b	-0.047899466
25	0xbd78abc4	-0.060710683
26	0x3d5c63a9	0.05380598
27	0xbd674032	-0.056457706
28	0x3d2d927c	0.042376027
29	0xbd3a6293	-0.045504164
30	0x3d152624	0.036413327
31	0xbd45529c	-0.048174486
32	0x3d37e609	0.044897113
33	0xbd67ed33	-0.056622695
34	0x3ba26f9f	0.004957154
35	0x3d6c78d3	0.057732414
36	0xbd385fed	-0.045013357
37	0xbbd24853	-0.006417313
38	0x3d72a92f	0.059243377
39	0x3d2f8f49	0.042861257
40	0x3ce787a7	0.028262926
41	0x3d09bfb5	0.03363009
42	0xbd4e0785	-0.05030014
43	0x3ce470d5	0.027885834
44	0xbd17a197	-0.03701934
45	0xbcd4f409	-0.025995271
46	0xbca6f865	-0.020382116
47	0x3d8c9a3d	0.06865356
48	0x3c5d5145	0.013508146
49	0x3d147141	0.03624082
50	0x3d878ca0	0.06618619
51	0xbaee9a3e	-0.0018203927
52	0xbb8a9247	-0.0042288634
53	0x3d8ed1a1	0.06973577
54	0xbd4f179e	-0.050559632
55	0x3c8cdc23	0.017194813
56	0x3d170b4e	0.036876015
57	0xbd5dd9e9	-0.054162893
58	0x3ca530c7	0.02016486
59	0xbccef369	-0.025262551
60	0x3b25ca77	0.002529768
61	0x3aa987f2	0.0012934192
62	0xbd435dd0	-0.04769689
63	0x3d794350	0.06085521

weight f4 [512, 64]
0	0x3cd1363f	0.025538562
1	0x3d6447d4	0.055732563
2	0xbda3f662	-0.08005978
3	0x3cb741a4	0.022370167
4	0x3d9d029e	0.07666515
5	0x3dd2484d	0.102676965
6	0xbc138dd4	-0.009005982
7	0x3ba9a867	0.005177546
8	0xbd94d94a	-0.07268007
9	0xbd2329bd	-0.039834727
10	0x3d835c9a	0.06414147
11	0xbdeaeb0c	-0.11470613
12	0xbdae2cbf	-0.085046284
13	0xbd9d94d1	-0.076944
14	0x3db1be16	0.08678834
15	0x3cc92605	0.024554262
16	0xbdccb863	-0.099961065
17	0xbcdfe4da	-0.027330805
18	0x3c4309fd	0.011904237
19	0xbdd426ab	-0.10358938
20	0xbd2b3349	-0.041796956
21	0xbe04a537	-0.1295365
22	0xbd479e79	-0.048735116
23	0xbdc44c8d	-0.095849134
24	0xbda1c86a	-0.07899554
25	0x3c7589bb	0.014986451
26	0x3d0eff65	0.034911532
27	0x3d5e6e60	0.05430448
28	0xbd55412c	-0.052064106
29	0xbd09154f	-0.033467587
30	0x3dceaa1c	0.100910395
31	0xbdc5c259	-0.096562095
32	0xbcb452b1	-0.022012087
33	0x3de5f7d5	0.11228911
34	0xbd5abadd	-0.053400863
35	0xbdb28fb4	-0.087188154
36	0xbd63efdd	-0.055648673
37	0x3d2669f8	0.040628403
38	0xbaba24de	-0.0014201661
39	0x3c94a73d	0.018146152
40	0xbc07a8f2	-0.008280026
41	0x3da63338	0.08115238
42	0x3d917def	0.07104098
43	0xbd2982dd	-0.041384567
44	0x3d380d96	0.04493483
45	0x3d8220d7	0.0635392
46	0x3ce5a1f2	0.028031323
47	0xbda8c903	-0.08241465
48	0xbb81c484	-0.003960194
49	0xbcf4446e	-0.029817786
50	0xbcd3ea39	-0.025868522
51	0xbe02359c	-0.12715763
52	0xbe4a9145	-0.19781978
53	0xbd9e9ee2	-0.07745148
54	0xbe0888e9	-0.13333477
55	0xbd274115	-0.04083355
56	0xbdd6c7ad	-0.10487304
57	0x3c2efc39	0.010680252
58	0x3dc4d201	0.096103676
59	0x3d7d6a77	0.06186911
60	0x3df78e1a	0.120876506
61	0xbc8bce31	-0.017066093
62	0x3e131f3b	0.14367382
63	0xbd2b69de	-0.04184901
64	0x3d65d5ed	0.05611222
65	0xbdbee1e3	-0.09320428
66	0xbda424c8	-0.08014828
67	0x3a62ebd3	0.00086563564
68	0x3c3e7a37	0.011625818
69	0x3de6bde2	0.11266686
70	0x3df49bef	0.119438045
71	0xbc4fddc2	-0.0126871485
72	0x3d0edba0	0.03487742
73	0xbd80e8fb	-0.062944375
74	0xbb3e27c0	-0.0029015392
75	0x3de2580f	0.11051952
76	0x3c58a36d	0.0132225575
77	0x3d36f0b3	0.044663142
78	0x3d233440	0.03984475
79	0xbc2d1db2	-0.010566162
80	0x3dbd2f35	0.0923752
81	0x3d5ac6b6	0.05341216
82	0xbc95804a	-0.01824965
83	0xbde4ea69	-0.11177523
84	0x3bafa973	0.005360776
85	0xbd9db512	-0.07700552
86	0x3d38a1c6	0.045076154
87	0xbda543ec	-0.08069596
88	0xbcd83983	-0.026394611
89	0x3d41b7de	0.04729449
90	0x3c5c44b2	0.013444113
91	0x3d1ecc3b	0.038768988
92	0x3dfe89a0	0.12428594
93	0x3d647957	0.05577978
94	0x3d9a263b	0.07526823
95	0x3d607654	0.054800346
96	0x3d88d44d	0.06681118
97	0x3d83be0f	0.06432735
98	0xbdd5c6be	-0.10438298
99	0xbe1f9059	-0.15582408
100	0x3de254e4	0.11051348
101	0x3de5e550	0.112253785
102	0x3cccea81	0.025014164
103	0xbde7f288	-0.11325556
104	0x3ddbceb0	0.10732782
105	0xbd513038	-0.051071376
106	0xbd8815e0	-0.06644797
107	0xbd7f2089	-0.062286887
108	0x3e005269	0.12531437
109	0xbdd10373	-0.10205736
110	0xbd889017	-0.06668108
111	0x3d662ff0	0.05619806
112	0xbdae6cfb	-0.0851688
113	0xbdce0783	-0.100600265
114	0xbc99312c	-0.018700205
115	0xbddd0d57	-0.1079356
116	0x3bc56a7e	0.0060246577
117	0x3d60bfca	0.054870404
118	0xbd91a08d	-0.07110701
119	0xbdfc41d8	-0.12317246
120	0xbd90aff7	-0.07064813
121	0x3d1d034e	0.03833323
122	0xbdd0d120	-0.101961374
123	0xbc03ec57	-0.008051953
124	0xbd84666e	-0.064648494
125	0x3e011fa6	0.12609729
126	0x3c081d7e	0.008307813
127	0x3da0635d	0.07831452
128	0xbd308055	-0.043091137
129	0x3dd14106	0.1021748
130	0x3d2e02f9	0.042483304
131	0xbd9d73e9	-0.07688124
132	0x3d247694	0.040152147
133	0xbc06d961	-0.008230538
134	0xbdeb6cae	-0.114953384
135	0x3d66d535	0.056355674
136	0x3e0d64b9	0.13807954
137	0xbe019974	-0.12656194
138	0xbced17f5	-0.028942088
139	0xbdf655f5	-0.12028114
140	0x3c164f63	0.009174201
141	0x3d635654	0.05550225
142	0x3d8abc65	0.06774215
143	0xbd0186a8	-0.03162256
144	0x3df6492b	0.120256744
145	0xbd54f9e0	-0.051996112
146	0x3bd6d48a	0.0065560983
147	0xbd7f96b4	-0.06239958
148	0xbe434d94	-0.19072562
149	0xbd066977	-0.032815423
150	0xbe21ae5c	-0.15789169
151	0xbdd7b34f	-0.10532247
152	0x3c0f88b2	0.008760618
153	0x3dd60413	0.10449996
154	0xbd9de4c6	-0.07709651
155	0xbb80e12b	-0.003933092
156	0xbd255ca6	-0.04037156
157	0xbd55d971	-0.05220932
158	0xbdc550b6	-0.09634535
159	0xbd198c01	-0.037487034
160	0xbd01b7a0	-0.03166926
161	0xbe26f400	-0.16304016
162	0x3dc86430	0.09784734
163	0xbc9a07f4	-0.01880262
164	0xbd5ab6e9	-0.053397093
165	0xbd8fa119	-0.07013149
166	0x3c878699	0.016543673
167	0xbcb79f30	-0.022414774
168	0x3d4600bc	0.048340544
169	0xbd8f1907	-0.069871955
170	0xbd44a399	-0.04800758
171	0x3cc3d19b	0.023903659
172	0xbd235d76	-0.039884053
173	0xbce00aaa	-0.027348835
174	0xbe3ca424	-0.1842199
175	0x3d9e1d76	0.07720463
176	0x3e06333c	0.13105482
177	0x3dd6f44d	0.104958154
178	0x3d2e1d65	0.0425085
179	0xbb23d4e4	-0.002499872
180	0xbbf8adf0	-0.0075890943
181	0x3bcb86aa	0.0062111216
182	0x3d6a68c1	0.057228807
183	0xbd561686	-0.052267574
184	0x3dd94cb0	0.1061033
185	0x3c8ba7e8	0.017047837
186	0x3cbc46e6	0.022983026
187	0xbd389839	-0.045067046
188	0x3d7fe482	0.06247378
189	0x3a9f3101	0.0012145342
190	0x3dacbc87	0.08434396
191	0xbcab038b	-0.020875713
192	0xbd1aa8f7	-0.037758794
193	0xbe04e82d	-0.12979193
194	0x3d4cb265	0.049974818
195	0xbdd644b6	-0.10462324
196	0xbd6eccdb	-0.058300834
197	0x3bb35714	0.005473027
198	0xbe0aed00	-0.13566971
199	0x3dcc8213	0.09985747
200	0x39aa0844	0.00032431085
201	0xbc9fcdbd	-0.019507283
202	0xbda3a3b4	-0.07990208
203	0x3df42813	0.11921706
204	0x3d321926	0.043481015
205	0xbe0fce77	-0.14043604
206	0x3d1a51b5	0.03767558
207	0x3c8d6eed	0.017264808
208	0xbd42074b	-0.047370236
209	0xbbd42e26	-0.006475228
210	0xbcca3130	-0.024681658
211	0xbd9cc8c4	-0.076554805
212	0x3e0bf68c	0.13668269
213	0xbdab91b4	-0.083774
214	0xbd8b0329	-0.06787712
215	0x3d9b20ee	0.0757464
216	0xbcd4596d	-0.025921548
217	0xbd108be0	-0.035289645
218	0x3dea6f9b	0.11447068
219	0x3bdd7a23	0.0067589446
220	0x3d75447e	0.059879772
221	0x3c6f7be4	0.01461694
222	0x3cf2911f	0.029610215
223	0x3cb76f6f	0.022392003
224	0x3c6910f0	0.01422523
225	0xbd5c2818	-0.053749174
226	0xbe13ea46	-0.14444837
227	0xbe1420f8	-0.14465702
228	0x3e041c32	0.1290138
229	0xbc3d477f	-0.0115526905
230	0x3d50e0e0	0.050995708
231	0x3cc7a6bc	0.024371497
232	0x3dc1577d	0.09440515
233	0x3da2ea3b	0.07954832
234	0xbd8583be	-0.065192685
235	0x3d3bba4b	0.04583196
236	0x3d04ae2e	0.032392673
237	0x3dc617fc	0.096725434
238	0x3e02a4e1	0.12758209
239	0xbd55ee74	-0.05222936
240	0x3d831411	0.06400312
241	0x3d127fe0	0.035766482
242	0x3db034e3	0.08603837
243	0x3cdad21b	0.026711514
244	0xbd734d7d	-0.05940007
245	0x3d9e9d67	0.07744866
246	0x3daacd1c	0.08339903
247	0xbdc9d91c	-0.098558635
248	0xbdee9a47	-0.1165052
249	0x3e0246fb	0.1272239
250	0x3e023ba6	0.12718067
251	0x3d2eb650	0.042654335
252	0xbdb5b308	-0.08872038
253	0x3be62091	0.007022925
254	0x3d80f083	0.06295874
255	0x3d0928e5	0.033486266

bias f4 [512]
0	0xbe002517	-0.12514149
1	0xbc1e64ef	-0.009667619
2	0xbdedf18d	-0.11618338
3	0xbd80502d	-0.06265292
4	0xbd83af0b	-0.06429871
5	0xbd477c1c	-0.048702344
6	0x3d68ea84	0.056864277
7	0x3c8b726c	0.017022334
8	0xbe0943e1	-0.134048
9	0x3dab9bd3	0.083793305
10	0xbdf3b917	-0.119005375
11	0xbb15e6eb	-0.0022873234
12	0x3b8f90b3	0.004381263
13	0xbd9d8bf4	-0.076927096
14	0xbdaf5fa3	-0.08563163
15	0x3dc821fc	0.09772107
16	0xbd27e1aa	-0.040986694
17	0xbd9a8021	-0.0754397
18	0xbd6b8d36	-0.057507716
19	0xbda0a420	-0.07843804
20	0xbd9528bd	-0.07283161
21	0xbc4e07aa	-0.012575069
22	0xbd79586f	-0.060875352
23	0xbdc251de	-0.09488271
24	0x3db5fa7d	0.088856675
25	0xbda29f9d	-0.079406
26	0x3dc70532	0.09717788
27	0x3d126fb1	0.03575105
28	0x3d90d3ac	0.07071623
29	0xbad2fc69	-0.0016096953
30	0x3da3646f	0.079781406
31	0xbc279917	-0.010229371
32	0x3cbe8ee7	0.0232615
33	0x3d944792	0.072402135
34	0xbd1cbf2a	-0.038268246
35	0x3bc7c49f	0.006096437
36	0xbd2c71a4	-0.042100564
37	0xbd7ffd97	-0.0624977
38	0x3dbd48c1	0.09242392
39	0xbccec820	-0.025241911
40	0x3da5effc	0.08102414
41	0xbc3843a2	-0.011246594
42	0xbc073701	-0.00825286
43	0xbd8c7856	-0.0685889
44	0x3da47ee0	0.08032012
45	0x3dd4c330	0.103887916
46	0xbdc514dc	-0.09623119
47	0x3dbf32f0	0.093358874
48	0x3dc0be95	0.09411351
49	0x3adc62a8	0.001681407
50	0x3dcea67a	0.10090347
51	0x3d89acd1	0.06722415
52	0xbde18cad	-0.1101316
53	0x3b93fb59	0.004516047
54	0x3d8111a8	0.06302196
55	0x3ddf53ab	0.1090463
56	0x3c96aa3e	0.018391725
57	0xbd0c7450	-0.03429061
58	0x3d9969c8	0.07490879
59	0x3dae2a45	0.08504156
60	0xbd903765	-0.07041816
61	0xbd9380f9	-0.07202334
62	0xbc36b2bd	-0.011151013
63	0xbd7ff8b0	-0.062493026
64	0xbe1108c5	-0.14163502
65	0xbde94be0	-0.11391425
66	0xbe0435c7	-0.1291114
67	0xbd33593e	-0.04378628
68	0x3d9f64a1	0.07782865
69	0x3d0905bf	0.033452746
70	0x3d6e279d	0.058143247
71	0x3d026110	0.031830847
72	0xbda50066	-0.080567166
73	0xbda6da93	-0.081471585
74	0x3d5823ab	0.05276839
75	0xbd425bd0	-0.04745084
76	0xbcb4e7f7	-0.022083266
77	0x3b18a036	0.0023288853
78	0x3d894df0	0.067043185
79	0xbc0014e2	-0.007817479
80	0x3d0e6b31	0.034770194
81	0xbd011ed8	-0.031523556
82	0x3da640b0	0.08117807
83	0xbd3cd9d4	-0.046106175
84	0x3d762a10	0.060098708
85	0xbd5bf64b	-0.05370168
86	0x3dcec04b	0.10095271
87	0xbd7d7aef	-0.061884817
88	0x3dcae37b	0.0990667
89	0x3d065d96	0.032804094
90	0xbdb38b69	-0.08766825
91	0x3cea66f5	0.028613547
92	0x3cb971bb	0.022637239
93	0x3d181458	0.037128776
94	0xbc56ecfb	-0.013118024
95	0x3cfabb3d	0.03060686
96	0x3cffb537	0.03121434
97	0x3da37a12	0.079822674
98	0x3da34ff8	0.07974237
99	0x3d6d01bb	0.05786298
100	0xbdd059f4	-0.10173407
101	0x3cb79376	0.022409182
102	0xbd60f42d	-0.054920364
103	0xbded597e	-0.11589335
104	0xbca4ed80	-0.02013278
105	0x3d728fe2	0.05921925
106	0x3d7fa664	0.06241454
107	0xbd9f79e1	-0.077869184
108	0x3c93a324	0.018022127
109	0xbdd29585	-0.10282425
110	0x3c8793ec	0.016550027
111	0xbdccb30a	-0.099950865
112	0xba272847	-0.0006376546
113	0xbc7d4882	-0.015459182
114	0x3d6867f4	0.056739762
115	0xbce55ca4	-0.027998276
116	0x3d0a4fb2	0.03376741
117	0x3d52daeb	0.051478308
118	0xbc60bd0b	-0.013716946
119	0x3d0ad19a	0.033891298
120	0x3de0d913	0.109789036
121	0xbb9b5c68	-0.0047412403
122	0xbd1a7e1e	-0.03771793
123	0x3d1a4ac0	0.037668943
124	0xbd435591	-0.047689024
125	0x3bd41a2e	0.0064728474
126	0x3da10c6a	0.07863696
127	0x3b8caecd	0.004293299
128	0x3d0c86ca	0.034308232
129	0x3acc3251	0.001557896
130	0xbd185130	-0.0371868
131	0xbdbe6950	-0.092974305
132	0x3d2b3e5c	0.041807517
133	0xbd877739	-0.06614537
134	0x3d97be31	0.07409323
135	0xbbd7799b	-0.006575776
136	0x3dbe9286	0.09305291
137	0x3d6c87b9	0.057746623
138	0x3c4edd45	0.012625997
139	0x3b5f137b	0.003403871
140	0x3d6ad92a	0.05733601
141	0x3de603c9	0.11231191
142	0x3c780107	0.015136964
143	0xbd2fd68f	-0.04292923
144	0x3c8eb767	0.017421437
145	0xbdb5e85c	-0.0888221
146	0xbd44f034	-0.048080638
147	0x3dad5eea	0.08465369
148	0xbd27edb1	-0.040998165
149	0xbc815048	-0.015785351
150	0xbd264210	-0.040590346
151	0xbcd7f0f7	-0.026360018
152	0x3cf8aa8b	0.030354759
153	0x3dade556	0.08491008
154	0xbdfc1ccb	-0.12310179
155	0xbd4661b9	-0.04843304
156	0x3cc7d9aa	0.024395783
157	0xbd8cc0d3	-0.06872716
158	0xbde065f2	-0.109569445
159	0x3caa1904	0.020763882
160	0xbd9207c4	-0.071303874
161	0x3d62ed80	0.05540228
162	0x3d2e11d2	0.042497464
163	0x3d2f04f3	0.04272933
164	0x3d61256a	0.05496732
165	0xbd8e05f8	-0.06934732
166	0x3b3f4366	0.002918446
167	0x3cb1494a	0.021641392
168	0xbd69c3fc	-0.05707167
169	0x3d1a7740	0.037711382
170	0xbdf11bd1	-0.11772884
171	0x3dd1f301	0.102514274
172	0xbbc4ae8e	-0.006002254
173	0xbd223588	-0.039601833
174	0x3dbc9ee4	0.092099935
175	0x3d577d8a	0.052609958
176	0x3c88e929	0.016712742
177	0x3dad0a18	0.08449191
178	0xbd55e036	-0.052215777
179	0xbe08504a	-0.13311878
180	0xbde336f7	-0.11094468
181	0x3d80d874	0.06291285
182	0x3dd1477d	0.102187134
183	0xbd35c61f	-0.044378396
184	0xbdad4068	-0.0845955
185	0x3de32f14	0.11092964
186	0x3d4c6e7f	0.049910065
187	0xbcc34efe	-0.023841377
188	0x3d404a83	0.04694606
189	0xbde0dd68	-0.1097973
190	0xbd8a79fe	-0.067615494
191	0x3d9c0f0f	0.0762006
192	0xbdb9efc5	-0.090789355
193	0xbb5de112	-0.0033856076
194	0x3ca5b07c	0.020225756
195	0x3cd9f4fc	0.026606075
196	0x3cb284bb	0.021791806
197	0xbe1e3953	-0.15451555
198	0x3dab9309	0.08377654
199	0x3c279d21	0.010230334
200	0x3d11bf46	0.035582803
201	0x3ba3efb3	0.0050029396
202	0xbd33aa7c	-0.04386376
203	0x3cb26046	0.021774422
204	0xbdbc7595	-0.092021145
205	0xbd8600d5	-0.065431274
206	0x3dbd02a8	0.09229022
207	0x3dd75ada	0.105153754
208	0x3c0a6943	0.008447948
209	0xbda83bf6	-0.08214562
210	0x3cf3dfbd	0.029769773
211	0xbb12846b	-0.002235676
212	0x3d8493ce	0.06473504
213	0xbd3eb028	-0.046554714
214	0x3d66c78b	0.056342643
215	0x3d810a2c	0.06300768
216	0x3dab9f93	0.08380046
217	0xbde158f1	-0.11003292
218	0x3dc00655	0.09376208
219	0x3d2120f8	0.039338082
220	0x3db52524	0.08844975
221	0x3dc29da1	0.095027216
222	0xbda9b671	-0.08286751
223	0xbdc6e934	-0.09712449
224	0xbd36582a	-0.044517674
225	0xbcddefe6	-0.027091932
226	0x3ce1b3eb	0.027551612
227	0xbdce1c2a	-0.100639656
228	0x3de9647d	0.1139612
229	0x3dd452c8	0.10367352
230	0x3b011bec	0.001970048
231	0xbd97c063	-0.07409742
232	0x3dbea9e1	0.093097456
233	0xbdce81e2	-0.10083367
234	0x3dda6a86	0.10664849
235	0xbc90a093	-0.017654693
236	0x3d97062e	0.073742256
237	0x3d7434e0	0.059620738
238	0xbdb30b72	-0.087424174
239	0xbda7114b	-0.08157595
240	0x3dccc26f	0.09998023
241	0x3cd32761	0.025775613
242	0x3d8640a5	0.06555299
243	0xbceb9c10	-0.02876094
244	0xbd5948ed	-0.053048063
245	0xbd57eb72	-0.052714773
246	0xbd574919	-0.052559946
247	0xbd99c935	-0.0750908
248	0x3de280e1	0.11059738
249	0xbdcb635d	-0.099310614
250	0xbddfe1a4	-0.109317094
251	0x3dd62bfd	0.10457609
252	0x3a859bcb	0.0010193525
253	0xbd659cde	-0.056057803
254	0xbd17277b	-0.036902886
255	0x3c94f043	0.018180972

weight f4 [20, 512]
0	0x3d1bcfef	0.038040098
1	0x3b6a71c0	0.0035773367
2	0x3d32c119	0.043641184
3	0x3b8f46e0	0.0043724626
4	0xbd296840	-0.041359186
5	0xbc8b2790	-0.016986638
6	0x3b5801f0	0.003296014
7	0xbca4336c	-0.020044051
8	0xbcb3883a	-0.021915544
9	0x3cdf06ea	0.027224977
10	0x3c3fc47c	0.01170456
11	0xbceae374	-0.028672911
12	0xbb37eab0	-0.0028063469
13	0x3cb8009e	0.022461232
14	0x3d17393d	0.03691982
15	0xbcd8f7a8	-0.02648528
16	0x3cf7673a	0.03020059
17	0xbc166afc	-0.0091807805
18	0xbc0cd18c	-0.008594882
19	0xbcbb90a6	-0.022896122
20	0x3d009ad5	0.03139766
21	0xbca4971f	-0.020091591
22	0x3c74d668	0.014943697
23	0xbcabddc9	-0.020979779
24	0xbd1715f8	-0.036886185
25	0xbcde5f28	-0.027144983
26	0x3c2889bc	0.010286745
27	0xbcd836a9	-0.026393251
28	0x3d19e821	0.03757489
29	0xbd31470f	-0.043280657
30	0x3c4d1d2c	0.012519162
31	0xbcabb318	-0.020959422
32	0x3c103f3c	0.008804139
33	0xbd1ce346	-0.038302682
34	0xbccdada5	-0.025107214
35	0xbc3407e4	-0.010988209
36	0x3c787024	0.015163455
37	0xbd32eb21	-0.043681268
38	0x3c74fad4	0.01495238
39	0x3d287b05	0.041132946
40	0x3c9334a8	0.017969444
41	0x3c3ff1b8	0.011715345
42	0xbc029354	-0.007969696
43	0x3c600b50	0.013674572
44	0x3c6e19d8	0.014532529
45	0xbcf8d132	-0.03037319
46	0xbc443f3c	-0.011977967
47	0xbc998ae2	-0.018742982
48	0xbb7f5000	-0.0038957596
49	0x3c8a0f78	0.01685308
50	0x3d035655	0.032064755
51	0xb9a8f480	-0.00032225624
52	0x3c11f6dc	0.0089089535
53	0xbd1ff56d	-0.039052416
54	0xbc79fe6c	-0.015258413
55	0x3cf4657e	0.029833551
56	0xbd303e97	-0.04302844
57	0x3d063a7b	0.032770615
58	0x3ca65e82	0.020308737
59	0xbcbb5c5e	-0.022871193
60	0xbcc1740c	-0.023614906
61	0xbca40986	-0.020024072
62	0xbd0d99b2	-0.034570403
63	0xbbe84ab8	-0.0070889853
64	0xbd07cbe9	-0.03315345
65	0x3c608788	0.013704188
66	0x3cd9db8a	0.026593942
67	0x3cfd10a6	0.030891728
68	0x3d1a4d45	0.037671346
69	0x3c0d6ed8	0.008632384
70	0xbd0e0fba	-0.034682967
71	0xbca76e59	-0.02043836
72	0xbb839120	-0.004015103
73	0x3cf8c0ea	0.030365426
74	0xbc3dd53c	-0.011586484
75	0xbd1e0d5b	-0.038586956
76	0x3cc6cbda	0.024267126
77	0x3cc58aaa	0.024113972
78	0x3d1f6bbb	0.0389211
79	0x3bbc49e8	0.005746115
80	0xbcddd8a1	-0.027080836
81	0x3d2588eb	0.04041378
82	0x3ca83f9a	0.02053814
83	0xbc9eb9f5	-0.01937578
84	0xbcad2bf0	-0.021139115
85	0xbd25a17e	-0.040437214
86	0xb9fb0500	-0.00047878176
87	0x3d0b7f05	0.034056682
88	0xbb978158	-0.0046235733
89	0x3b731340	0.0037090331
90	0x3bac69b0	0.0052616224
91	0x3b80ef20	0.003934756
92	0xbc238d18	-0.00998237
93	0x3ce24f0e	0.027625587
94	0x3bda1c28	0.0066561885
95	0x3b957260	0.0045607537
96	0x3b8f40b0	0.004371725
97	0x3ceffe6a	0.029296119
98	0xbca32e0e	-0.019919422
99	0xbcd79f35	-0.026321033
100	0x3cf6d12e	0.030129042
101	0xbba0dfd0	-0.004909493
102	0xbcb5a1ba	-0.022171844
103	0x3caf256a	0.021380145
104	0xbbaab2e0	-0.005209312
105	0xbcba210d	-0.022720838
106	0x3cbb69fa	0.022877682
107	0xbca98bc3	-0.020696526
108	0xbd2219e4	-0.039575472
109	0x3d2971f1	0.04136843
110	0x3d297a89	0.041376624
111	0x3c48cb00	0.01225543
112	0x3d29f2cb	0.04149131
113	0xbce81e42	-0.02833474
114	0x3b56d1d0	0.0032778867
115	0x3af2a320	0.001851175
116	0x3c4e0ee4	0.012576792
117	0x3d143cc1	0.036190752
118	0x3bba4ee0	0.005685672
119	0xbce3e104	-0.027817257
120	0x3c0ac8c0	0.008470714
121	0x3b39bba0	0.0028340593
122	0x3cda25fe	0.026629444
123	0x3a972380	0.0011530966
124	0x3c942998	0.01808624
125	0xbb71dc30	-0.0036904924
126	0x3d276bf7	0.040874448
127	0x3b031380	0.0020000637
128	0x3cfbea06	0.03075124
129	0x3c651918	0.013983034
130	0x3cccc4ce	0.024996188
131	0x3c13a04c	0.009010386
132	0xbba3d848	-0.005000148
133	0xbcd9281e	-0.026508387
134	0xbcf6c7d8	-0.03012459
135	0xbcd0f06e	-0.02550527
136	0xbc3e0f38	-0.011600308
137	0xbb0b8e60	-0.002129458
138	0x3b85d4a8	0.0040841885
139	0xbbae0aa0	-0.005311325
140	0x3d033aa1	0.032038335
141	0x3ca9ebfa	0.020742405
142	0xbd1c97ef	-0.038230833
143	0xbc47e32c	-0.012200158
144	0xbb47dfb0	-0.0030498318
145	0xbc379448	-0.011204787
146	0xbc4e70ec	-0.012600165
147	0xba8925c0	-0.0010463521
148	0x3a821ae0	0.0009926222
149	0xbce365bf	-0.027758477
150	0x3c30050c	0.010743391
151	0x3b04c960	0.002026163
152	0xbd01ccdd	-0.031689513
153	0xbd301d0b	-0.042996448
154	0x3d24caf3	0.04023261
155	0x3d0f4c6f	0.034985002
156	0x3cd8cbe2	0.026464406
157	0xbd2cd55f	-0.042195674
158	0x3d1763ef	0.03696054
159	0xbd0c8924	-0.034310475
160	0x3c224008	0.009902962
161	0xbd1e996e	-0.03872054
162	0xbc9eff60	-0.019408882
163	0x3cebeaa2	0.028798405
164	0x3d11e6fd	0.03562068
165	0x3c5a1fc0	0.013313234
166	0x3c129754	0.008947212
167	0xbce600a6	-0.028076481
168	0xbc2be50c	-0.010491621
169	0xbc7f9d18	-0.015601419
170	0x3d17626b	0.036959093
171	0xbc8a812c	-0.016907297
172	0xbc2822d4	-0.01026221
173	0xbd116efe	-0.03550624
174	0xbcf62380	-0.030046225
175	0xbc4159fc	-0.011801239
176	0x3c1906d0	0.009340003
177	0xbcacf99c	-0.021115117
178	0xbcec693f	-0.028858779
179	0xbd320275	-0.043459374
180	0xbb8b8168	-0.00425737
181	0x3d00453b	0.031316023
182	0x3cd25182	0.025673632
183	0x3cda4746	0.026645314
184	0xbd028b32	-0.03187103
185	0x3d219e3f	0.039457556
186	0x3cc32c1a	0.02382474
187	0xbcb29633	-0.021800136
188	0x3bd8b968	0.006613899
189	0x3c4c3940	0.012464821
190	0x3a107100	0.00055100024
191	0xbcca58e3	-0.024700588
192	0xbd2af9f1	-0.04174227
193	0x3d06af49	0.03288201
194	0x3d276e5b	0.040876728
195	0xbcf9a871	-0.030475827
196	0x3c0ca044	0.008583132
197	0x3c4e6058	0.012596212
198	0xbce1d838	-0.027568921
199	0x3cb25b0a	0.021771926
200	0xbc8e9502	-0.017405037
201	0x3d09f93f	0.033684965
202	0x3c1c3234	0.009533454
203	0x3c0941b4	0.008377481
204	0x3ca81a82	0.020520452
205	0xbc6c5fb8	-0.014427118
206	0xbafb2860	-0.0019161813
207	0xbbe99610	-0.0071284845
208	0x3d05f781	0.03270674
209	0xbc77cbe6	-0.015124297
210	0x3c3f5b8c	0.011679541
211	0xbce7a8d6	-0.02827875
212	0x3baeb918	0.0053321235
213	0xbbd3a848	-0.0064592697
214	0xbbdb62b8	-0.006695118
215	0xbcb5a4d8	-0.02217333
216	0x3bd56d00	0.006513238
217	0x3d30372f	0.043021377
218	0xbd1664a0	-0.036717057
219	0xbbc7edd8	-0.006101351
220	0xbd140541	-0.036137823
221	0x3cdec20e	0.027192142
222	0x3cbfa652	0.023394737
223	0xbb573570	-0.0032838248
224	0x3cfba226	0.030716967
225	0xbc6c63f8	-0.014428131
226	0x3c756bf8	0.014979355
227	0x3bcf49f8	0.0063259564
228	0x3cabf1fe	0.020989414
229	0x3c7aefe8	0.015315987
230	0x3c0776b8	0.008268051
231	0xbd08618d	-0.033296157
232	0x3c97e426	0.018541407
233	0xbbc048a0	-0.0058680326
234	0x3cb6aace	0.022298243
235	0x3d1e0039	0.03857443
236	0x3d143799	0.036185835
237	0xbc09139c	-0.008366492
238	0x39a5c300	0.0003161654
239	0xbc6aa2b6	-0.01432102
240	0x3cad3766	0.02114458
241	0xbc80b6bf	-0.01571214
242	0xbcadd394	-0.021219052
243	0xbc0842e0	-0.0083167255
244	0x3cdfd616	0.027323764
245	0x3ca40a86	0.02002455
246	0x3d151f13	0.036406588
247	0xbc9de06c	-0.019272052
248	0xbcbb59fb	-0.022870054
249	0xbcf4bae8	-0.02987428
250	0x3ca3c7b2	0.019992683
251	0xbcc1cfe7	-0.023658706
252	0xbd036669	-0.032080088
253	0x3ca61586	0.020273935
254	0xbc278dc4	-0.010226671
255	0xbc6d5972	-0.014486657

bias f4 [20]
0	0xbae110e0	-0.0017171167
1	0xbce041a6	-0.027375054
2	0x3c661dba	0.014045173
3	0x3b20e207	0.0024548785
4	0xbd35cdcd	-0.04438572
5	0xbc825836	-0.015911203
6	0x3c6c4b1b	0.014422203
7	0x3d18133f	0.03712773
8	0xbc48c46c	-0.012253862
9	0x3c6a76af	0.014310523
10	0xbd0018af	-0.03127354
11	0xbc838081	-0.016052486
12	0x3c98deed	0.018660987
13	0xbc93c00c	-0.018035911
14	0x3c91a6aa	0.017779667
15	0x3ce3f627	0.027827336
16	0x3d2afc38	0.04174444
17	0xbc9b31ed	-0.018944705
18	0xbc32be85	-0.010909681
19	0x3cb2dc3a	0.021833528
