model_cross_entropy.pth (torch, 224704 bytes, 6 tensors)

weight f4 [64, 20, 3, 3]
000000 99 89 b7 3d d7 2f 76 bd b6 d6 05 bd af 63 95 3d
       0.089617915 -0.060104217 -0.032675467 0.07294404
000010 da e0 f8 3b d8 ea a0 3d a9 fd 19 3d f3 fc 07 bd
       0.007595164 0.07857293 0.037595425 -0.033200216
000020 d7 b5 44 bb 9b 21 b6 bc 08 34 8b bd 02 06 63 3d
       -0.0030015612 -0.022232821 -0.067970335 0.05542565
000030 e3 3a e3 3c ef da 8e bd d6 82 36 bd d0 c8 aa bc
       0.02773804 -0.06975352 -0.04455837 -0.020847708
000040 fa de c9 bc d6 16 74 3d c4 e6 eb bc 99 bf 85 bc
       -0.024642456 0.05959209 -0.028796561 -0.016326712
000050 fe 45 2a 3c b2 06 ef 39 93 75 5e bd a7 06 03 3d
       0.010392664 0.0004559062 -0.054311346 0.031988766
000060 02 20 2b bd e8 8e 3d 3d 80 32 d3 3b 1e 89 1d bd
       -0.041778572 0.046278864 0.006445229 -0.038460843
000070 f5 82 49 bd 6b d7 b4 3d 18 72 61 bc dc 76 27 bd
       -0.049197156 0.0883015 -0.013760112 -0.040884838
000080 88 a3 36 3c 6c 37 c9 3c 06 05 52 bd c1 10 89 bd
       0.011147387 0.02456256 -0.051274322 -0.06692649
000090 2a 3a 52 bd c2 eb 1c 3c 56 ce 96 3d 63 02 41 bd
       -0.051325 0.009577693 0.07363574 -0.047121417
0000a0 34 a3 ea bc 67 58 20 3d d5 a5 87 3c 18 ef 96 bb
       -0.028642274 0.039146807 0.016558567 -0.004606139
0000b0 87 64 7d 3d 0a c3 dc 3c 33 4c b2 3c 61 9c 9f bc
       0.06186345 0.02694847 0.02176485 -0.019483747
0000c0 ea 8f 58 bd c3 b0 90 3d 1c f6 93 bd c3 cb df bc
       -0.052871622 0.070649646 -0.07224676 -0.02731884
0000d0 20 67 5c bc 99 5b 25 bd f0 4b 80 3d 69 b5 0b 3c
       -0.013452321 -0.040370557 0.06264484 0.008527138
0000e0 3d ed bb bd 2c 62 c0 3c 02 05 f3 bb 3a c3 20 ba
       -0.09176109 0.023484312 -0.0074163685 -0.00061326066
0000f0 f3 d1 a3 3d f0 69 5e bd fe c3 e8 bb c8 30 6c 3d
       0.07999029 -0.05430025 -0.007103442 0.05766371
000100 74 ab c9 bc 15 fc d9 3d 26 c3 48 bd e7 9d 87 bd
       -0.024617888 0.10643784 -0.049014233 -0.06621914
000110 d3 bf 46 3d a0 8e c3 3c 78 a5 6f bc 88 29 4e 3d
       0.04852278 0.02387172 -0.014626853 0.050332576
000120 0d ca 58 bd 79 64 ba bc a2 de 8b bd 42 ad a2 3d
       -0.052927066 -0.022752987 -0.06829573 0.079432026
000130 0a 86 63 bd 5d 8a 31 3c 70 0f 5e 3c 28 d5 08 3d
       -0.05554775 0.010836211 0.013553485 0.033406407
000140 b2 e6 fe 3c 3c 45 10 3d 26 85 3c bb a5 b6 37 bd
       0.031115863 0.035222277 -0.0028765886 -0.044851918
000150 10 ee 56 3d c7 7d b8 bb c0 de 93 bd 83 f9 81 3d
       0.052473128 -0.005630228 -0.072202206 0.06346419
000160 3b e1 c2 3c 4e de 21 3d 2f 08 57 3d ec 31 44 bc
       0.023789039 0.039518647 0.05249804 -0.011974793
000170 f8 1d 23 3d 43 b7 03 3d 03 75 a4 3d eb 92 88 3c
       0.039823502 0.032157194 0.08030131 0.016671618
000180 57 a1 8c bd 1b 4d 22 bd 2d 01 94 bd 13 85 4c 3c
       -0.06866711 -0.039624315 -0.07226787 0.012482899
000190 fb 63 ef bc 46 59 37 bd fa c9 5d bc d7 4d 00 3d
       -0.02922248 -0.044762872 -0.0135369245 0.031324234
0001a0 8c 17 ed bd 73 1d a7 bc 1d d5 35 bd c5 a8 2f bd
       -0.11576757 -0.020399785 -0.044392694 -0.04288556
0001b0 4b f1 75 3d 34 ae b5 3d 19 fa 2c 3d fe d0 11 3d
       0.060044568 0.08871117 0.0422307 0.0355997
0001c0 28 5b 16 3d 5f ec 04 3c f7 b0 6f bd 96 7f 8b bd
       0.036708027 0.008112996 -0.058518376 -0.068114445
0001d0 4f 10 cb bd 4a ac 74 3d b0 1d 58 bd 7b 69 34 3d
       -0.0991522 0.05973462 -0.052762687 0.044045907
0001e0 85 66 c2 3c 8b 1a 44 bd 0c b6 01 bd 27 f7 1c bc
       0.023730526 -0.047876876 -0.031667754 -0.00958041
0001f0 54 8e 2f 3d 69 69 af bc 0a 61 80 bc 63 15 24 bc
       0.042860344 -0.021412568 -0.015671272 -0.010014865
000200 66 84 1e 3d cb d4 4e 3b 24 27 27 3d a8 77 0e 3a
       0.038700484 0.003155994 0.04080881 0.00054347
000210 4d ed dd 3c 1e 10 85 3c ff b9 3f bd 4d b1 48 3d
       0.027090693 0.016243037 -0.04680824 0.048997212
000220 a6 b4 bd 3d 3e 23 d9 3d 18 57 52 bd ac e7 cd bc
       0.092629716 0.10602425 -0.05135259 -0.025134884
000230 d0 9e 28 3d e3 a2 00 bd 16 87 95 3c ee 66 66 3c
       0.04116708 -0.03140534 0.01825289 0.014062626
000240 15 1c 0e 3c 7b 6e 86 3b 5d 3b 94 3d 1c c5 7c bd
       0.008673687 0.0041025258 0.07237885 -0.061711416
000250 a9 e2 eb bc f3 0c 7a 3c e6 2d ab bd 7c fb c4 bd
       -0.028794603 0.015261876 -0.08358364 -0.09618279
000260 05 4f b8 bd eb 6c e2 3b 71 1d 50 bd 10 9f 86 3d
       -0.08999447 0.0069099567 -0.050809328 0.065733075
000270 08 70 f3 bc b4 62 3a 3a 52 8a 86 bc 3d 84 ce 3c
       -0.029716507 0.0007110045 -0.016423378 0.02520954
000280 1c 68 19 3c de e9 cb 3c 4a 62 5a 3d bf 0c 4d bd
       0.0093632005 0.02489179 0.053316392 -0.050060984
000290 a0 de ce 3c 1f d4 50 3d 14 72 9e bd b9 48 8e bd
       0.02525264 0.050983544 -0.077366024 -0.069474645
0002a0 f0 5b 24 bd a3 37 21 bd fb b9 4b bd 49 af 94 3d
       -0.04012674 -0.0393597 -0.04973791 0.072599955
0002b0 75 63 04 3d fb e5 9d bc 41 8a 63 bd 9a b8 8a bc
       0.032321412 -0.019274702 -0.05555177 -0.016933728
0002c0 db 5e 18 bd ed bf 8f 3c 12 05 d3 bb e3 8a 94 3c
       -0.037199836 0.017547572 -0.0064398134 0.018132633
0002d0 ce 9e 02 bd 31 9e 23 bb ea ab 9f 3d 90 34 e3 3c
       -0.03188973 -0.0024966116 0.07796462 0.027735025
0002e0 53 76 46 3c 66 1a 7e bd 8e 97 af 3d c4 26 b0 3c
       0.012113172 -0.062036894 0.08573829 0.02150286
0002f0 84 3b 2f bc 92 b4 a7 3d e0 7d 39 3d e1 ce 34 bd
       -0.010695342 0.08188738 0.04528606 -0.044142608
000300 75 8b a4 3c 1b 9a 7d bd 11 9e 25 3d 88 a1 8a 3d
       0.02008603 -0.061914545 0.040433947 0.06769091
000310 e7 3e f9 3b cd c8 b9 3c 04 31 8d bb 44 c6 64 3d
       0.0076063755 0.022678757 -0.0043088216 0.055853143
000320 75 7f 87 3d 82 1c f9 3c 7f 12 4a 3d f2 55 29 bb
       0.066161074 0.030409101 0.049334045 -0.002583858
000330 cb f0 76 bc 13 82 b7 3d cf a3 19 3d 26 10 76 bd
       -0.015072058 0.089603566 0.037509736 -0.060073994
000340 66 33 c8 bb 1e 67 18 bc 55 80 75 bc d8 f2 0f bd
       -0.006109643 -0.009301929 -0.01498421 -0.035143703
000350 f4 53 8d 3c af 56 43 3d 6f 41 98 bc 39 f0 68 3d
       0.017251946 0.04769009 -0.018585889 0.05686972
000360 2f d5 06 bd a3 bd 75 bd f0 26 8f bd a2 85 00 3c
       -0.03291815 -0.059995305 -0.069898486 0.007844361
000370 c8 8b a7 3d 6d 3d 1e 3d 89 08 9d bd 4e 24 07 3c
       0.08180958 0.0386328 -0.076676436 0.008248402
000380 ee 84 e5 bb eb 86 6c bd ca c3 8c bd fb d8 35 bd
       -0.007004372 -0.057745855 -0.06873281 -0.04439638
000390 b5 47 35 bd 4f 46 c1 3c 2e 33 bd bb b3 3b 9c bc
       -0.04425784 0.023593096 -0.0057739234 -0.019071436
0003a0 0c d4 40 bc b5 4b ed bc ba f2 dd bc 81 26 f8 3c
       -0.011769306 -0.028966764 -0.02709328 0.030291798
0003b0 57 e3 01 3d f5 d2 14 3d ff e6 5f bc 52 1d e4 3c
       0.03171095 0.036333997 -0.013665914 0.027846012
0003c0 9f dd 38 3d 44 06 86 3b 8b 6a e4 bc 29 91 7d 3d
       0.04513323 0.0040901024 -0.027882835 0.061906014
0003d0 2f ad 3f bc 70 f6 ad bd 42 76 35 3d ee 75 85 bd
       -0.011699005 -0.0849427 0.044302233 -0.06516634
0003e0 73 76 b3 bd a1 ca 2d 3c 3f 7b b5 bd 53 b7 ae bd
       -0.08762827 0.0106073925 -0.08861398 -0.0853106
0003f0 cb 6d 76 bd 83 bc 4e bd 6c a8 8a 3d 61 fc 57 bd
       -0.0601633 -0.050472748 0.06770405 -0.05273092

bias f4 [64]
000000 3a 39 e0 bc 01 f2 48 bb db 09 91 3c 22 6f 8d bd
       -0.027371038 -0.0030661824 0.017704895 -0.069059625
000010 af 47 6f b9 89 e4 99 3d 7f 2e 90 bd e9 2d c4 3c
       -0.0002281952 0.07514293 -0.070401184 0.023947673
000020 8e 2d 94 3d bf 77 ee bc ef b2 1b bb a8 ae a3 bc
       0.07235251 -0.029109834 -0.0023757776 -0.019980744
000030 7a 73 ec bc d9 65 3f 3d 7f cb da 3c da fc 34 bb
       -0.028863657 0.04672799 0.026708363 -0.0027616532
000040 d9 f5 41 bc 78 ec ca bc ff 77 52 3c a0 53 91 3d
       -0.0118384 -0.02477096 0.012845992 0.07096028
000050 54 30 59 3d cd 1e 1c 3d 05 57 28 3d f4 b8 19 3d
       0.053024605 0.03811531 0.041098613 0.0375299
000060 56 0b 2b bc 91 c5 3c 3d a7 cb 7a bc e2 21 61 bd
       -0.010439714 0.04608685 -0.015307344 -0.054963954
000070 5c 1a 00 bb 20 1a 4f 3c 8d 37 b9 3c c6 f9 9d 3c
       -0.0019546961 0.012640506 0.022609496 0.01928414
000080 43 33 27 bd 14 c4 d7 bc 9a 5c 77 3d c4 0d 37 3d
       -0.04082037 -0.026338615 0.060391046 0.044690862
000090 6e 89 e0 3c e0 1f 10 3d 2c 28 f1 bc 7f a8 58 3d
       0.027409282 0.03518665 -0.0294381 0.052895065
0000a0 ab 3e 97 bc 34 35 bc bc 4e c5 74 bd 61 3a 9b 3d
       -0.0184625 -0.022974588 -0.059758477 0.07579494
0000b0 cf 13 66 ba 3f b9 c6 3c bf 50 1f bc b1 85 b1 3d
       -0.00087767554 0.024258254 -0.009723841 0.08668078
0000c0 47 ed ee bc de 17 72 bb 3f 4b 62 3d 11 85 23 bd
       -0.029165877 -0.0036940495 0.05524754 -0.039921824
0000d0 d5 92 7f 3d 3d 11 0b 3c b9 d4 a4 bd ec 45 52 3d
       0.06239589 0.008487997 -0.08048386 0.051336214
0000e0 ab af 87 3d d3 11 40 3d b9 b2 3f 3d 55 21 70 3d
       0.06625303 0.046892 0.046801303 0.058625538
0000f0 29 7a 75 bd 00 6d ed bb a4 2d 51 bd c6 23 99 3d
       -0.059930954 -0.00724566 -0.051068917 0.07477526

weight f4 [512, 64]
000000 e8 15 03 be 80 a6 8a 3d 0d 9a 90 3d b4 d7 06 3e
       -0.12801325 0.067700386 0.07060633 0.13168222
000010 a2 86 cb bd a4 3c f5 3c b6 76 89 3b 28 01 bf bc
       -0.099377885 0.029936142 0.0041950596 -0.023315981
000020 2b cc e4 3d a4 dc a9 3c 56 05 37 3d de d1 8b 3d
       0.111717544 0.020735092 0.044682823 0.06827138
000030 87 22 be bd 90 eb 08 3d 83 02 5a bd e2 ab 29 bc
       -0.09283929 0.033427775 -0.05322505 -0.010355921
000040 50 c4 8e bd ed d9 1d bd 45 77 5f bd e1 8c ad bd
       -0.069710374 -0.03853791 -0.054557104 -0.08474136
000050 11 ed c5 bd ce af b2 3d 92 b0 74 3d f1 fe aa 3b
       -0.096643575 0.08724938 0.059738703 0.0052183797
000060 4b 9c d3 3d af 20 59 bd 8e 77 6f 3d e2 4c 2d 3c
       0.10332545 -0.053009685 0.058463626 0.010577412
000070 b3 d2 4a bc 57 2d 6f bd e9 c2 06 bd 5b 6e c4 3d
       -0.012379336 -0.05839285 -0.032900725 0.09591361
000080 d8 6e 92 bc 93 31 96 3d c8 51 ae bd 1f c7 ca bd
       -0.01787512 0.07333674 -0.08511692 -0.099012606
000090 1d a3 83 3d 60 7c 97 3c 3a 1e 93 3d d0 84 ac 3d
       0.06427596 0.018491924 0.071835 0.084237695
0000a0 cb 50 a8 bc 27 e5 13 bd f6 6b d6 3d c4 36 be bc
       -0.020546338 -0.03610721 0.10469811 -0.023219474
0000b0 b0 0b c5 3d 84 f2 49 ba a1 4a f3 3d 38 ca 9e bc
       0.0962137 -0.0007703679 0.11879469 -0.019383535
0000c0 10 b5 14 3d 12 51 89 3c ca ef 22 3d 3f b6 04 be
       0.036305487 0.01676229 0.039779462 -0.12960146
0000d0 2b a8 00 3e bf cc c8 bd 5d 7f 36 bd ce a9 07 3c
       0.12564151 -0.09804677 -0.044555057 0.008280231
0000e0 4f dc 8d bc aa 9d 00 3c 97 66 9e 3d f0 4d 63 3d
       -0.017316965 0.00785009 0.07734411 0.05549425
0000f0 90 37 46 bd 5b 1b 3d 3c 6a ef 34 bd 9e 15 c8 3d
       -0.048392832 0.011542167 -0.044173636 0.09769748
000100 a0 54 48 bd 33 0c c5 3d 8c 79 7e 3d f6 3b 16 bd
       -0.04890883 0.096214674 0.062127635 -0.036678277
000110 96 c9 6c 3d f6 42 a9 bd 6e 83 81 3d e0 72 56 bd
       0.057809435 -0.08264725 0.06323896 -0.052355647
000120 76 96 10 bd e2 f0 05 3d 82 47 95 3d cd 23 02 be
       -0.03529974 0.032700427 0.0728903 -0.1270897
000130 9c 15 18 bd fa 4f ad 3c 9f 0a cb bc 1c 04 e1 3d
       -0.037129983 0.0211563 -0.024785338 0.10987112
000140 c5 3f de 3d fd cb ad bd 5a f3 26 bd a6 02 08 3d
       0.10852007 -0.08486173 -0.040759422 0.03320565
000150 72 78 fa 3c 52 b4 9a bd c3 e3 2d 3d 33 33 ef 3d
       0.03057501 -0.075539246 0.04245354 0.11679687
000160 36 4b 82 3d df 27 ae bd 98 7d d8 3d 0a 56 0d 3e
       0.063620016 -0.085036986 0.1057083 0.13802353
000170 4b 2c 36 3d 1a 77 7e 3d 48 9e 10 3d b9 25 86 3d
       0.044475835 0.062125303 0.0353072 0.06550164
000180 03 84 85 bd f6 5d 46 3d 25 3c ca 3d d8 07 c5 bd
       -0.0651932 0.048429452 0.09874753 -0.09620637
000190 f6 4b 00 3e 01 77 31 3b c4 1e a4 3b 9b e0 87 3c
       0.12528977 0.0027078988 0.0050085504 0.016586592
0001a0 3e 11 b3 3d 99 44 a7 3d 36 be 62 3d 66 7c 67 3d
       0.08743523 0.08167381 0.05535718 0.05651512
0001b0 3d 66 df bd 23 fa e3 bd 64 f7 86 bd a6 40 70 bc
       -0.10908172 -0.11131694 -0.06590155 -0.014663851
0001c0 91 52 e8 bc b4 68 67 3d d9 e8 fd bd 4a 99 9a bc
       -0.028359683 0.056496337 -0.12397928 -0.018871922
0001d0 27 f6 52 bb 7c 4d 28 3c 4e 7f 60 3d 2c db d9 bd
       -0.0032190175 0.01027238 0.054808907 -0.10637507
0001e0 7d 47 85 3d 18 3e 94 ba 64 7e 8e 3d 57 7d a4 3d
       0.06507776 -0.0011310009 0.06957701 0.08031719
0001f0 ee 21 ea bd fc e3 26 3b 8c 12 00 bd bd d3 c8 3d
       -0.11432253 0.002546548 -0.031267688 0.09806011
000200 44 4a ab bd 12 9c 77 bd 28 59 8f bd 81 e3 d1 3d
       -0.083637744 -0.060451575 -0.06999427 0.10248471
000210 bd ab 6b 3c 06 3e a9 3d fa 0d 50 bd 3a 89 f7 3d
       0.014384207 0.08263783 -0.05079458 0.12086721
000220 fb 7b d6 bd cd e4 00 3e 3a 91 cc bd 3d a6 91 bd
       -0.10472866 0.1258728 -0.09988637 -0.071117856
000230 35 c6 8c bd a6 15 7f 3d aa 55 a6 bd d3 9b 27 bc
       -0.068737425 0.062276505 -0.08121808 -0.0102300225
000240 72 a7 ce bd 64 a9 76 bd 96 9e cb 3d e1 1b 40 bd
       -0.100905314 -0.060220137 0.09942357 -0.046901587
000250 ce 99 01 3c 41 64 d1 bd 39 7e 34 bd 08 6c c3 3d
       0.007910205 -0.102242 -0.044065688 0.0954209
000260 44 24 cb 3d 67 2d a1 bd 72 92 36 bd e8 e4 a9 3c
       0.099190265 -0.07869988 -0.044573255 0.020739034
000270 a7 fe e7 3c 7a bb a9 bd 43 90 52 bc 7d 9f d9 3d
       0.02831967 -0.082877114 -0.0128517775 0.10626123
000280 1f 15 7e 3b 59 dd 02 be 87 f6 59 3d dd 37 d6 bd
       0.0038769913 -0.1277975 0.053213622 -0.10459874
000290 6c 21 73 3d b9 3d c4 3d d3 ff 91 bd c5 32 c8 bd
       0.059358045 0.09582085 -0.07128873 -0.097753085
0002a0 f1 47 fe 3c 66 41 c1 3d 48 70 aa bd f4 80 a1 bc
       0.031040164 0.09436302 -0.08322197 -0.01971481
0002b0 1e 9e 2b 3c 61 8f ff bd 6c 5e d8 3d 13 1c b9 3c
       0.01047471 -0.12478519 0.105648845 0.022596395
0002c0 c5 81 0d 3d ed f5 cb bd b5 cc 2d 3d ea a1 ec 3a
       0.034547586 -0.09959016 0.042431552 0.0018053625
0002d0 80 d7 81 bd a0 f1 1b bd c1 da 30 3d 56 81 9e 3d
       -0.063399315 -0.03807223 0.04317737 0.077395126
0002e0 eb e8 80 bd 9d a8 0c 3d ad 93 cc 3d 3b d6 a7 3c
       -0.062944256 0.03434049 0.099891044 0.020487895
0002f0 2c bb cd 3d b4 83 df 3d 17 a2 8d 3d 88 0c c8 3b
       0.10045466 0.10913792 0.06915682 0.0061050095
000300 c7 8b 9f 3d 1a 69 97 bd d2 af 4a bd 3a 7c 1c 3d
       0.07790332 -0.073930934 -0.04948408 0.03820441
000310 f9 ba c1 3c 31 13 18 bd 12 e1 a0 bb 33 02 a8 bd
       0.023648726 -0.037127677 -0.004909643 -0.082035445
000320 9c 5e 9b 3d 82 a9 d9 3c 6e 54 e7 bd 20 26 e9 bd
       0.07586405 0.026570085 -0.112954006 -0.11384225
000330 58 85 c9 3d 75 ad bb 3c 52 bf b1 3d 24 06 a3 3d
       0.098398864 0.02290986 0.086790696 0.079601556
000340 0e 53 bc bd 9d 62 eb 3d d8 d8 ee bd 3a 93 66 3d
       -0.09195529 0.11493418 -0.116624534 0.05629275
000350 43 a7 ce bd e6 69 a3 3d fa 82 d1 bd f0 9a 16 bd
       -0.100904964 0.07979183 -0.1023006 -0.036768854
000360 59 60 ce bd 4a 9f 55 bd aa 11 b9 3d b9 c5 96 3c
       -0.100769706 -0.052153863 0.09036572 0.018404828
000370 0d fd 23 3d 97 7c a0 3d e8 c7 bb bd 44 d8 15 be
       0.04003625 0.078362636 -0.091689885 -0.1463328
000380 ce 92 f6 bd 92 96 5a 3d 6a aa d7 bd b7 98 cf 3c
       -0.120397195 0.05336625 -0.10530551 0.025341375
000390 31 15 c0 bd d3 c4 16 be 73 b5 07 3e a3 1d 2c bd
       -0.09379042 -0.1472352 0.13252811 -0.04202045
0003a0 fc 34 f0 3d d5 ac 9e 3c 61 2a ee 3b d5 a3 8e bd
       0.11728856 0.019369522 0.0072682356 -0.06964842
0003b0 e7 8d b1 bd 9e 1a 01 be b0 37 94 bd 09 d6 6f bd
       -0.08669644 -0.1260781 -0.07237184 -0.05855373
0003c0 4e 49 38 3d f6 c9 a2 ba 27 4d 6f 3c d1 56 a6 bd
       0.044991784 -0.0012419808 0.014605797 -0.08122028
0003d0 24 00 18 be 9f 6c b7 bd f9 28 ac 3d a3 5a 96 3d
       -0.14843804 -0.08956265 0.084062524 0.07341506
0003e0 c0 38 cc 3d 38 ff 6f 3d d4 d4 ad 3d f3 e5 ed 3c
       0.09971762 0.058593005 0.08487859 0.029040312
0003f0 93 b1 70 bd da 3e 66 bb 83 61 e1 bd a3 70 ab bd
       -0.058763098 -0.0035132677 -0.11004927 -0.08371093

bias f4 [512]
000000 10 e7 39 bd a0 c1 9c 3c 81 89 79 3d 9d 88 b1 bd
       -0.045386374 0.019135296 0.06092215 -0.08668635
000010 4c 60 97 ba 04 d0 a5 bc f8 5a 42 bd b4 bb 0a bd
       -0.0011549084 -0.020240791 -0.047450036 -0.033870414
000020 c7 a2 67 3d 5b ae 25 3d 70 4b 86 ba 2b 8e ad bd
       0.05655172 0.04044948 -0.0010245871 -0.08474382
000030 bb a2 e4 3b a3 70 a7 bd 84 10 a6 3d 06 db 93 bd
       0.006977407 -0.081757806 0.08108619 -0.0721951
000040 cc bf d8 bd a8 84 94 3d a5 23 d8 3c 2b f0 55 bd
       -0.10583457 0.07251865 0.026384184 -0.052230995
000050 44 a2 4a 3d 4f 52 cb 3d 04 d3 29 bd 81 df ed bd
       0.049471155 0.099278085 -0.041461006 -0.116148956
000060 cd 9e 56 3d 89 2a 98 3d 46 05 b6 3d a6 23 3d 3d
       0.052397538 0.07429988 0.088877246 0.046176575
000070 53 f7 de 3d 1a c9 81 bd 26 b6 0e bd 5d af 62 3d
       0.10887017 -0.06337185 -0.03484168 0.05534302
000080 b0 4b be 3d cd 21 97 bd 30 ca 7e bd 32 fd 49 3d
       0.0929178 -0.07379494 -0.06220454 0.04931373
000090 69 7d a8 3d 46 4c 4b bd e5 4f 94 bd 45 d6 86 3d
       0.08227045 -0.049633287 -0.07241801 0.065838374
0000a0 e3 09 0a bd b8 f5 39 3d cb d4 68 3d 12 f0 85 3c
       -0.033700835 0.04540035 0.05684356 0.016349826
0000b0 0d 64 49 3b 96 4c aa 3d 13 da 9b 3d 98 cc a5 bd
       0.00307298 0.08315389 0.07609954 -0.08095664
0000c0 83 f6 23 3d 8f 1b cb 3d 71 35 bd 3d 2c c4 96 bd
       0.040030014 0.09917366 0.09238709 -0.073616356
0000d0 88 fe 5b bc 1c 06 80 3d 8d 71 90 bd fa 9f 68 bd
       -0.013427384 0.06251165 -0.07052908 -0.05679319
0000e0 d3 0c 93 bd 0b 94 af 3d 53 47 a3 bd ab fa bd bd
       -0.071801804 0.08573159 -0.079725884 -0.09276327
0000f0 95 80 5f 3b 41 5b f8 bd 7d 7c b1 bd 2f b3 97 3d
       0.003410374 -0.1212678 -0.086663224 0.074072234
000100 f2 87 8d bd 4b ae c2 3d 71 be 5c bd d8 8e 37 bd
       -0.06910695 0.095059 -0.053892557 -0.04481396
000110 12 30 5f bd 5b 0f db 3b 62 e2 5f bc fa 3f c7 3d
       -0.054489203 0.00668518 -0.013664814 0.097289994
000120 08 b0 c8 3b c3 d9 b6 3d f4 fb 93 3d bf c8 8e bd
       0.0061245 0.089282535 0.072257906 -0.06971883
000130 02 b1 8b bc e3 c9 49 3d 51 de 93 bd 4d 31 82 bd
       -0.017052177 0.0492648 -0.07220138 -0.0635706
000140 53 98 c6 3d 44 4a ce 3d 4c 91 b3 bb 06 6f cb bd
       0.09697022 0.10072759 -0.005479967 -0.099332854
000150 02 bd 93 bc 10 cf 84 bd 84 0f cc bd a1 0a da 3d
       -0.018034462 -0.064848065 -0.09963897 0.106465586
000160 7f 2c e3 bd 50 06 7a bd ef f4 1c 3d 9e e0 0c bd
       -0.11092471 -0.061041176 0.038319524 -0.0343939
000170 07 74 83 bd 73 0c a7 bd c8 8c f5 bd 4e d1 89 3c
       -0.06418615 -0.081566714 -0.119897425 0.016823437
000180 9a 61 85 bd 72 0d 0b bd 39 41 83 bd c9 03 f5 3b
       -0.06512757 -0.03394837 -0.064089246 0.007477258
000190 2e 85 a8 bb ca ff d8 bc cc 90 b8 bd ed f6 c3 bd
       -0.0051428294 -0.026489157 -0.09011993 -0.09568582
0001a0 d6 37 85 bc 46 7a cb 3d 70 48 13 3d 6b b5 8f 3c
       -0.016261976 0.09935431 0.035957754 0.017542562
0001b0 87 90 8f 3d 88 35 6e bd 94 13 6b 3d d6 fc 29 bd
       0.07009988 -0.05815652 0.057391718 -0.04150089
0001c0 19 9d 7e 3d de 61 23 3d ea 71 ea 3b 56 ae 3d bd
       0.06216154 0.039888255 0.007154693 -0.046308838
0001d0 8a b5 f2 3c f8 0e a4 bd e2 a2 dd 3d 82 3b c7 3c
       0.02962758 -0.080106676 0.10822083 0.024320368
0001e0 81 7f 91 bd 94 70 1e 3d 0c 46 b7 3b 73 6c 08 bb
       -0.071043976 0.03868158 0.005593067 -0.0020816594
0001f0 aa 3b ad 3c 93 ee fc bc c1 1a 1a 3c 08 1c c3 bd
       0.021146614 -0.03087548 0.009405793 -0.09526831
000200 e2 45 d2 bc d3 9c 4e bd ab 67 82 3d 88 36 03 bd
       -0.025668088 -0.050442528 0.06367429 -0.032034427
000210 ab 5d 03 bd 58 87 a6 3c 19 31 89 3c bc 2c c5 3c
       -0.03207175 0.020328209 0.016747044 0.024069183
000220 b7 73 34 bd 37 e0 95 3d d9 84 e0 3d 3d cc b0 bd
       -0.044055667 0.07318156 0.10962839 -0.08632705
000230 56 23 25 3d 9c 9f b2 3d f1 29 37 bd e3 df 80 bd
       0.040316902 0.08721849 -0.044717733 -0.06292703
000240 69 a5 7a bd bb f0 dc bc 1e 0b c9 bd ae 0f e3 3d
       -0.061192904 -0.026970258 -0.098165736 0.11086975
000250 34 ad f0 3d 73 51 85 bd 50 c6 8e 3d 33 6d 80 3d
       0.11751786 -0.06509676 0.06971419 0.06270828
000260 de 94 ea bc 99 eb b8 bd 6e 17 1b be 58 ea 29 bd
       -0.028635439 -0.09029312 -0.15145656 -0.041483253
000270 ee 67 06 3d 01 19 91 bd 54 62 c2 3c fe 96 90 bc
       0.03281396 -0.07084847 0.023728527 -0.017650124
000280 50 29 88 3d d0 b3 d0 bd 5a e4 0e bd d3 e3 88 3d
       0.06648505 -0.101905465 -0.03488574 0.06684079
000290 9a a0 a3 bd 59 46 72 3d 01 6c 00 3c 5b 66 ec bc
       -0.07989617 0.05914912 0.00783825 -0.0288574
0002a0 d5 42 a6 3d 61 2c 6d bc e1 86 37 3d db e5 29 3c
       0.08118216 -0.014475913 0.044806365 0.010369743
0002b0 09 6f ed 3c 24 ce c9 bd 3b a4 7d 3c 68 a1 81 bc
       0.02898361 -0.09853771 0.01548105 -0.015824035
0002c0 5c 19 f5 bd 5b 3f 28 bd 18 d6 92 3d 3f 5e 66 3d
       -0.119677275 -0.041076045 0.071697414 0.056242224
0002d0 4b 6c 76 3d 33 f7 1f 3d 09 fb 5d 3d 3f 6b 72 3d
       0.06016187 0.039054107 0.054194484 0.05918431
0002e0 3a e2 ba bd 0a 3a 95 3d 1e c1 98 bd 42 8c 82 3d
       -0.091251805 0.07286461 -0.07458709 0.06374408
0002f0 e4 f9 00 be 33 48 95 bd b0 10 12 3d 11 04 9b 3d
       -0.12595326 -0.072891615 0.035660446 0.07569135
000300 5e 35 e6 3d 23 9a 01 3b aa c7 ea 3d 4e e6 d8 3d
       0.11240648 0.001977571 0.11463864 0.10590802
000310 9c 57 8f bd c3 36 89 3d 8b 4b fb bc 0d 23 a4 bd
       -0.06999132 0.06699898 -0.03067567 -0.08014498
000320 6c 89 b7 bd f4 93 d7 3d b4 70 00 3d 6f ce c1 bd
       -0.08961758 0.10526267 0.031357482 -0.09463202
000330 c7 00 13 be 29 db 8c 3d a9 8f c3 bc f5 76 34 bd
       -0.14355765 0.06877739 -0.023872213 -0.04405876
000340 dd b2 5e bd c3 59 79 3d 45 4f 35 bc 5d 56 9a 3d
       -0.054369796 0.06087662 -0.011066263 0.07536004
000350 5f ed 6c 3d 32 ed a4 3d ee 6f a8 bd f1 68 b7 3d
       0.057843562 0.08053054 -0.08224474 0.08955563
000360 37 78 ca bc 06 ab a3 3d d3 d3 9b 3d 04 9b ad 3d
       -0.024715526 0.079916045 0.07608762 0.084768325
000370 90 f7 78 3d bb 0e 6e 3d 46 3c 94 3c ba 64 bb bd
       0.06078297 0.058119517 0.018095147 -0.091500714
000380 d7 6f 0d bd 94 98 ae bd ea b2 f3 3d dd 76 da 3d
       -0.034530487 -0.08525196 0.118993595 0.106672026
000390 c9 59 86 bd 76 c4 be bc 06 31 de 3d ce 82 4f bc
       -0.06560094 -0.02328704 0.10849194 -0.012665464
0003a0 2c 41 95 3d d0 33 a1 bd f0 2e b8 bc ec e1 e1 3d
       0.07287821 -0.078712106 -0.022483319 0.11029419
0003b0 52 8f e1 bd 0f a2 e5 3d 48 61 28 3d 4c 41 e0 3d
       -0.11013664 0.11212551 0.0411084 0.109499544
0003c0 b1 94 b1 3d 8a 08 26 bd 2a f2 0c 3d 58 c6 e8 3c
       0.08670939 -0.040535487 0.034410633 0.02841489
0003d0 2c 8f 9a 3d 4c 28 c3 3d a4 9d ef bd a8 5b de 3d
       0.07546839 0.095291704 -0.116999894 0.10857326
0003e0 a3 70 50 3d 36 43 40 bc e2 2c a0 3c de 69 5e bd
       0.05088867 -0.011734774 0.019552652 -0.05430018
0003f0 77 4f a6 3d 4f 29 c2 bd bc 94 61 bd 21 91 d1 3d
       0.081206255 -0.09480535 -0.055073485 0.10232759

weight f4 [20, 512]
000000 68 55 f0 bb ee cd e0 bc 0b 47 2f 3d b8 3d 2b bd
       -0.0073344 -0.027441945 0.04279236 -0.041806906
000010 e7 ee a0 bc d0 79 dd bb 98 68 c0 bc 10 eb 75 3c
       -0.019645168 -0.006758906 -0.023487374 0.015009657
000020 40 74 95 3a 69 12 28 bd 8f 7d 0f 3d e0 a1 e4 bb
       0.0011402443 -0.041033182 0.03503185 -0.006977305
000030 0a e7 0d bd d7 1a d8 bc 7f 5d 05 bd e6 39 ca 3c
       -0.034644164 -0.026379986 -0.032559868 0.024685811
000040 b1 c8 08 3d 20 a7 46 3b 65 78 02 3d 50 5a 36 bc
       0.03339452 0.0030312017 0.0318531 -0.011129931
000050 70 7b 63 3c 7b 15 17 3d 00 39 08 b9 9c 98 56 3c
       0.01388441 0.03688572 -0.00012991205 0.013097908
000060 54 c8 cb bc 95 5b 17 3d 17 19 dd bc a7 fe 16 3d
       -0.024875797 0.036952574 -0.026989503 0.03686395
000070 00 48 4b 39 02 93 e1 3c 74 35 1d bd 53 be 29 3d
       0.0001938641 0.02753592 -0.038381055 0.041441273
000080 6a 04 92 bc e0 0a 0d bc 1d 21 bd bc 2a 74 33 bd
       -0.01782437 -0.00860855 -0.023087079 -0.043811955
000090 98 f0 34 bc cb ff 11 3d 68 0d 24 bd 38 dc b0 bb
       -0.01104369 0.035644334 -0.040051848 -0.005397346
0000a0 6b 6f 29 3d 29 b7 13 3d 48 94 09 bc c8 f4 2b bd
       0.041366022 0.036063347 -0.008397169 -0.04198149
0000b0 e6 57 eb 3c 8c ed ac bc c8 06 3e 3c 20 e2 bf 3a
       0.028728437 -0.021109365 0.011598296 0.0014639534
0000c0 6e 52 c4 3c dd 43 95 bc 00 90 2b b7 94 67 16 bd
       0.023965087 -0.018220836 -1.0225922e-05 -0.036719874
0000d0 30 f6 2d 3c ac d6 04 bc a3 f8 8f bc 01 13 1f 3d
       0.010617778 -0.008107822 -0.017574614 0.038836483
0000e0 f6 c6 0e bd 28 24 fb bc 96 42 85 bc 18 d8 2a 3c
       -0.034857713 -0.03065689 -0.016267102 0.010427497
0000f0 dc 8d 50 3c b1 db 0f 3d 0e ad 6e bc fa 9d ef 3c
       0.012729134 0.035121623 -0.014567627 0.029250134
000100 c0 a5 91 bc e5 ba 2f 3d 3e 9b cb 3c 6b 02 df bc
       -0.017779231 0.042902846 0.024854299 -0.027222833
000110 22 57 ec 3c e7 26 09 3d 40 b1 4d 3c 34 ab 8c bc
       0.028850142 0.033484366 0.012554467 -0.01717148
000120 31 4b b2 bc 44 b1 09 3c 78 13 07 3c 3c ce ed bc
       -0.02176437 0.00840408 0.008244388 -0.029029004
000130 40 6e 55 bb 1e 6c 90 bc a2 b4 2a bd 1e 4f e3 3c
       -0.0032566935 -0.01762968 -0.04167617 0.027747687
000140 30 89 d2 bb 68 c1 8a 3c 42 34 c8 bc 84 fc 16 3c
       -0.0064250454 0.016937926 -0.024438981 0.009215478
000150 c0 04 25 ba 00 8d ad bc 09 8e 14 3d 90 02 0a bc
       -0.00062949583 -0.021185398 0.036268268 -0.0084234625
000160 33 1e 97 bc 6e 6e b3 bc 20 94 97 3b 40 26 4e bc
       -0.018447017 -0.021903243 0.004625812 -0.012582362
000170 34 c7 19 bd 08 b3 ed bb 04 e3 36 bc 20 4a f5 3b
       -0.03754349 -0.007254008 -0.011162523 0.007485643
000180 b6 ae f1 3c 56 ef c6 3c d4 b3 25 3c 38 32 4b 3c
       0.029502254 0.024284046 0.010113675 0.01240211
000190 2a d5 df 3c 66 55 16 bd 90 37 ca 3b 28 c1 5b 3c
       0.027323324 -0.036702536 0.0061711743 0.013412751
0001a0 10 20 3a bb 94 8b 2f bc 93 b2 2e 3d 20 03 d7 ba
       -0.0028400458 -0.01071443 0.04265077 -0.001640413
0001b0 c1 37 09 bd ce 23 6e bc c6 77 ba 3c d8 eb 23 bd
       -0.033500437 -0.014534904 0.02276219 -0.04001984
0001c0 d3 30 12 3d f5 e2 0f 3d f8 10 0f bd 93 c0 1f 3d
       0.035691094 0.035128552 -0.034928292 0.039002012
0001d0 84 cb 6f 3c c5 58 19 3d 1a 06 d0 3c 80 26 a5 b9
       0.014635924 0.037438173 0.025393534 -0.00031499937
0001e0 f6 fc cd 3c 15 97 2d 3d a0 18 b9 3a de 35 02 bd
       0.025145035 0.04238041 0.0014121719 -0.031789653
0001f0 70 af 7d bb d5 b4 2a 3d 34 2d 88 bc 64 de d1 bc
       -0.0038709305 0.04167636 -0.016623117 -0.02561874
000200 24 05 16 bc 8d 2a 0f 3d 31 39 c9 bc 19 b9 19 3d
       -0.009156499 0.03495269 -0.024563404 0.03753004
000210 42 e3 c8 bc d0 20 d0 bb 00 41 2d b9 b0 81 2d bb
       -0.024522427 -0.006351568 -0.0001652278 -0.0026475005
000220 6b f9 2e 3d 6c e8 cd bc f2 1f eb bc 6f 09 e8 bc
       0.042718332 -0.025135241 -0.028701756 -0.02832481
000230 0d 30 34 3d 70 ee d7 3b f4 63 12 bc 31 60 2c bd
       0.043991137 0.0065897033 -0.0089349635 -0.042083923
000240 30 d3 b9 3b 8e ca bc 3c a3 c0 0c bd 00 d6 59 ba
       0.0056709275 0.023045804 -0.0343634 -0.00083097816
000250 48 51 5a 3c 38 bd 79 3c 31 ee d1 bc d2 61 ca 3c
       0.013325043 0.015242867 -0.025626274 0.024704847
000260 35 fd d7 bc 10 9b 26 bc 00 22 de b8 8a 24 17 bd
       -0.026365856 -0.010168806 -0.00010592118 -0.03690008
000270 86 88 c0 3c fc 79 5d 3c d0 df 51 3c 12 53 ed 3c
       0.0235026 0.013517853 0.012809709 0.028970275
000280 d9 e9 01 3d 36 78 9a 3c 3a 7f 9a 3c 8b 96 2f 3d
       0.031717155 0.01885615 0.018859494 0.04286818
000290 90 aa 37 bc 0d c2 8e bc 60 87 36 3b 32 ec 8b 3c
       -0.011210099 -0.017426515 0.0027851686 0.0170804
0002a0 0c ce 29 bd e2 93 e8 bc fb cf da bc 80 d7 21 3c
       -0.041456267 -0.028390829 -0.026710501 0.009878039
0002b0 d7 cf da bc 00 1a 79 3a eb 3d 01 bd 4b d0 28 bd
       -0.026710434 0.00095024705 -0.03155319 -0.04121427
0002c0 fc f9 88 3c 0f 22 19 bd c4 81 38 bc c5 9f d9 bc
       0.016720764 -0.037385996 -0.011261407 -0.026565442
0002d0 00 4c 71 3c 78 13 f2 bc e4 19 0f bd 50 23 49 3c
       0.0147275925 -0.029550299 -0.0349368 0.012276486
0002e0 86 50 e2 3c 90 18 05 3b db c8 16 3d a0 ae 32 3b
       0.027626287 0.002030883 0.036812644 0.002726473
0002f0 8a 79 1d bd 40 7e 71 bb f0 14 0d bd b0 39 f5 3b
       -0.038445987 -0.0036848933 -0.034443796 0.0074836835
000300 50 0b a6 3b 88 93 a0 bc 34 15 2b bd 0a 63 74 bc
       0.0050672665 -0.019601598 -0.041768268 -0.014916191
000310 61 bf e8 bc b0 4d 42 3b ec 59 7a bc 11 48 c4 bc
       -0.02841157 0.0029648356 -0.015280228 -0.023960145
000320 c6 d8 97 bc 74 4c e6 bc 40 6e b6 3b b0 d9 28 3c
       -0.018535983 -0.028112628 0.005567342 0.010305807
000330 00 65 58 bc b4 3a 11 3c f2 dc 1b bd 2c 2f 3d bc
       -0.013207674 0.008864094 -0.038052507 -0.011546891
000340 d0 d2 95 bb 13 a5 1e bd de b3 be bc 32 56 8e bc
       -0.00457225 -0.038731646 -0.023279127 -0.017375086
000350 79 2c 34 3d 9d 51 1c 3d 62 42 9f 3c c0 02 c6 3a
       0.043987725 0.03816377 0.019440833 0.0015107021
000360 35 ab 0c 3d 7a 4e 06 bd d4 1a e1 bc 3b 52 2b 3d
       0.034342963 -0.032789685 -0.027478613 0.041826468
000370 d3 c4 25 3d c3 97 31 3d 02 f4 1f bd 58 7e 8a 3c
       0.04047091 0.043357622 -0.039051063 0.016905949
000380 4a 16 32 bd 3f 17 1e bd 00 c4 53 3b 7d d0 da bc
       -0.043478288 -0.038596388 0.003231287 -0.026710743
000390 ac 17 0a bc 92 f3 fe 3c d5 b9 8c bc d8 b8 e0 bb
       -0.008428495 0.031122003 -0.017178455 -0.0068579726
0003a0 11 90 0b bd d0 e7 94 bb 7e 3e e8 3c 9e 5b 9e 3c
       -0.03407294 -0.0045442358 0.028350111 0.019330796
0003b0 86 63 8d 3c ab e2 25 bd 54 71 7e bc 61 bb b8 bc
       0.01725937 -0.04049937 -0.015529949 -0.022550287
0003c0 a1 1f 13 3d 25 ca 12 3d b9 cf 1f 3d 0f 88 1c 3d
       0.035918836 0.03583731 0.03901646 0.038215693
0003d0 4c dc 6e 3c de 63 e5 3c 44 23 8d bc 10 29 ff bc
       0.01457889 0.028001722 -0.01722873 -0.03114751
0003e0 22 2c a4 3c cf e1 0d bd 80 6b 87 ba 0c 0e 5c 3c
       0.020040575 -0.034639176 -0.001033172 0.013431083
0003f0 d8 3e 27 bd f4 13 02 3c 7c 5d 72 bc 12 2c ec 3c
       -0.040831417 0.0079393275 -0.014792796 0.028829608

bias f4 [20]
000000 22 a7 af 3c 21 80 e7 bc ba 2a a1 3c d4 3a 8d bb
       0.021442 -0.028259339 0.019673694 -0.0043099914
000010 9f 6e 2d 3b 12 49 ce 3c 10 45 85 3c ae 5f f8 ba
       0.002646364 0.025181327 0.016268283 -0.0018949413
000020 4e 50 8b bb 82 bb 0d bb 2d 9c 0f bd f9 03 9d bc
       -0.0042515164 -0.0021626656 -0.03506105 -0.019166933
000030 57 4d 04 3d e0 b5 09 3c 5b a2 30 bc 03 a0 23 3d
       0.03230032 0.008405179 -0.010780896 0.03994752
000040 bb c5 98 3c 3f 80 44 3b 49 80 97 bb ea 61 2b 3c
       0.018648973 0.0029983667 -0.004623447 0.010460356
