model_full.pth (torch, 94054 bytes, 6 tensors)

weight f4 [64, 20, 3, 3]
000000 86 a8 09 3d 6d 6a 72 bb e1 38 a6 bd 35 aa 21 3b
       0.033607982 -0.0036989704 -0.081163175 0.0024668102
000010 54 0a a1 bd 20 c6 a5 bd f6 d9 a6 bd a7 7e 28 be
       -0.07863298 -0.0809443 -0.081470415 -0.16454564
000020 30 e5 c5 3c 9d 39 f0 bd 43 6f 08 be 95 d3 fa bd
       0.024157137 -0.11729739 -0.13323693 -0.12247387
000030 c7 9c 85 be 4c 27 70 be 78 78 cd bd fd 73 38 be
       -0.26096174 -0.2345249 -0.10032743 -0.18012996
000040 93 7f 11 bd 4b 54 1f 3d 1a 21 43 3c d0 34 0f bd
       -0.035522055 0.038898747 0.0119097475 -0.034962475
000050 5d 0d fa bc 3f e1 a8 3d 61 75 8b 3c 63 f6 4b 3d
       -0.03052395 0.08246087 0.017023744 0.04979552
000060 74 00 d9 3d 26 d1 1c 3d bd 46 c9 3d f0 3b f3 bd
       0.105957896 0.038285397 0.098279454 -0.118766665
000070 24 b3 1c bd 27 3c f8 3d cb 41 0f be d6 8b 78 3b
       -0.03825678 0.12120848 -0.13989942 0.0037925146
000080 b8 cd ab 3c 36 97 f4 bd 69 09 16 3d 00 75 9a ba
       0.020972118 -0.11942904 0.036630068 -0.0011784136
000090 dc ea 14 be 25 94 c2 3b 5c c0 31 3e 51 66 db 3b
       -0.14542717 0.0059380704 0.17358536 0.0066955467
0000a0 bf fe 8f 3e ee c3 71 3e 58 9e e5 3d 2c d7 3a 3e
       0.28124043 0.23609897 0.11211842 0.18246144
0000b0 6b d9 3e 3e 17 6c 1b 3e 85 d5 aa bd 4d d4 b0 bc
       0.18637626 0.15177952 -0.08341507 -0.021585608
0000c0 c1 6d 29 3d be 3d 04 be 37 d7 07 be 59 b4 22 bc
       0.041364435 -0.12914178 -0.13265692 -0.009930694
0000d0 82 f5 2b bd 48 8a 1c be a3 56 8b bd 5e 55 60 3d
       -0.04198218 -0.15287125 -0.06803634 0.054768912
0000e0 ae 30 62 3d d4 1a 8a bd 26 50 6a 3d a6 1b 02 3e
       0.055222206 -0.06743398 0.05720534 0.1270586
0000f0 aa e5 bc bd ce c9 ba 3d 4c 51 26 3e 7d d7 cd 3b
       -0.092234924 0.091205224 0.1624195 0.0062817917
000100 dd 8d 7c 3c 9d 7b 11 be 77 cd 11 bd 52 85 74 3c
       0.015414682 -0.14207311 -0.035596337 0.014924364
000110 80 5c 65 bd b4 da e5 bd b9 7f 5b 3b 50 ea ca 3d
       -0.055996418 -0.11223355 0.0033492877 0.09907973
000120 c2 24 16 be 23 c2 13 bd 41 e8 92 3c d1 0e dc bd
       -0.1466246 -0.036073815 0.017933013 -0.107450135
000130 b9 88 fd bd 49 51 9f bd 13 d2 35 bd ca 01 26 be
       -0.123795934 -0.07779176 -0.044389796 -0.1621162
000140 8c 4b 6c bc 4c 7d 35 3d fc 00 0c 3e bf f6 0b 3e
       -0.014422309 0.044308946 0.1367225 0.13668345
000150 e6 9e 4b 3d e1 d5 4e 3e 5d a5 4a 3d d4 a3 a3 3c
       0.049712084 0.20198776 0.04947411 0.01997558
000160 3f c8 09 3e 3a a4 26 3e b8 5d 65 3d 16 d5 0a 3e
       0.13455294 0.16273585 0.05599758 0.13557848
000170 74 bf 83 bd 84 73 8f 3d f6 c1 2d bd be 96 a2 bd
       -0.06433001 0.07004455 -0.042421304 -0.07938908
000180 3e 13 03 be 6b 56 14 be a9 35 f4 bb f5 9b 7c be
       -0.12800309 -0.14486091 -0.007452686 -0.24668868
000190 7a 67 9b be 67 f9 47 bd 36 ae 3f be 2d fa f7 bd
       -0.30352384 -0.048821833 -0.187188 -0.12108264
0001a0 1b 90 f8 3c 10 45 45 3c 01 7a fc bd dc bc ed 3d
       0.030342152 0.012040392 -0.12327958 0.11608288
0001b0 4e a4 dd bd 4b 32 81 bd a9 e8 9f bc 95 3c 49 3c
       -0.10822354 -0.06308421 -0.01952012 0.01228251
0001c0 7a 7c b1 3b 0d 06 11 bc df 03 fd 3b e4 a2 ad 3d
       0.00541645 -0.00885154 0.0077214087 0.084783345
0001d0 12 e4 03 3e cc b5 14 3e f2 07 cd 3d ad e4 bd bd
       0.1287997 0.14522475 0.10011281 -0.09272132
0001e0 41 c3 71 3d ac 10 25 be 11 a7 6b bd 74 4a 53 bd
       0.0590241 -0.16119641 -0.057532374 -0.051584676
0001f0 56 be 2c bd f2 44 23 bd 65 51 df 3d 49 42 32 3e
       -0.042173706 -0.039860673 0.10904197 0.17408098
000200 04 83 c9 3b 2a a4 72 3d 9a 41 a1 3d 01 e4 9d bd
       0.0061496515 0.05923859 0.07873841 -0.07709504
000210 78 a2 ec bb 3d 80 b4 bc 59 5d 88 bb d5 ba 84 be
       -0.007221516 -0.022033805 -0.0041615185 -0.25923792
000220 52 86 5c bd 8c 45 24 3c 8b 4b 9a bd c0 52 f6 39
       -0.053839035 0.010026347 -0.0753394 0.0004698243
000230 17 41 3a 3e 5c 67 0b 3e 7f 68 56 3c 8b 4f 0d 3e
       0.18188892 0.13613647 0.013086437 0.13799874
000240 98 fe 04 3e 0a a7 1e bc da 13 74 bd 31 ce 11 3e
       0.12987745 -0.00968338 -0.059589244 0.14238812
000250 36 64 47 be ba 12 0f 3d f6 b2 1b 3c 13 93 4d 3c
       -0.19471821 0.03492997 0.009503117 0.012547272
000260 ca 9f 46 bb 19 86 43 bd 13 e1 b6 3d 12 c5 19 3e
       -0.0030307644 -0.047735307 0.08929648 0.15016583
000270 5f ce ab bd bc 65 ae 3d 6c f6 5d bd b2 89 d0 bc
       -0.083889715 0.08515498 -0.054190084 -0.025456283
000280 a8 38 44 bd 28 81 d7 bd 0d 60 dc bc f2 b5 0e 3b
       -0.047905594 -0.105226815 -0.02690127 0.0021775928
000290 1d f1 9b 3c 99 00 fb 3d 0d 53 9c 3d 7b e0 07 bc
       0.01903587 0.12255973 0.07633028 -0.008293266
0002a0 f6 05 6d 3e 06 f5 a0 3d f8 96 b4 bd 8f 3d ec bd
       0.23146805 0.078592345 -0.088178575 -0.11535179
0002b0 1d 48 86 3c 3a 30 58 bd 87 0d ad bc c2 96 96 bd
       0.016391808 -0.052780367 -0.021124614 -0.073529735
0002c0 f3 5b 49 3d 0d 3b 47 bd 16 ba 45 be c2 39 00 bd
       0.049159955 -0.0486403 -0.19309267 -0.031305082
0002d0 8e a6 a0 3d e7 36 55 3d ad cd a2 3c fe d9 87 3d
       0.07844268 0.052054312 0.019873464 0.066333756
0002e0 df 4b a0 3d 47 5b 75 bc d3 4f 1f 3e a6 c4 84 3d
       0.07826971 -0.0149753755 0.15557794 0.0648282
0002f0 90 94 b0 bd fc fa ef 3d e1 64 5a 3c d5 6a 10 3c
       -0.08622086 0.11717793 0.0133297155 0.008814533
000300 bf 58 00 bc 40 bc 02 be c0 9e 6d bd f2 f1 20 3e
       -0.007833659 -0.12767124 -0.058012724 0.15717295
000310 63 2f c7 3b 9f 1e cd 3b 25 f9 5b 3d d3 7c 77 3d
       0.006078647 0.006259754 0.0537044 0.060421776
000320 86 00 39 3e 03 ff be 3d 3f c4 f7 bc 60 c3 8c 3e
       0.18066606 0.093259834 -0.030244945 0.2749281
000330 16 c9 b8 3c 46 66 89 bc da 98 71 3e 21 c7 93 bd
       0.022556823 -0.0167724 0.23593464 -0.07215715
000340 3f fd fc 3d 8d a3 1b 3e e3 0c 04 3d 58 ac f1 3d
       0.1235299 0.15199108 0.032238852 0.1180045
000350 31 b1 9c 3d 99 18 e0 3d 21 81 1c 3e 40 7e 0e 3e
       0.07650984 0.10942192 0.15283634 0.13915348
000360 77 51 e1 bd 96 c6 2a 3d cc d6 09 3e 0f 80 76 bd
       -0.11001866 0.041693293 0.13460845 -0.06018072
000370 95 66 0c 3e 1f ac 98 3d 77 31 92 bd f6 de c6 3d
       0.13711007 0.074547045 -0.07138341 0.09710495
000380 44 82 3d 3d 03 03 75 be f2 e7 f3 be f9 89 b0 be
       0.04626681 -0.2392693 -0.47637898 -0.34480265
000390 3e 10 8b be 9e d4 e7 be 9b 7d 57 be 0b 64 17 be
       -0.2716083 -0.45279402 -0.21044008 -0.14784257
0003a0 3e 53 27 be b1 eb 86 bd d2 f0 98 3d a7 39 0c bc
       -0.16340348 -0.06587923 0.07467808 -0.008558667
0003b0 e9 91 9a 3d 16 e8 48 bd 63 fe b2 bd 32 c8 13 3b
       0.075473614 -0.04904946 -0.08739927 0.0022549746
0003c0 91 26 00 be 82 40 cb bd 57 65 f6 bd 78 1b f8 3d
       -0.12514712 -0.09924413 -0.12031048 0.12114614
0003d0 21 50 b7 3d a6 29 9d 3d ce 10 1f 3e 65 b5 74 bd
       0.0895083 0.076739594 0.15533754 -0.059743304
0003e0 a4 b1 2b bd 31 dd 13 3e 86 b7 a5 3d 07 d4 0f 3d
       -0.04191746 0.14439847 0.08091645 0.035114314
0003f0 9e be 1b be ee d1 fa bd 45 bd 30 bd 81 84 00 3d
       -0.15209433 -0.12247072 -0.04314925 0.031376366

bias f4 [64]
000000 cf bf 47 be f1 f2 be 3d 74 71 e4 3c 37 22 a9 3c
       -0.19506763 0.09323681 0.02788613 0.020646198
000010 d8 d4 a9 3c 92 38 b6 3d 72 c2 e9 bd 6e 15 07 3e
       0.020731375 0.08897509 -0.114140406 0.13191769
000020 a1 ca 65 3d e9 15 83 3c de 7c f2 bd af ed 2c be
       0.056101445 0.016001659 -0.11840223 -0.16887544
000030 f8 42 98 3d 99 85 9f 3c c2 a5 8c bd 09 93 7b 3c
       0.07434648 0.019472884 -0.06867553 0.01535488
000040 a1 0a 0e bc c5 08 b2 bd 43 94 04 3e e2 f5 85 3d
       -0.008669526 -0.08693079 0.12947182 0.06541039
000050 9c 49 4c be d5 b4 67 bd 0e 80 b4 bd c9 e0 9e bd
       -0.19949955 -0.05656894 -0.08813487 -0.07757718
000060 fb ef c3 bd 47 94 50 3d aa fa 45 be 16 c3 89 3c
       -0.09567257 0.05092266 -0.19333902 0.016816657
000070 be 57 e4 bc c9 cc 47 3d 45 18 25 3d 81 a8 93 bd
       -0.02787387 0.048779283 0.04030635 -0.07209874
000080 0f f0 07 be b9 d6 97 3d da 7e 9b 3d ed 55 11 be
       -0.13275169 0.07414002 0.075925544 -0.14192934
000090 8c ba 80 bc cd 87 94 bd 95 d3 0f bd 72 2a 50 bc
       -0.015713952 -0.072524644 -0.03511389 -0.012705432
0000a0 1e 41 73 3d 30 80 22 3e 0f bb bb 3d e7 4d 2f 3d
       0.059388272 0.15869212 0.09166538 0.042798903
0000b0 98 3b 59 bc d9 a2 a0 bd b8 a3 fc 3d c2 d6 6e bc
       -0.013258837 -0.07843561 0.123359144 -0.014577569
0000c0 1d d9 9f 3d c6 96 97 3d a9 6c 0d be 1d d1 44 bc
       0.07805083 0.074018046 -0.13810982 -0.012012747
0000d0 73 52 00 3e 99 b7 d7 3d 1a ce 16 3e f5 06 51 bd
       0.12531452 0.10533065 0.14727059 -0.051032025
0000e0 1d 12 a1 be a6 52 f8 bd 87 a8 19 bd f3 81 9b bd
       -0.31459132 -0.12125139 -0.037514236 -0.07593145
0000f0 99 d9 e0 3b 5c 55 42 be de b8 a0 bc b5 83 65 bb
       0.006861877 -0.18977875 -0.019619402 -0.003502113

weight f4 [128, 64]
000000 92 60 2f bd 07 82 87 bd bd d2 e8 3d 7b 3b b2 3d
       -0.042816706 -0.066165976 0.1136832 0.08702751
000010 62 38 64 be ed 36 8c bd e9 1b a7 bd 97 31 f7 bc
       -0.22287133 -0.06846414 -0.0815962 -0.030175013
000020 d2 35 34 be a0 47 16 be a5 66 38 bc 59 d4 ff bd
       -0.17598656 -0.1467576 -0.011254941 -0.12491674
000030 7a f6 91 3c b4 f8 05 be 5a 0e d9 bb fe 82 ff bd
       0.017817724 -0.13083154 -0.0066240253 -0.12476157
000040 c9 d9 a0 bd 72 5b ce bd 29 69 0f bc 8f a0 7d 3d
       -0.07854039 -0.100760356 -0.0087530995 0.0619207
000050 50 1e 4f be a3 e7 ad bd 9b d6 4f bd 7e 4f db bd
       -0.20226407 -0.08491447 -0.050741773 -0.10708521
000060 9c 6d 51 bd 16 c7 43 bd 64 43 25 3e 4a 94 96 3d
       -0.051129922 -0.047797285 0.16138989 0.07352503
000070 9a e1 03 be f2 29 d0 3d b2 d4 4e 3c c8 ba ec 3c
       -0.12879029 0.101642504 0.012623953 0.028897658
000080 93 29 dd bd 0b 5e 86 bd e5 30 e7 bc 27 84 70 bc
       -0.10798945 -0.06560906 -0.028221557 -0.014679945
000090 28 e1 62 be 60 41 48 be 3f ca ba bd bc 65 db 3b
       -0.22156203 -0.19556189 -0.09120607 0.0066954773
0000a0 d1 cb 37 3c 2a c9 c9 bd 81 0c b2 bc f1 c2 a4 bd
       0.011218027 -0.09852822 -0.021734478 -0.080449946
0000b0 f9 ac 9d 3b 15 cf f8 bd 00 84 46 be 0a 64 f3 bd
       0.0048118797 -0.12148873 -0.19386292 -0.11884315
0000c0 11 70 48 bc 25 99 d5 bb 92 69 f4 bd b5 eb 4d be
       -0.01223375 -0.0065185004 -0.119341984 -0.20109446
0000d0 0a 91 03 3e da 58 a9 bc af 92 29 bd c2 5f 54 be
       0.12848297 -0.02067225 -0.041399654 -0.20739654
0000e0 d7 60 4a 3e 2d 28 bf bc c3 47 aa be 12 28 d0 bd
       0.19763504 -0.023334587 -0.33257875 -0.10163893
0000f0 59 35 26 be 20 3d f6 3d c8 36 91 3d 2f 90 f5 bd
       -0.16231288 0.120233774 0.07090527 -0.119903915
000100 6c 91 aa 3d 78 54 fa be dd 0c 02 be 6a 72 8e be
       0.08328518 -0.4889257 -0.1270022 -0.27821666
000110 74 b6 97 be f6 59 4d bd a5 f6 25 3e e1 50 8b be
       -0.29631388 -0.05013462 0.16207369 -0.27210143
000120 fc 06 66 3d 7b 5b 56 be 87 c4 0c 3d 21 71 17 be
       0.056159005 -0.20933335 0.03436711 -0.14789249
000130 1b 63 29 be e4 85 8d 3e be 0a 24 3e b7 23 0e bf
       -0.16541712 0.27641213 0.16019723 -0.55523247
000140 57 ba 14 ba 9f 06 f0 be f7 57 51 3d 7a d5 07 be
       -0.0005673519 -0.46880051 0.05110928 -0.13265029
000150 6d 19 d7 3c 82 63 23 be 15 94 3f bd 87 b3 b1 3e
       0.026257241 -0.15955928 -0.04677208 0.3470728
000160 aa a6 80 3d 2b 0f de 3d 3d 6b 04 3c 80 78 9e bc
       0.06281789 0.10842737 0.008082208 -0.019344568
000170 59 3c 6d 3d 96 91 ba bd ea 98 b8 bd 69 92 f6 bd
       0.05791888 -0.091097996 -0.09013541 -0.12039644
000180 b7 cd 35 be bd 8d 3e bd 16 bd 18 be 60 9a 8a 3d
       -0.17754255 -0.04652189 -0.1491588 0.06767726
000190 0e 43 ca bd f8 d6 13 3e ca 98 3e 3d 21 43 6a be
       -0.09876071 0.14437473 0.04653243 -0.2287717
0001a0 b5 6d 42 3d 3f d3 d8 bd d2 7f 54 3d 5b 35 82 be
       0.047467906 -0.10587167 0.05187971 -0.25431332
0001b0 7f 24 66 be 32 b9 66 be 64 8d 99 bd 99 77 6b be
       -0.2247486 -0.22531584 -0.07497671 -0.22994842
0001c0 0a 70 61 be 57 28 ad bd da 26 ee bd 78 cc 93 bd
       -0.22015396 -0.0845496 -0.11628504 -0.07216734
0001d0 ba 69 82 3d b1 70 e8 bd 39 3e 9a be 71 8e c1 3d
       0.06367822 -0.11349619 -0.30125597 0.09450997
0001e0 fc 29 80 3c f9 2e 87 3d 89 44 29 be aa 2a c6 3d
       0.01564502 0.06600756 -0.1653005 0.09676106
0001f0 dd 9b d8 be 9d 20 8d be 59 c2 4c be d5 15 03 3e
       -0.42306414 -0.27563944 -0.19996013 0.12801297
000200 bb 2a b0 3c 75 ef 86 3c 2c ef d8 bd 30 d3 da bd
       0.02150475 0.016471604 -0.105924934 -0.10684812
000210 54 9b a5 bd 69 70 67 3d fd 90 dc bd ea 0c cf bd
       -0.08086267 0.056503687 -0.10769842 -0.10109885
000220 9c 25 2b be be 5b 1d be 37 23 f0 3d ee 95 14 3c
       -0.16713566 -0.15367028 0.11725467 0.009068949
000230 2b 01 44 3d 32 3a 6b bd e1 d3 75 3d 3b fd 16 bd
       0.047852676 -0.057428546 0.060016517 -0.036862593
000240 91 8b 93 be 54 63 a1 bb 14 1b 84 be 68 b5 50 be
       -0.28817418 -0.004925171 -0.2580191 -0.20381701
000250 7b 39 2b be 29 4f 05 be a5 33 7a be 35 45 b3 3d
       -0.16721146 -0.13018478 -0.24433763 0.087534346
000260 e0 d3 1e be 3e 9b e5 bc 0b 00 a2 bd 29 fa 9a bd
       -0.15510511 -0.028028127 -0.079101644 -0.075672455
000270 15 55 46 bc 36 5d 15 bd 07 05 91 3d 32 c2 ac bd
       -0.012105246 -0.036465846 0.07081037 -0.08435477
000280 67 f7 47 bc a6 2a 42 be 8a f4 98 3d f8 a9 aa bd
       -0.012204981 -0.18961582 0.07468517 -0.083332
000290 1e c5 56 be 2b 00 74 bd f8 16 78 be 84 b9 1a be
       -0.20973632 -0.059570473 -0.24227512 -0.15109831
0002a0 6b 81 d7 bd 07 a9 30 be 10 e7 f4 bd 70 7d 87 be
       -0.105227314 -0.17251979 -0.11958134 -0.2646289
0002b0 88 9e c2 bd b6 1c 46 bd 28 95 42 3d 8c 6b 48 be
       -0.09502894 -0.048367225 0.047505528 -0.19572276
0002c0 c8 cb 17 be 40 5b 40 3d d1 94 5a bd 51 8a af bd
       -0.1482383 0.046962023 -0.05336458 -0.08571304
0002d0 1a ed 06 bc b9 4e b1 bd bb 49 08 bd 85 82 09 be
       -0.00823524 -0.08657593 -0.03327344 -0.13428695
0002e0 b5 23 a0 3d c6 4b 6d bd a5 da 2a bd fe 7c 2e 3c
       0.078193106 -0.05793359 -0.041712422 0.010649918
0002f0 9d 48 52 bd d7 58 f3 bd 20 0d 19 bd 61 4c de 3b
       -0.05133878 -0.11882179 -0.037366033 0.0067840074
000300 1f 51 14 bd 88 ad 78 be 26 71 ff bc 04 e5 dd 3d
       -0.036210176 -0.24284947 -0.031181883 0.10834697
000310 05 1f 0a be f8 09 f2 3d 78 6f 7a be c1 c1 fa 3c
       -0.13488396 0.11818308 -0.24456584 0.030609967
000320 97 51 f3 bd 5f f6 cf bc 7d b1 f5 3c 9c ca 56 bc
       -0.118807964 -0.025386034 0.02999186 -0.013109829
000330 bc 0c 30 be ae eb 33 be b8 2b 09 bc c8 b5 1c 3e
       -0.17192358 -0.17570373 -0.00837224 0.15303719
000340 b5 74 51 be 93 fe 53 3d 3b 61 ec bb 4e a4 e6 bd
       -0.20454676 0.051756453 -0.007213739 -0.112618074
000350 ea d3 65 bd 79 62 c4 3d 8f 9b cc bd 4e 6d e4 3d
       -0.0561103 0.09589095 -0.09990608 0.11153661
000360 24 92 61 3c f6 6b 03 be 6b 27 ba bc 94 3f a6 bd
       0.013767753 -0.12834153 -0.022723874 -0.08117595
000370 c6 04 cf 3d 40 c8 30 be 35 1d 0c be 30 de 44 3e
       0.10108332 -0.1726389 -0.13683017 0.19225383
000380 9f 71 ba 3c 72 c0 c4 bd ed 0d 26 3e 27 b3 81 bd
       0.022759257 -0.096070185 0.1621625 -0.06332999
000390 36 ae 47 be 7d 35 00 be 3d 58 03 be a5 fe 11 bd
       -0.1950005 -0.12520404 -0.12826629 -0.03564324
0003a0 57 79 74 3d 50 4a af 3c 9e 20 bb 3d 2c e3 ba 3d
       0.05968603 0.02139774 0.091370806 0.09125361
0003b0 bb 1b a1 be 37 34 0e bd 5d 83 57 3d 78 ad 74 be
       -0.3146647 -0.034717765 0.052615512 -0.23894298
0003c0 8b 13 90 be bc 6a 4e 3e e4 dc 34 bd 27 0a b3 3d
       -0.2813991 0.20157903 -0.04415597 0.08742171
0003d0 93 14 2f 3d 28 54 85 bd 98 4a c6 3e d0 10 2b bc
       0.04274423 -0.06510192 0.38728786 -0.01044102
0003e0 96 e4 96 3a a9 a8 1c be b2 56 31 3e 40 78 88 bb
       0.0011512216 -0.15298714 0.17318228 -0.0041647255
0003f0 1a 5d c8 3d 98 f6 37 bd 3d 02 8d be d9 1c d2 3c
       0.09783383 -0.044912905 -0.2754077 0.025648521

bias f4 [128]
000000 11 9c ce bd 31 b2 00 be 71 57 04 3b e4 af 85 3d
       -0.10088361 -0.12567975 0.002019372 0.06527689
000010 39 13 cf bd 23 c0 59 be d4 11 34 bd 88 da 73 3d
       -0.10111088 -0.212647 -0.043962315 0.05953458
000020 e7 41 ca b8 e2 a9 00 be af e2 03 be 33 fa de 3c
       -9.644386e-05 -0.12564805 -0.12879442 0.027218914
000030 07 43 3e be 9f bb 65 bd 6f 91 89 be 6f 0a 60 3d
       -0.18580256 -0.056087133 -0.2686877 0.05469745
000040 fe 6b 88 bd 19 13 5b 3d 2a 81 42 3e 69 57 82 bd
       -0.06661223 0.05348501 0.18994585 -0.063643284
000050 8e 8c 98 bd 1b 12 cb bd af a9 ec bd 5c 2c 50 3d
       -0.07448684 -0.09915563 -0.11555802 0.050823554
000060 c3 0a 92 bd 26 c7 a7 be ae b9 43 be 5a 75 05 be
       -0.07130959 -0.32769126 -0.191138 -0.13033047
000070 53 ba bd be 7c ea 84 be 5c 23 2f be e5 8d c9 3d
       -0.37056217 -0.25960147 -0.17103332 0.09841517
000080 dc 91 b3 bc e4 fb e5 3c 60 a8 13 be ca cc 11 be
       -0.021920137 0.028074212 -0.14419699 -0.14238277
000090 93 43 b7 bd aa 68 ac bc 6f d8 69 bd 25 ab 1e 3e
       -0.08948436 -0.021046001 -0.057091173 0.15494974
0000a0 ba 74 13 be 7b 19 49 be 9f e7 f6 bd 63 83 c8 bd
       -0.14399996 -0.19638626 -0.12055897 -0.09790685
0000b0 88 cc 64 bd 49 e6 01 be 48 ca 29 be c1 27 1b be
       -0.05585912 -0.12685503 -0.1658107 -0.15151884
0000c0 c6 f1 02 bd aa d4 38 bd 8b ca 66 3e 65 64 4f be
       -0.031968854 -0.045124687 0.22538202 -0.20253141
0000d0 76 56 85 3d 2a 6d c2 3b 61 a7 3c 3e 9f 00 78 3d
       0.06510632 0.0059334235 0.18423225 0.060547467
0000e0 a6 90 99 bd 9d ce ff bd 40 5c 1d be c4 b6 49 3e
       -0.074982926 -0.1249058 -0.15367222 0.19698626
0000f0 0b e5 0d bd c7 86 32 bd db 4a 99 be eb 11 8d 3c
       -0.03464226 -0.043585565 -0.29939923 0.017220458
000100 c1 0b 23 3e 8c 5f 1c bd 25 03 29 3e fe 99 b9 3b
       0.15922453 -0.038177058 0.16505106 0.0056641093
000110 b8 1d 98 3d 82 b5 71 bd cc 48 57 bd 80 38 92 bd
       0.074275434 -0.05901099 -0.05255966 -0.07139683
000120 20 84 46 be f0 01 79 3c f2 ed 49 be 3d 75 27 3d
       -0.19386339 0.015198216 -0.19719675 0.04088329
000130 09 b2 e0 bd b5 e1 92 bb 1d f9 9a 3d f7 32 02 bd
       -0.109714575 -0.004482473 0.07567046 -0.031786885
000140 08 7e 97 38 12 be 94 3c 17 6f 36 be 65 04 9d 3d
       7.223716e-05 0.018157039 -0.17815815 0.07666854
000150 16 d3 55 bd c5 0d 20 be 33 d3 17 be e8 4c fc 3c
       -0.05220326 -0.15630253 -0.1482666 0.03079839
000160 eb 55 df bd 8f dc 3f be 80 ef 89 be 1b 70 85 3c
       -0.109050594 -0.1873648 -0.26940536 0.016288808
000170 55 c5 9a bd 5b cf 09 be bf 98 41 be d7 08 c1 bb
       -0.07557169 -0.13458006 -0.18905924 -0.0058909464
000180 6c 3a 15 3e 1f c0 9d bd 8a 7e ec bc 54 36 df 3d
       0.14573067 -0.0770266 -0.028868932 0.10899034
000190 53 c1 48 be c2 d0 2e 3e c2 35 ff bb c8 e4 98 3d
       -0.19604997 0.17071822 -0.007788391 0.074655116
0001a0 ee 32 1f 3e 30 f9 f7 bd 4f c6 d3 3d 55 f9 8b 3b
       0.15546772 -0.121080756 0.10340559 0.004271666
0001b0 2d 16 76 3d 6b 16 d8 bd b5 29 73 be 10 c6 32 be
       0.060079742 -0.10551151 -0.23746379 -0.17458367
0001c0 40 5b 3d 3d 7f f1 20 3e e4 83 c0 bc 64 2e 33 be
       0.0462296 0.15717123 -0.02350039 -0.17498165
0001d0 d2 2e 83 be f8 f1 fd 3d ba 79 e6 bd 7d 4b 2a bd
       -0.2562166 0.123996675 -0.11253686 -0.041575897
0001e0 ee f4 57 bd 99 68 06 bd 60 50 62 3a 3c 51 37 bc
       -0.052723818 -0.032814596 0.00086331926 -0.011188801
0001f0 fb 12 97 bd 6d 1d 0a bd e0 50 e9 3d 20 4e ea 3d
       -0.07376667 -0.03371947 0.11392379 0.114406824

weight f4 [20, 128]
000000 c5 02 23 bd 60 c3 53 3b f4 9b 43 bd c6 e6 37 3d
       -0.039797563 0.0032312497 -0.04775615 0.044897817
000010 e4 6a 96 bc 58 cf 10 bc e0 b8 06 3c bb 58 81 3d
       -0.018361516 -0.008838497 0.008222789 0.06315752
000020 cc c8 8f bd f0 64 05 bc 65 ef a6 bd a4 6d a9 bc
       -0.07020721 -0.008141741 -0.0815113 -0.020682164
000030 30 cd d7 bc 8f 4e ac bd b7 b2 86 3d 65 d9 82 bd
       -0.026342958 -0.08413421 0.06577056 -0.06389121
000040 a6 ab a3 bd 4b cd 81 3d 7d 4e 11 bd fc dc 43 bd
       -0.07991724 0.06337985 -0.035475243 -0.04781817
000050 70 20 f8 bb 0a fa 78 3d b9 cb 89 bd d2 9e 38 3d
       -0.007572226 0.06078533 -0.0672831 0.045073338
000060 04 58 d1 bc a5 63 68 bd e6 f5 04 bd 40 68 89 bb
       -0.025554664 -0.056735653 -0.03246107 -0.004193336
000070 2f 26 26 bd 0a e6 d5 bc c3 49 41 bd cb b1 95 3d
       -0.04056376 -0.026110668 -0.047189485 0.07309302
000080 52 11 f4 bc 9b d1 b0 bd da f9 1b 3d b8 9e 51 3c
       -0.029793415 -0.08633729 0.038080074 0.012794189
000090 10 4e 73 3c 50 c8 8a 3b 89 ea a4 3d 72 c3 3d 3d
       0.0148501545 0.004235305 0.080525465 0.04632897
0000a0 6e 78 2a 3d 1d 06 81 3d 96 97 82 bd 10 bf 8d 3c
       0.041618757 0.06299994 -0.06376569 0.01730302
0000b0 ed 16 89 3d 60 c6 d1 bb b0 c7 36 bd 28 7d 7c bc
       0.06693826 -0.006401822 -0.04462403 -0.015410699
0000c0 ea e1 40 3d 2e 68 3a 3d 23 75 a8 3d ec 53 a0 bd
       0.04709045 0.04550951 0.08225467 -0.07828507
0000d0 52 99 0f 3d 70 cb 39 3c a4 49 99 bd b2 40 03 bd
       0.035058327 0.011340007 -0.07484749 -0.03204412
0000e0 b0 34 9a bc 88 40 07 bd b1 ed 93 3d c6 93 42 3d
       -0.018823951 -0.033020526 0.072230704 0.04750421
0000f0 ac a6 94 bc 5e fb 59 3d 30 5f 1d bc 00 63 21 bb
       -0.018145882 0.053218238 -0.009605214 -0.002462566
000100 d4 39 8c 3c 50 2c 40 bd 2f 10 42 bd f0 37 d5 3b
       0.017117418 -0.04691726 -0.047378715 0.0065069124
000110 50 92 63 bc 73 bf b2 3d bd 0c 8b bd ca f3 4d 3d
       -0.013889864 0.08727922 -0.06789539 0.050281323
000120 20 b5 70 bc 0b 5a 93 3d 6c 15 88 bc 32 a7 b0 bd
       -0.014691621 0.07194909 -0.016611777 -0.0862564
000130 c1 9e 3c bd d0 85 56 bd 00 47 c4 bc 5a 23 a9 bd
       -0.046049837 -0.052373707 -0.023959637 -0.08258696
000140 de 2a 67 3d 5f ce 8a 3d f0 79 a6 bc bc 7a 36 bd
       0.056437366 0.067776434 -0.020321816 -0.044550642
000150 ca 75 6f 3d e0 c7 22 3c e0 24 10 bd 7c 33 35 bd
       0.05846194 0.009935349 -0.035191417 -0.044238552
000160 45 ca ad bd 08 79 47 bd c0 0b c1 3a 76 91 8e bd
       -0.084858455 -0.04869941 0.0014728233 -0.06961338
000170 02 b0 93 bd 70 c2 94 bd 34 e4 98 bd 80 f4 51 bd
       -0.07211305 -0.072636485 -0.07465401 -0.051258564
000180 20 ea c8 3b a9 69 3b bd f4 34 bf bc 38 db 77 bc
       0.0061314255 -0.045755062 -0.02334068 -0.015127949
000190 3b 61 9a bd 12 24 6a bd 04 3a cc bc de 70 f5 bc
       -0.075380765 -0.057163306 -0.024930008 -0.029961046
0001a0 f2 e1 6c 3d 94 fa ac 3c 8c 0d 94 3c 6b 34 45 bd
       0.057832666 0.021115579 0.018072866 -0.048145693
0001b0 78 be a0 bc 52 f4 86 bd 92 c2 4c 3d 4b ab 59 bd
       -0.019622073 -0.06589569 0.049990244 -0.053141873
0001c0 90 14 f1 bb eb 85 68 bd cb f4 8e 3d 22 33 db bc
       -0.0073571876 -0.05676834 0.06980284 -0.02675778
0001d0 80 80 b2 bd 28 a8 3d bc c0 94 e2 bb db e3 2e bd
       -0.08715916 -0.011575736 -0.006914705 -0.04269777
0001e0 67 76 9b 3d d9 c6 23 bd 8c cf 52 bd 9a a8 5e 3d
       0.07590943 -0.039984558 -0.051467463 0.05436001
0001f0 56 80 72 3d a0 12 1d bb b7 21 87 3d 6c b6 bb 3c
       0.059204422 -0.00239674 0.065982275 0.022914134
000200 de 74 d5 3d d9 00 4e bb 14 ca 82 3b 95 43 1d 3e
       0.10422681 -0.003143361 0.0039913747 0.15357812
000210 a5 c1 c5 3d 48 cf cc 3d 7c f2 9e 3d 96 92 ed 3c
       0.096560754 0.10000473 0.07761094 0.029000562
000220 1d ab 3b 3d 85 11 20 bd bb ea 4c bc 23 10 4f 3d
       0.045817483 -0.039079208 -0.012507136 0.0505525
000230 4f a7 58 3d d6 2c c8 3d d5 4a ec bc 7a c1 20 3d
       0.052893933 0.09774177 -0.028844276 0.039247014
000240 f8 d0 1d 3e 41 0d f9 3c 67 3c ce 3d 78 de 21 3e
       0.15411747 0.030401828 0.100701146 0.15807521
000250 13 75 b1 3d 8a 05 cd 3d 95 4c a2 3d 89 7f 6d 3e
       0.08664908 0.10010822 0.07924763 0.23193182
000260 79 56 dd 3b d7 c6 70 bd 60 1d 6b bd 49 c8 74 bd
       0.006754693 -0.05878338 -0.05740106 -0.05976132
000270 9c c6 1f 3a c3 43 82 bd 8d 96 69 3e b9 95 9b 3b
       0.0006094964 -0.06360581 0.22811337 0.004748073
000280 8c 8d f2 3d cf d8 8d 3d 73 6e bc 3d 1f 02 83 bd
       0.11843404 0.069261186 0.09200754 -0.06396889
000290 e5 32 11 bc 39 9c 97 3d 34 58 a6 3d 2a 8a c4 3d
       -0.008862232 0.07402844 0.08122292 0.09596665
0002a0 75 ca b6 3d 95 bf 8d 3e 2f 63 32 3d d4 05 af 3d
       0.08925334 0.27685228 0.04355162 0.085460335
0002b0 2e db e1 3c 7f 57 00 be cf 28 8f bd 9c 2a 01 3e
       0.027570333 -0.12533377 -0.069902055 0.1261391
0002c0 0c cd 59 3d ee 80 81 3d 1e 00 e1 3d 05 81 c4 3d
       0.053174064 0.063234195 0.109863505 0.09594921
0002d0 a1 33 5d bc bc 17 e0 3d 9a af c2 3d 67 91 f1 3c
       -0.013501079 0.10942027 0.095061496 0.029488279
0002e0 84 8f c2 3d 3e 4b 51 3e 09 ca 68 3d 84 4c fb 3d
       0.0950003 0.20438859 0.0568333 0.122704536
0002f0 fe 55 5f 3d de 2c b4 3d 97 0f 46 bc 73 81 37 3d
       0.054525368 0.0879762 -0.012088678 0.044801187
000300 7a d9 af 3c 90 b0 a4 3c e3 86 c3 3d f4 38 ef bd
       0.021466006 0.020103723 0.09547212 -0.11680785
000310 ab be 41 3e e9 cf 5b 3e 99 d0 59 bd ba 16 0f 3d
       0.1892039 0.2146603 -0.05317745 0.034933783
000320 d7 97 8c 3d 54 7e d0 3d 26 ab 1c 3d be 02 8a 3d
       0.06864899 0.10180345 0.038249157 0.06738804
000330 30 14 53 be cb 93 94 3d e6 99 56 3d 32 c9 53 3b
       -0.2061317 0.07254752 0.052392863 0.0032315967
000340 39 89 3b bd f0 5b 35 3d 3a 0d 09 3c 58 aa 51 3e
       -0.045785163 0.04427713 0.00836497 0.20475137
000350 90 55 fc 3c c3 d2 3d bd 0a 7f 1a 3d 38 bf 99 bc
       0.030802518 -0.046343576 0.03771881 -0.018767938
000360 ca 02 21 be 23 fc 95 3d f3 16 67 bc 6a 86 20 3e
       -0.1572372 0.07323482 -0.014104593 0.15676275
000370 e6 ef 11 be df 7c 5d bc 76 d5 6f 3d dc 35 11 3e
       -0.1425167 -0.013518541 0.05855318 0.14180702
000380 a4 34 70 bd 4b 9a 16 3e e0 48 49 3e 04 6e 13 3c
       -0.058643952 0.14707296 0.19656706 0.008998398
000390 31 16 45 bb 19 30 08 3e 66 fb 01 3e 5a 71 9e bd
       -0.0030073042 0.13299598 0.12693557 -0.07736464
0003a0 fb d0 67 3e 73 68 f1 3d 17 90 bb 3c fe db 86 3d
       0.22638313 0.117875 0.022895856 0.06584929
0003b0 fc b4 1d 3d ea 61 1d 3d c2 cb e6 bb 54 fe a2 3d
       0.03850268 0.038423456 -0.007043333 0.079586655
0003c0 74 38 d0 3d b3 d8 dd 3d aa 01 a5 3d f6 39 1f 3b
       0.101670176 0.10832348 0.08056958 0.0024296022
0003d0 a0 90 cb bc aa 36 e2 bc 0e f3 8a 3d 27 f6 07 3e
       -0.024849236 -0.027613956 0.0678464 0.13277493
0003e0 49 95 4b 3d 36 df d9 bc 2b 3e 06 3e 20 28 8a 3d
       0.049702916 -0.026595693 0.13109653 0.067459345
0003f0 56 75 91 3d 90 f6 c2 3d ea 65 f3 3c f1 c1 b8 3d
       0.07102458 0.09519684 0.029711682 0.090213664

bias f4 [20]
000000 ae d3 32 3d bd 40 af bc dc f9 05 3c 2a 86 20 3c
       0.043658905 -0.021393174 0.008177247 0.009797612
000010 aa 87 09 3d 34 ce da 3b fe 82 09 bb 47 8c 2c bb
       0.033576645 0.0066774134 -0.0020982618 -0.002632873
000020 d0 07 39 bc 95 f2 b1 bb e5 30 78 3c 39 99 3d 3d
       -0.011293367 -0.0054305294 0.015148376 0.046288703
000030 5e 1a 77 bd fa dc ef 3c bc 08 00 3d ce 0e 2d bd
       -0.06032788 0.029280175 0.03125833 -0.042250447
000040 01 b5 d9 ba 8d 67 85 ba 8d 6b 84 bd 7b 90 b6 3c
       -0.001660973 -0.0010177955 -0.06465826 0.02228569
