model_full_2.pth (torch, 293626 bytes, 6 tensors)

weight f4 [80, 25, 3, 3]
0	0x3c56528b	0.013081203
1	0x3cd18734	0.025577165
2	0x3d58db67	0.052943613
3	0xbcfdc6a2	-0.030978505
4	0xbd96803c	-0.073486775
5	0xbda99461	-0.08280254
6	0x3d401279	0.046892617
7	0x3d2cbc19	0.04217157
8	0xbbe5b05a	-0.007009548
9	0x3d37ca87	0.04487088
10	0x3d863186	0.065524146
11	0x3c1bf572	0.009518968
12	0xbc79d95b	-0.0152495755
13	0xbd577c7c	-0.052608952
14	0xbceebd6e	-0.029143061
15	0xbd2d4f21	-0.04231179
16	0xbd9471c8	-0.072482646
17	0xbb8f9915	-0.0043822625
18	0x3c804373	0.015657162
19	0xbd81a215	-0.06329743
20	0xbd8216dd	-0.06352017
21	0xbcd92b67	-0.026509954
22	0x3cb357d3	0.021892464
23	0xbc028696	-0.007966658
24	0xbd248e65	-0.04017486
25	0x3d4fe0c8	0.050751477
26	0x3d2a5feb	0.04159538
27	0x3d099ae8	0.033594996
28	0x3c300672	0.010743724
29	0x3d85f1de	0.06540273
30	0x3d4bee89	0.04978803
31	0xbd1ebb67	-0.03875294
32	0xbd9bed7b	-0.07613655
33	0xbcc0c85c	-0.023533039
34	0x3cf20172	0.029541705
35	0xbdaa8854	-0.08326784
36	0x3b160640	0.002289191
37	0x3c5be187	0.013420469
38	0x3d8dc54c	0.06922397
39	0xbd1d13de	-0.038349025
40	0xbd23fc18	-0.040035337
41	0xbd1de3f7	-0.038547482
42	0xbbcaf791	-0.006194063
43	0x3c80cbf1	0.015722247
44	0xbd01fb49	-0.031733785
45	0x3d05dc52	0.032680817
46	0xbcbce6e8	-0.023059323
47	0x3da93c49	0.082634516
48	0xbc84cd3e	-0.016211148
49	0x3d39661a	0.045263387
50	0xbc8b3da5	-0.016997168
51	0xbd9604d6	-0.07325141
52	0xbc5f5506	-0.013631111
53	0x3cb3fc49	0.021970885
54	0x3d4705ce	0.04858952
55	0x3d0595a0	0.032613397
56	0xbd0cfe5f	-0.034422275
57	0x3d78edea	0.060773768
58	0xbca81901	-0.020519735
59	0x3d34c589	0.044133697
60	0x3d128da9	0.03577963
61	0x3dbba67c	0.09162614
62	0x3d386120	0.0450145
63	0x3d1f5f39	0.03890917
64	0xbc78e0cc	-0.0151903145
65	0x3bc52894	0.0060168
66	0xbd1b15ed	-0.037862707
67	0x3d2d2e31	0.04228038
68	0xbd4266ff	-0.047461506
69	0x3d5a063b	0.053228598
70	0xbd8538e7	-0.06504994
71	0xbd8ae309	-0.06781585
72	0xbbe6e496	-0.0070462925
73	0xbd2f40a1	-0.042786244
74	0xbbef9fa0	-0.00731273
75	0xbd1df776	-0.038566075
76	0xbdd1e146	-0.102480456
77	0xbd9abd30	-0.07555616
78	0xbc94c1ae	-0.01815876
79	0xbd1135d5	-0.03545173
80	0x3b6c54d5	0.0036061306
81	0xbc08484d	-0.008318019
82	0xbd1fae62	-0.038984664
83	0x3d15c31c	0.036563024
84	0x3d2f1eec	0.0427541
85	0x3da7e462	0.081978574
86	0x3c456bd1	0.012049631
87	0xbccd83b2	-0.025087211
88	0xbc38c26d	-0.0112768235
89	0x3cf29850	0.029613644
90	0x3d0c9aeb	0.03432743
91	0xbd36dc24	-0.044643536
92	0x3cc79546	0.024363171
93	0x3c9ba7ce	0.019000914
94	0xbd1c1103	-0.03810216
95	0x3da6d128	0.08145362
96	0xbd75f3a3	-0.060046803
97	0xbdb72716	-0.08943002
98	0x3cd437cd	0.025905514
99	0xbc84fa53	-0.016232645
100	0xbd710a68	-0.058847815
101	0xbcb2a727	-0.02180822
102	0xbb4ebee7	-0.0031546892
103	0x3c0e1c8e	0.0086738
104	0xbb6cf2bc	-0.0036155423
105	0xbb8612c4	-0.0040915925
106	0xbd0f6417	-0.035007562
107	0xbbbb28d8	-0.005711656
108	0xbc137ba7	-0.009001649
109	0x3c938961	0.018009843
110	0xbbe10064	-0.0068665016
111	0xbd8a8ce1	-0.06765152
112	0xbd29b781	-0.04143477
113	0xbcdf4606	-0.02725507
114	0x39da9bd1	0.00041696292
115	0xbbdee370	-0.006802015
116	0xbdc2618a	-0.0949126
117	0x3d34e3fa	0.044162728
118	0xbbed6e49	-0.007245813
119	0x3d5d0d04	0.05396749
120	0xbd666253	-0.056246113
121	0xba2a65ed	-0.00065001735
122	0x3cbd5098	0.02310972
123	0xbd471acc	-0.04860954
124	0x3d3c132f	0.045916732
125	0xbc45c7e6	-0.012071585
126	0x3d77f113	0.06053264
127	0x3b1ed910	0.0024238266
128	0x3cb65432	0.022256944
129	0xbd8ad07c	-0.067780465
130	0xbcc12fcb	-0.02358236
131	0x3d0c05c8	0.0341852
132	0xbd115a58	-0.03548655
133	0x3c998e4e	0.018744614
134	0xbce9c8a4	-0.028538056
135	0x3d0981af	0.03357094
136	0x3cee36bf	0.02907884
137	0x3d1660b0	0.036713302
138	0x3ca4c9bd	0.020115728
139	0xbc69cb22	-0.014269622
140	0xbc07e3f5	-0.008294095
141	0x3dd24cfb	0.10268589
142	0x3d36dfe9	0.04464713
143	0xbce8ed5f	-0.0284335
144	0xbc8d817d	-0.017273659
145	0x3d26b3ed	0.040698934
146	0xbccb7649	-0.024836676
147	0x3ce1cd33	0.027563667
148	0xbc8755bf	-0.01652038
149	0x3d89687c	0.06709382
150	0x3b816702	0.003949047
151	0x3d65c72d	0.056098152
152	0x3d6995c1	0.057027582
153	0xbdf17db8	-0.11791557
154	0xbcf3a21a	-0.029740382
155	0xbd2e4a5a	-0.042551376
156	0xbc3b6c86	-0.011439448
157	0x3ccb04eb	0.024782619
158	0xbc3a2bfa	-0.011363024
159	0x3d2215ab	0.039571445
160	0x3cae7bf2	0.021299336
161	0x3d692951	0.056924168
162	0xbcb91d6b	-0.022597035
163	0x3d2a4b9e	0.04157602
164	0xbd08f119	-0.033433054
165	0xbd8e2974	-0.069415
166	0x3c56fc54	0.013121683
167	0x3d254253	0.040346455
168	0x3abcfd8b	0.0014418823
169	0xbcb6cac5	-0.022313485
170	0xbbd97777	-0.006636556
171	0x3ca9c61a	0.020724345
172	0x3d38a7d7	0.04508194
173	0x36aa819c	5.0814833e-06
174	0x3d066ed5	0.03282054
175	0x3dc9154a	0.09818514
176	0xbcb1534c	-0.021646164
177	0x3df654b8	0.120278776
178	0x3d6a5f2a	0.05721966
179	0x3ceec9ca	0.029148955
180	0xbcc5327c	-0.024071924
181	0xbd51e374	-0.051242307
182	0xbd9039e7	-0.07042294
183	0xbd33f914	-0.04393871
184	0xbd1e58bd	-0.038658846
185	0xbc826711	-0.015918287
186	0xba1e1538	-0.00060303835
187	0xbc02829f	-0.007965713
188	0xbbd3493f	-0.0064479406
189	0xbcd39867	-0.025829507
190	0xbcdedf91	-0.027206214
191	0xbc4bf492	-0.012448447
192	0x3d110da7	0.03541341
193	0x3d3c1d49	0.045926366
194	0xbcb75195	-0.022377769
195	0x3d46721f	0.048448678
196	0xbd740af8	-0.059580773
197	0xbd80b3d6	-0.06284301
198	0x39bd896e	0.00036151282
199	0xbd053ca0	-0.03252852
200	0xbd30ef59	-0.04319701
201	0xbb8f0c7f	-0.0043655033
202	0x3d15cb2d	0.036570717
203	0x3d791dfa	0.060819604
204	0x3ca8dea2	0.020613972
205	0xbd28e2e4	-0.041232005
206	0x3d234d0e	0.039868407
207	0x3a75896b	0.0009366485
208	0x3d1e60a4	0.038666382
209	0xbd6e0c47	-0.058117177
210	0x3d94d32e	0.07266842
211	0x3d8a1e01	0.06744004
212	0xbd3879a8	-0.045037895
213	0x3ceedb38	0.029157266
214	0x3d27205d	0.04080235
215	0xbd40ad5b	-0.047040325
216	0xbd098100	-0.03357029
217	0x3cc9bac9	0.024625199
218	0x3ae606a6	0.0017549589
219	0xbbd75193	-0.0065710037
220	0x3c65db3a	0.0140293185
221	0xbc30a16b	-0.010780673
222	0x3c85b7e9	0.016323047
223	0xbcad1492	-0.021127973
224	0xbd9618da	-0.07328959
225	0x3d7919d5	0.06081565
226	0x3d8aea73	0.06782999
227	0x3d880a96	0.06642644
228	0xbc0f5361	-0.008747906
229	0xbd042e44	-0.032270685
230	0x3bdcce10	0.0067384318
231	0xbd366abc	-0.044535384
232	0x3c309c30	0.0107794255
233	0xbd810bdc	-0.0630109
234	0x3d6b444e	0.057438187
235	0x3d7fe020	0.0624696
236	0x3d45f758	0.04833159
237	0x3d03b387	0.032153632
238	0xbd236ff1	-0.039901678
239	0xbc09ad87	-0.008403189
240	0xbc58d4a4	-0.013234291
241	0xbcb04253	-0.021516
242	0xbdb1a84a	-0.08674677
243	0xbd83ea8e	-0.06441222
244	0xbd6d2700	-0.05789852
245	0xbc5cb773	-0.013471472
246	0x3d343400	0.043994904
247	0xbd3b3363	-0.045703303
248	0x3d7d0a4d	0.0617774
249	0xbbfeaa1f	-0.007771745
250	0xbd777faf	-0.060424503
251	0xbd8c7587	-0.06858354
252	0xbd259666	-0.040426634
253	0x3d7ff5c8	0.062490255
254	0x3baf4938	0.0053493045
255	0x3cc87bfa	0.02447318

bias f4 [80]
0	0xbc4e20ff	-0.012581109
1	0x3cbdc90e	0.02316716
2	0xbd0197e8	-0.03163901
3	0xbd20b398	-0.039233774
4	0xbd353e77	-0.044249024
5	0x3c9a4583	0.018831974
6	0xbd818bd4	-0.06325498
7	0xbca555ce	-0.020182516
8	0xbc8096bd	-0.015696878
9	0xbd2d0866	-0.042244337
10	0x3c2c3e01	0.01051283
11	0x3d95cc3b	0.073143445
12	0xbcc6293b	-0.024189582
13	0x3cd6b2fb	0.026208391
14	0x3c344623	0.01100305
15	0xbd5af030	-0.053451717
16	0xbd09d6ab	-0.03365199
17	0x3d504b22	0.050852902
18	0xbd7df868	-0.062004477
19	0xbd70d0c9	-0.058792863
20	0xbd1db84c	-0.038505837
21	0xbd63a55f	-0.055577632
22	0x3d569eb0	0.05239743
23	0x3ca8944f	0.020578532
24	0xbc56f003	-0.013118747
25	0x3d1245cd	0.0357111
26	0x3cf26c56	0.029592674
27	0xbddcb112	-0.10775961
28	0xbd1e3492	-0.038624354
29	0xbba4020b	-0.0050051264
30	0x3c6ef1f3	0.014584052
31	0x3d682493	0.056675505
32	0x3d20e16b	0.039277475
33	0x3d5cd41f	0.053913232
34	0x3d8a3107	0.067476325
35	0xbd86c4cb	-0.06580504
36	0x3ca61b69	0.020276742
37	0xbd6e0abf	-0.058115717
38	0xbd8a59c2	-0.06755401
39	0xbd8cf3a3	-0.068824075
40	0xbd565229	-0.052324448
41	0xb9950d7b	-0.00028429538
42	0x3c97f8ad	0.018551195
43	0xbd1476b7	-0.036246028
44	0xbda154b6	-0.078774855
45	0x3d10aad7	0.035319176
46	0x3d80995a	0.062792495
47	0x3c9539c9	0.01821603
48	0xbd2e4cf2	-0.04255385
49	0xb93580d4	-0.00017309497
50	0xbd087325	-0.033312935
51	0xbbc4ea03	-0.0060093417
52	0x3d0a4f92	0.03376729
53	0xbcf833e8	-0.030298188
54	0x3cfa2c1b	0.03053861
55	0xbd82eb9d	-0.06392596
56	0xbccfbc76	-0.02535842
57	0xbca5a7f3	-0.020221686
58	0xbd6eecbf	-0.058331247
59	0xbcd52bcc	-0.02602186
60	0xbd621cc9	-0.055203233
61	0xbdfc7791	-0.12327493
62	0x3d17d5e1	0.037069205
63	0xbd8cc318	-0.06873149
64	0x3d820cec	0.06350121
65	0xbd0ef306	-0.034899734
66	0xbd56cfb8	-0.05244419
67	0x3cd7f2a6	0.026360821
68	0x3d95b2b6	0.07309477
69	0xbc12db94	-0.008963484
70	0xbd7c9574	-0.061665967
71	0x3d8879c9	0.06663854
72	0x3cb24ff8	0.021766648
73	0x3d5e0df4	0.054212525
74	0xbd66280c	-0.056190535
75	0xbd53ad20	-0.051678777
76	0x3cb5415c	0.022125892
77	0xbc8434bb	-0.016138425
78	0xbcccd82b	-0.02500542
79	0x3d77ddf0	0.06051439

weight f4 [512, 80]
0	0xba8eeada	-0.0010903731
1	0x3d80701f	0.062713854
2	0xbdc9a063	-0.098450445
3	0xbd81e867	-0.06343155
4	0xbcd976f0	-0.026545972
5	0x3d31f4a2	0.04344619
6	0xbd9d7060	-0.076874495
7	0xbc77da20	-0.015127689
8	0xbd793bad	-0.060847927
9	0xbd023273	-0.031786393
10	0xbd57898d	-0.052621413
11	0x3cbb14f7	0.022837145
12	0x3d7d812e	0.061890773
13	0x3d2a449f	0.04156935
14	0x3d11399e	0.03545534
15	0x3d75fbb6	0.060054503
16	0x3d22066d	0.03955691
17	0xbc8ebce5	-0.017424056
18	0xbd156732	-0.036475368
19	0xbd570696	-0.052496515
20	0xbd848ba8	-0.0647195
21	0x3d222886	0.039589427
22	0xbdb470e1	-0.088105924
23	0xbdbfc3ad	-0.09363494
24	0x3dd8b5f4	0.1058158
25	0x3d117847	0.035515096
26	0x3d7c97f8	0.061668366
27	0xbd91ee82	-0.0712557
28	0xbd291c7f	-0.04128694
29	0xbd0ffa25	-0.035150666
30	0xbdaa057c	-0.08301827
31	0x3d38f911	0.045159403
32	0x3cdc3337	0.02687989
33	0x3d92c2dd	0.071660735
34	0x3d1c324e	0.03813391
35	0x3c88512b	0.016640266
36	0xbc40c60c	-0.011765968
37	0x3db730a9	0.08944828
38	0xbdb3a25b	-0.08771201
39	0xbe0ab035	-0.1354378
40	0x3bf47c73	0.0074611246
41	0x3c6bb4c8	0.014386363
42	0x3caaf235	0.020867446
43	0xbe0b2918	-0.13589895
44	0xbdb6fe01	-0.08935166
45	0xbdbe516a	-0.09292872
46	0xbe2992ad	-0.16559859
47	0x3d91e019	0.07122821
48	0x3de32047	0.11090141
49	0xbd98e8fc	-0.07466313
50	0x3cf822da	0.030290056
51	0x3d68e9fe	0.056863777
52	0x3d6b44c5	0.05743863
53	0xbd18af4c	-0.03727655
54	0x3da8a213	0.08234038
55	0xbd7c3307	-0.0615721
56	0x3de60266	0.11230926
57	0xbd393c7e	-0.045223705
58	0xbdade148	-0.084902346
59	0xbd031b50	-0.03200847
60	0x3e1c46dd	0.15261407
61	0x3dcb0b69	0.09914286
62	0x3dc14de4	0.094386846
63	0xbd90bdc3	-0.07067444
64	0xbdca9162	-0.09891011
65	0xbe0acd46	-0.13554868
66	0x3da41570	0.080119014
67	0x3d81bce1	0.06334854
68	0xbdd1e336	-0.10248415
69	0x3de6c305	0.11267666
70	0x3c86fb85	0.016477356
71	0xbcb7d206	-0.022439014
72	0x3cfc902d	0.030830467
73	0x3da3b765	0.07993964
74	0x3d390fa2	0.045180924
75	0x3cf8b514	0.030359782
76	0xbd7af52a	-0.061268963
77	0xbd44e991	-0.04807431
78	0x3cf9db2d	0.030500019
79	0x3d87d53b	0.06632467
80	0x3c5d6183	0.013512018
81	0x3dbc2b49	0.091879435
82	0x3da7bdd9	0.081905074
83	0x3d8b06dc	0.06788418
84	0xbdaf0a72	-0.08546914
85	0x3d72ee42	0.05930925
86	0xbdeeae95	-0.11654393
87	0x3d326036	0.043548785
88	0xbd7c825c	-0.061647758
89	0x3d914096	0.07092397
90	0xba46b115	-0.0007579488
91	0xbd39feee	-0.045409136
92	0xbd286754	-0.041114166
93	0x3d27995a	0.04091773
94	0xbd02e097	-0.031952467
95	0x3dc6f4c1	0.09714652
96	0x3dfaf266	0.12253265
97	0x3d990e49	0.07473428
98	0xbdb1edf4	-0.08687964
99	0xbce0eb66	-0.027455997
100	0x3dcddd2e	0.10051952
101	0xbcc8bd6e	-0.02450439
102	0x3a9c7618	0.001193705
103	0x3c7fa38b	0.0156029565
104	0xbd23903f	-0.039932486
105	0x3d16dfe7	0.036834624
106	0xbde1cb0c	-0.11025056
107	0x3d1a4c38	0.037670344
108	0xbd9ee045	-0.0775762
109	0x3d98854f	0.074473016
110	0xbb7a1cab	-0.003816406
111	0xbc21a1bd	-0.009865222
112	0xbdee9183	-0.11648848
113	0x3cc4105f	0.023933588
114	0xbd0874b5	-0.033314425
115	0xbe153ce2	-0.14574006
116	0xbd4139c6	-0.047174238
117	0xbd892d9b	-0.06698152
118	0x3b462021	0.0030231553
119	0xbcc10e05	-0.023566255
120	0xbd916d5b	-0.07100936
121	0x3cab0336	0.020875555
122	0xbdcaa101	-0.0989399
123	0x3ca3c35e	0.01999062
124	0xbdf6d26b	-0.12051853
125	0xbc2bea8b	-0.010492931
126	0x3d0b4c68	0.034008414
127	0xbdedfe99	-0.11620826
128	0x3d949a74	0.07256022
129	0xbdbaf26d	-0.0912827
130	0xbd5c466b	-0.053778093
131	0xbe0cc37d	-0.13746448
132	0x3bb543d9	0.0055317697
133	0xbdb9f40d	-0.09079752
134	0x3d3888c7	0.045052316
135	0xbbedbb04	-0.00725496
136	0x3da31aa0	0.07964063
137	0xbd00472f	-0.031317886
138	0xbdeb9fd5	-0.11505095
139	0x3d97974e	0.07401906
140	0xbd9e4952	-0.077288285
141	0xbc95a092	-0.018265042
142	0x3d0ce223	0.03439535
143	0xbdd2eaca	-0.10298689
144	0x3d41ee6c	0.047346517
145	0xbb73c6f3	-0.003719744
146	0xbdbd7e8a	-0.09252651
147	0xbcd69687	-0.026194824
148	0x3c13eb08	0.009028204
149	0x3ca750fb	0.020424357
150	0xbd04871e	-0.03235542
151	0xbd547e3d	-0.051878203
152	0xbd0aecf6	-0.03391739
153	0xbd96ed80	-0.07369518
154	0xbdf76ce1	-0.12081314
155	0x3d075f8e	0.033050112
156	0x3e0a837f	0.13526724
157	0x3d8f1240	0.06985903
158	0xbd1cba71	-0.038263742
159	0xbd9635e2	-0.07334496
160	0xbcc63ff3	-0.024200415
161	0x3de23953	0.1104609
162	0x3db4ae91	0.088223584
163	0xbe0b5a50	-0.1360867
164	0xbd49e61d	-0.04929172
165	0xbd6fbf5e	-0.05853211
166	0x3ca5fadd	0.020261222
167	0xbd402ec8	-0.046919614
168	0x3af4a852	0.0018665886
169	0xbafc9fb8	-0.0019273674
170	0x3d9a6ea3	0.075406335
171	0x3de9ebf0	0.11421955
172	0x3da5ad59	0.08089704
173	0xbd3117e0	-0.04323566
174	0x3c8ed0b9	0.017433511
175	0x3beb2de7	0.007177103
176	0xbc97ca90	-0.018529207
177	0xbd9b1321	-0.07572008
178	0xbca206d3	-0.019778645
179	0x3dc5d938	0.09660572
180	0x3cb54dc7	0.022131814
181	0xbd20d682	-0.03926707
182	0x3d71a54b	0.058995526
183	0x3d9baff3	0.07601919
184	0xbde79d1f	-0.11309265
185	0x3dbea037	0.09307902
186	0x3ae3db59	0.0017384096
187	0x3d99e897	0.07515066
188	0x3d2b5bbb	0.041835528
189	0x3e052428	0.13002074
190	0xbe08d725	-0.13363321
191	0xbc49c037	-0.012313894
192	0x3d62e5b3	0.05539484
193	0xbde11104	-0.109895736
194	0x3d92a374	0.071600825
195	0x3dd109a4	0.10206917
196	0x3a01e747	0.00049554225
197	0xbe0a36a5	-0.13497408
198	0x3d031bc8	0.032008916
199	0x3b98f974	0.004668409
200	0xbe02acfc	-0.12761301
201	0x3d4d4549	0.050114904
202	0xbc84b11d	-0.016197735
203	0xbcadb086	-0.021202337
204	0xbd26426f	-0.0405907
205	0x3b729487	0.0037014799
206	0xbdb6527c	-0.089024514
207	0xbde5c44a	-0.1121908
208	0x3dafd16e	0.085848674
209	0x3d94ed6f	0.07271849
210	0xbdbed346	-0.09317641
211	0xbd9bf138	-0.07614368
212	0x3c36a85a	0.011148537
213	0xbd53aabf	-0.051676508
214	0x3d96bd42	0.07360317
215	0x3c6c2228	0.01441244
216	0x3c8c7d62	0.017149631
217	0xbd21933a	-0.039447047
218	0x3c16285c	0.009164896
219	0xbcea3ffc	-0.028594963
220	0xbd6639a1	-0.056207303
221	0xbc02432e	-0.007950587
222	0x3c5ca691	0.013467447
223	0x3beac0f3	0.0071641146
224	0xbdaa1fd3	-0.08306851
225	0x3c6f2bb4	0.014597822
226	0x3dcddef4	0.100522906
227	0x3a868d79	0.0010265551
228	0xbdeb6a08	-0.11494833
229	0xbcde657a	-0.027147997
230	0xbd88c735	-0.06678621
231	0xbad01ba6	-0.001587738
232	0xbcc552a7	-0.024087263
233	0xbce1cb35	-0.027562717
234	0xbe02c99d	-0.12772222
235	0xbd330a50	-0.043711007
236	0xbd271ccc	-0.040798947
237	0x3cdaf1e0	0.026726663
238	0xbd7d82e2	-0.061892398
239	0xbaf63472	-0.001878394
240	0xbd4cbda5	-0.049985547
241	0xbd824270	-0.06360328
242	0x3cccdcdd	0.02500766
243	0xbe008fed	-0.12554903
244	0x3d7d646d	0.06186335
245	0xbd306a7e	-0.04307031
246	0x3dd2a6ff	0.10285758
247	0xbdcd959c	-0.10038301
248	0xb8bfffe4	-9.155253e-05
249	0xbcafaaaf	-0.021443693
250	0xbaf910b6	-0.0019002173
251	0xbbe4f2d3	-0.0069869547
252	0xbdd1511a	-0.10220547
253	0x3d028516	0.031865202
254	0x3d9d1768	0.0767048
255	0x3da574cb	0.08078917

bias f4 [512]
0	0xbb254fa1	-0.0025224464
1	0x3d203ebc	0.03912233
2	0xbd88c95f	-0.066790335
3	0x3d38206e	0.044952802
4	0xbd21d4fe	-0.039509766
5	0xbe1dbe33	-0.15404586
6	0xbcbe4d15	-0.023230115
7	0x3dc9121f	0.098179094
8	0xbd7e09c5	-0.062021036
9	0x3da0ff37	0.07861178
10	0xbdaad809	-0.08341987
11	0xbcd46d5f	-0.025931058
12	0x3dc23534	0.09482804
13	0x3d008de5	0.03138532
14	0xbd24cf62	-0.04023684
15	0x3da3b0ac	0.07992682
16	0xbd8eca6a	-0.06972201
17	0xbcee019e	-0.029053506
18	0xbdcea382	-0.100897804
19	0xbd4f6a3f	-0.050638434
20	0x3d9ec012	0.07751478
21	0x3cf855c7	0.03031434
22	0xbda8980b	-0.08232125
23	0xbdc49590	-0.09598839
24	0xbd454ef6	-0.048171006
25	0x3dbae254	0.091252
26	0x3d30e9b0	0.04319161
27	0x3dcc827b	0.09985825
28	0xbd2d9792	-0.042380877
29	0xbda97694	-0.0827457
30	0x3d720de1	0.059095267
31	0xbba2ce74	-0.004968459
32	0x3d25e93e	0.04050564
33	0x3bec13f0	0.007204525
34	0x3db4ef8d	0.08834753
35	0xbe12d26c	-0.14338082
36	0x3d542c1d	0.051799882
37	0x3b8893e1	0.004168019
38	0x3d46f251	0.048570935
39	0xbbeb79aa	-0.0071861343
40	0x3c8bd2f5	0.017068366
41	0x3d876670	0.06611335
42	0xbc90fec0	-0.0176996
43	0x3d8b5bb7	0.068046026
44	0xbd993582	-0.07480909
45	0x3d80ca9a	0.06288643
46	0xbda729ed	-0.081622936
47	0xbd5f4187	-0.05450585
48	0x3dce6f25	0.10079793
49	0xb93f2e57	-0.00018232442
50	0xbdd29f5d	-0.102843024
51	0xbd39a41f	-0.045322534
52	0xbc00ad42	-0.007853808
53	0x3c8666a3	0.016406363
54	0x3c1a92f9	0.009434455
55	0x3d72f7fe	0.059318535
56	0xbde08020	-0.10961938
57	0xbd91b10c	-0.07113847
58	0xbd28a773	-0.041175317
59	0xbd0899bb	-0.033349734
60	0x3cab7060	0.020927608
61	0xbce68679	-0.028140293
62	0xbdb8fc1a	-0.090324596
63	0xbd28d43f	-0.04121804
64	0xbda56370	-0.08075607
65	0x3d0d68bb	0.034523707
66	0x3ca3ce08	0.019995704
67	0x3d89113c	0.0669274
68	0x3d9505f7	0.07276528
69	0x3daf410e	0.0855733
70	0x3d85a184	0.06524947
71	0xbe2500c9	-0.16113581
72	0x3d65aea3	0.05607475
73	0x3d8afdc9	0.06786687
74	0xbdc65b81	-0.09685422
75	0xbdac9f73	-0.0842885
76	0xbd19f24d	-0.03758459
77	0x3cebc0dc	0.028778486
78	0x3d872d8f	0.066004865
79	0x3c76719a	0.015041733
80	0xbcba72d4	-0.022759832
81	0x3b112298	0.0022145864
82	0xbd56ebab	-0.052470844
83	0x3d8375d0	0.06418955
84	0xbdd7a0af	-0.10528695
85	0xbd5dadcc	-0.054120824
86	0xbbb0e147	-0.005397949
87	0xbd92f2c9	-0.07175214
88	0xbc3a1628	-0.0113578215
89	0x3d8fb97c	0.070178
90	0x3d5f1c44	0.054470316
91	0xbd9d4052	-0.07678284
92	0x3d16aa8b	0.036783736
93	0xbd873a49	-0.06602914
94	0x3cdd7084	0.02703119
95	0x3c99b2eb	0.018762073
96	0xbc934882	-0.01797891
97	0x3d98dfe7	0.07464581
98	0x3da3cd08	0.07998091
99	0xbca5867b	-0.020205727
100	0x3d27e195	0.040986616
101	0x3cf7ecc9	0.030264275
102	0xbd9daa9e	-0.07698558
103	0x3dac62de	0.08417295
104	0x3cc59b82	0.024122003
105	0x3ce506e3	0.027957385
106	0x3d79010d	0.060792018
107	0xbc793175	-0.015209545
108	0x3da80197	0.08203428
109	0x3ca0173b	0.019542327
110	0xbcb9ded9	-0.02268927
111	0xbc231e0f	-0.009955897
112	0x3db245ea	0.08704741
113	0xbccb7377	-0.024835331
114	0xbdaed52b	-0.08536752
115	0xbcecd268	-0.028908923
116	0x3d0990bf	0.033585306
117	0x3a644b83	0.0008708762
118	0xbd9edf16	-0.07757394
119	0x3d89d2f6	0.06729691
120	0xbd3aa018	-0.045562834
121	0x3c978faf	0.01850113
122	0x3c9636e2	0.018336717
123	0xbd84972f	-0.064741485
124	0xbc7f5169	-0.015583375
125	0xbba4d727	-0.005030531
126	0x3dc1efcc	0.09469566
127	0xbd917757	-0.071028404
128	0xbd07439a	-0.033023454
129	0xbdcdfa09	-0.10057456
130	0x3d247559	0.040150974
131	0xbd80f5ee	-0.06296907
132	0xbd595c9f	-0.053066846
133	0x3c8be336	0.017076116
134	0xbd9fef1f	-0.078092806
135	0xbd940f0a	-0.07229431
136	0xbc6b603b	-0.014366205
137	0xbd6ef892	-0.058342524
138	0xbde27129	-0.1105674
139	0x3d067b1b	0.032832246
140	0xbd1814bd	-0.037129153
141	0xbd606d3c	-0.054791674
142	0xbd51ca08	-0.051218063
143	0xbb80603d	-0.0039177225
144	0xbc5843bf	-0.013199746
145	0x3da61156	0.08108775
146	0x3d73c695	0.059515554
147	0x3d037a22	0.032098897
148	0xbcabb04f	-0.020958094
149	0x3d1e70ab	0.038681667
150	0x3d648ede	0.05580031
151	0xbde70b89	-0.11281497
152	0xbd33731c	-0.04381095
153	0x3b759787	0.003747435
154	0x3c12b7af	0.008954926
155	0x3d69b800	0.05706024
156	0xbcb06954	-0.0215346
157	0xbd7d3a11	-0.061822955
158	0xbd1e8e96	-0.0387102
159	0xbd650903	-0.055916797
160	0xbd1dcaa1	-0.03852332
161	0xbd15fb31	-0.036616508
162	0xbd4a525e	-0.049394958
163	0xbda01cca	-0.07817991
164	0xbe0ddf9f	-0.13854836
165	0x3dadf039	0.084930845
166	0x3ccb01d3	0.024781143
167	0x3c9da80f	0.019245176
168	0x3d377474	0.044788793
169	0x3c926ddc	0.01787465
170	0xbd871c64	-0.06597212
171	0x3c7fa7d4	0.015603978
172	0x3c51a02c	0.012794536
173	0xbe025b81	-0.12730218
174	0xbde393cc	-0.111121744
175	0xbcac4fc0	-0.021034122
176	0x3dc13c5a	0.09435339
177	0xbda5c2d1	-0.08093799
178	0xbdb9f59e	-0.09080051
179	0xbe2cf776	-0.16891274
180	0x3c485a8d	0.01222862
181	0xb9df1dc4	-0.00042556052
182	0xbd7cb5cc	-0.061696813
183	0x3da41c77	0.08013242
184	0xbdd8ef92	-0.105925694
185	0xbd3ec346	-0.046572946
186	0xbde14b51	-0.110006936
187	0xbd77b4dd	-0.06047522
188	0x3db29904	0.08720592
189	0x3da60c44	0.08107808
190	0xbd84d078	-0.06485075
191	0xbd99c0a4	-0.075074464
192	0x3d07ecac	0.033184692
193	0x3d08acc2	0.03336788
194	0x3daedc2e	0.0853809
195	0x3cd76ee5	0.026297996
196	0xbca10d93	-0.019659793
197	0x3d0c1449	0.034199033
198	0x3d5276cc	0.051382825
199	0x3da00723	0.07813861
200	0xbd2d0092	-0.042236872
201	0xbd6d1cc3	-0.057888757
202	0x3dd43419	0.10361499
203	0xbdd080d4	-0.10180822
204	0x3a763e62	0.0009393451
205	0x3b904056	0.0044022007
206	0x3cced5ff	0.025248526
207	0xbbdf378f	-0.006812043
208	0xbd212965	-0.039346118
209	0xbd1d6427	-0.03842559
210	0xbd04c2f2	-0.032412477
211	0x3d29315d	0.041306842
212	0xbe0c2be0	-0.13688612
213	0x3d99fe62	0.07519223
214	0xbb9017ef	-0.0043973844
215	0x3d6682a3	0.05627693
216	0xbd88b5b9	-0.06675286
217	0x3d062a27	0.032755043
218	0xbcdcb785	-0.026942978
219	0x3c8b1e4a	0.016982216
220	0xbcc08cea	-0.023504693
221	0x3d31d46d	0.043415476
222	0xbcdb13aa	-0.026742775
223	0xbc7ffb79	-0.015623921
224	0x3d410765	0.047126193
225	0xbdabb9a9	-0.08385021
226	0x3d911d59	0.07085676
227	0xbce7f5e2	-0.028315488
228	0x3a1f4625	0.0006075821
229	0xbdcfc277	-0.10144513
230	0x3a76e4ee	0.00094182685
231	0x3d3ba109	0.045807872
232	0xbde4ef33	-0.11178436
233	0xbd1cc401	-0.03827286
234	0xbd4658d2	-0.04842455
235	0xbc592c53	-0.013255197
236	0xbc8595a1	-0.0163067
237	0x3da2646e	0.07929312
238	0x3dd759bb	0.105151616
239	0x3d1cae6b	0.038252275
240	0xbcb4faf8	-0.022092327
241	0xbd70eb1f	-0.05881798
242	0xbda45264	-0.08023527
243	0x3d473f01	0.04864407
244	0xbd5c02d4	-0.053713635
245	0xbd467dfa	-0.048459984
246	0xbdcd07a7	-0.10011225
247	0x3dab7c2a	0.08373292
248	0xbc165a69	-0.009176829
249	0x3d4a9674	0.04945989
250	0xbcbd92ed	-0.023141349
251	0x3be33357	0.0069336104
252	0x3d419e30	0.04727
253	0x3886061b	6.390755e-05
254	0xbc89e97c	-0.016834967
255	0x3c1662b8	0.00917881

weight f4 [25, 512]
0	0x3d1cf267	0.03831711
1	0xbd253de8	-0.04034224
2	0xbccf7d4c	-0.0253283
3	0x3cc02b42	0.023458127
4	0x3b4c8a80	0.0031210482
5	0xbc0ba5ec	-0.008523446
6	0xbd093e9f	-0.033506986
7	0x3c9f4212	0.019440684
8	0x3c44c8b0	0.012010738
9	0x3c1d7bb8	0.009612016
10	0xbd02a0dd	-0.031891692
11	0x3c3af9b0	0.011412069
12	0xbd1b5bb1	-0.03792924
13	0xbcf30e28	-0.029669836
14	0xbc756aa8	-0.014979042
15	0xbd2cd62b	-0.042196434
16	0x3c0e95e4	0.008702729
17	0xbc4dd024	-0.012561832
18	0x3ccc6376	0.02494977
19	0x3d03b45b	0.032154422
20	0xbc46f370	-0.012143001
21	0xbbce3860	-0.0062933415
22	0x3c878eee	0.016547646
23	0xbb5e0880	-0.0033879578
24	0x3cf91696	0.030406278
25	0xbc378ec8	-0.011203475
26	0x3d189a55	0.037256557
27	0x3d190a2d	0.03736322
28	0xbcb4146c	-0.021982394
29	0xbc10a470	-0.008828267
30	0xbb83d868	-0.0040236004
31	0xbb87b6b0	-0.004141651
32	0xbd0835d4	-0.03325446
33	0x3d0ec1d5	0.03485282
34	0x3d1f350d	0.038868953
35	0xbba6b7d0	-0.00508783
36	0xbd2ff303	-0.042956363
37	0xbc349848	-0.011022635
38	0x3b8e3710	0.00434006
39	0x3c8dec4c	0.01732459
40	0x3cecdec2	0.028914813
41	0xbb795770	-0.0038046502
42	0xbcfd8f96	-0.030952256
43	0x3cf84c2a	0.030309755
44	0xbc3881b8	-0.011261396
45	0x3c84b398	0.016198918
46	0x3b2d52c0	0.0026447028
47	0xbc359d38	-0.011084847
48	0x3bcf79c8	0.006331656
49	0xb9057c00	-0.00012730062
50	0xbd22656e	-0.039647512
51	0xbb37a2e0	-0.0028020665
52	0x3d147f29	0.036254082
53	0xbc2ad780	-0.010427356
54	0x3c9b979a	0.018993188
55	0xbcbe6b41	-0.023244502
56	0xbd26fb99	-0.040767286
57	0xbd16b7ed	-0.0367965
58	0x3c531bec	0.012885075
59	0xbb0a5d90	-0.0021112897
60	0x3d23b0eb	0.039963644
61	0xbcf8e1ab	-0.030381044
62	0x3cc9ca72	0.024632666
63	0x3d038e6f	0.032118257
64	0x3c7e1d08	0.015509851
65	0x3d19a943	0.037514936
66	0x3c75e13c	0.015007313
67	0xbc2dc8b4	-0.010606933
68	0xbca4e183	-0.020127064
69	0xbc2b70f4	-0.010463942
70	0xbca5bdcf	-0.02023211
71	0xbb229350	-0.0024807043
72	0x3bd8b6e0	0.0066135973
73	0x3d0b8c87	0.034069564
74	0x3a165000	0.0005733967
75	0xbc214d24	-0.009845052
76	0x3d1925ff	0.03738975
77	0xbc0a8fcc	-0.008457135
78	0x3b9ea350	0.0048412457
79	0xbd04cda9	-0.032422695
80	0xbbe04bd0	-0.006844975
81	0x3c788468	0.015168287
82	0xbccfdbfe	-0.025373455
83	0xbcb229b9	-0.02174841
84	0xbcf3e3ce	-0.029771712
85	0x3ced1c7e	0.02894425
86	0xbcf700ce	-0.03015175
87	0xbc508b88	-0.012728579
88	0xbd26e646	-0.04074695
89	0x3c11adec	0.008891564
90	0xbd11241c	-0.035434827
91	0xba17d400	-0.00057917833
92	0xbcfa4711	-0.030551465
93	0xbbd46e40	-0.0064828694
94	0xbc02c670	-0.0079818815
95	0xbca9deab	-0.02073606
96	0x3c427858	0.0118695125
97	0x3d2985d3	0.04138739
98	0x3cc8554a	0.024454731
99	0xbc1e849c	-0.009675171
100	0x3ccec102	0.025238518
101	0x3d1c8083	0.038208496
102	0xbc145424	-0.009053264
103	0xbcf3ee3c	-0.029776685
104	0x3ba2c418	0.004967224
105	0xbc0ad200	-0.008472919
106	0xbd257924	-0.04039873
107	0x3b80cc70	0.003930621
108	0xbbd67df8	-0.0065457784
109	0xbb84ec68	-0.004056502
110	0xbd157685	-0.036489982
111	0xbcdce822	-0.026966158
112	0xbbefbd98	-0.0073163025
113	0x3cf50b8a	0.029912729
114	0xbd0b04ab	-0.03394
115	0xbd32592f	-0.043542083
116	0xbd2930b1	-0.0413062
117	0xbd17bc4e	-0.037044816
118	0x3d1b1e6f	0.03787082
119	0xbc8dc354	-0.017305054
120	0xbb58ae50	-0.0033062883
121	0x3d0eff05	0.034911174
122	0xbc759324	-0.014988694
123	0x3d09a5a9	0.03360525
124	0xbd062253	-0.032747578
125	0x3d349529	0.044087563
126	0x3c0ac9a0	0.008470923
127	0x3b84a9c0	0.004048556
128	0x3d108ac5	0.03528859
129	0xbcb30d2e	-0.02185687
130	0x3d009e05	0.0314007
131	0x3cdc3962	0.026882831
132	0x3cff1372	0.031137202
133	0x3b601260	0.003419064
134	0x3d1ceda1	0.038312558
135	0xbba92420	-0.005161777
136	0xbd25f39b	-0.040515523
137	0x3c99737e	0.018731829
138	0xbc770078	-0.015075795
139	0x3bb2d5d0	0.0054576173
140	0x3cb0e002	0.02159119
141	0x3d23911b	0.039933305
142	0x3b1fcd10	0.0024383701
143	0xbce8e845	-0.028431067
144	0x3b0af8b0	0.0021205358
145	0xbd011bb9	-0.03152058
146	0xbd04c3f0	-0.032413423
147	0x3cfeb7a2	0.031093422
148	0x3cc8c7e2	0.024509374
149	0xbd099014	-0.03358467
150	0xbbb11580	-0.0054041743
151	0x3cbc89c6	0.023014914
152	0xbc648166	-0.013946867
153	0xbc88623a	-0.0166484
154	0x3c6d808c	0.01449598
155	0x39b84600	0.0003514737
156	0x3d287bf5	0.04113384
157	0x3c1292f8	0.008946173
158	0x3d2f10d1	0.042740647
159	0x3d2fe075	0.04293867
160	0xbc5de8c2	-0.013544263
161	0x3cb98b8e	0.022649553
162	0x3bae1630	0.0053127035
163	0xbcd333af	-0.02578148
164	0x3d1b6d3f	0.037945982
165	0xbd03f7f3	-0.032218885
166	0xbd247bd4	-0.040157154
167	0xbcf46ff2	-0.029838536
168	0xbc093314	-0.008373994
169	0xbb1b4e90	-0.002369795
170	0xbce4621b	-0.027878812
171	0xbcd7ddc4	-0.026350863
172	0x3d2e2521	0.042515878
173	0x3c3bf9b4	0.011473108
174	0xbcef0fc8	-0.02918233
175	0xbc52f640	-0.012876093
176	0xbd12aca4	-0.035809174
177	0xbd262553	-0.04056294
178	0xbd2d1654	-0.042257622
179	0xbce48f4c	-0.02790036
180	0x3b828268	0.003982831
181	0x3babdcd0	0.0052448288
182	0xbd155553	-0.036458325
183	0xbd26f1f4	-0.04075809
184	0x3d026961	0.03183878
185	0x3d271e55	0.04080041
186	0xbd1b0b12	-0.037852354
187	0xbbfe0e80	-0.0077531934
188	0xbd2d543d	-0.042316664
189	0xbc92c2dc	-0.017915182
190	0xbc944a2d	-0.018101776
191	0x3cbb3382	0.02285171
192	0xbc7c3378	-0.0153931305
193	0xbc9a3db1	-0.018828245
194	0xbcc11ed1	-0.023574265
195	0xbcc96889	-0.024585979
196	0x3ba390e0	0.0049916357
197	0x3c6e746c	0.014554124
198	0xbcfa32ea	-0.030541856
199	0xbd228773	-0.039679956
200	0x3c30cc08	0.010790832
201	0x3d1a0b0f	0.037608203
202	0xbd313810	-0.043266356
203	0xbc4f3e18	-0.012649082
204	0x3cf8823a	0.030335534
205	0x3d2c650d	0.042088557
206	0xbd08dbd6	-0.033412777
207	0xbcb0ba8f	-0.021573333
208	0x3c896742	0.01677287
209	0xbd1ac97d	-0.03778981
210	0xbd1e64fa	-0.038670518
211	0x3af66140	0.0018797293
212	0x3c8efb86	0.01745392
213	0x3c0c98d8	0.008581363
214	0xbc1b4e14	-0.0094790645
215	0xbb805218	-0.0039160363
216	0x3be59fa8	0.007007558
217	0x3cab2672	0.020892356
218	0x3bf41830	0.0074491724
219	0xbcd4ab99	-0.02596073
220	0xbcdb1019	-0.026741074
221	0xbc435a9c	-0.011923458
222	0x3cc34b6e	0.023839679
223	0xbcec30b6	-0.028831821
224	0x3c01e210	0.007927433
225	0xbbb24e90	-0.0054414943
226	0x3c7775f0	0.015103802
227	0xbcb5af79	-0.022178398
228	0x3c868e46	0.016425263
229	0xbc81a225	-0.015824387
230	0x3c8a4df6	0.016882878
231	0x3c52f800	0.012876511
232	0x3d2b134d	0.041766454
233	0xbd1626ab	-0.03665797
234	0xbc203d08	-0.009780176
235	0x3cd5f1f6	0.026116353
236	0x3d0c001d	0.034179796
237	0x3d0264c3	0.031834375
238	0x3c80ecc2	0.015737895
239	0xbc01564c	-0.00789411
240	0xbc619586	-0.013768559
241	0xbd045a72	-0.032312818
242	0x3d2eb581	0.042653564
243	0x3d143a49	0.036188398
244	0xbc777624	-0.0151038505
245	0xbd301dd0	-0.04299718
246	0x3a94c580	0.0011350363
247	0xbab92340	-0.0014124885
248	0xbc357fd0	-0.011077836
249	0x3cbe2ca6	0.02321465
250	0xbd07eb9e	-0.033183686
251	0xbcd5a472	-0.02607939
252	0xbd258dbb	-0.040418368
253	0xbb18a2c0	-0.0023290366
254	0x3cd3858e	0.02582052
255	0x3cd45602	0.025919918

bias f4 [25]
0	0xbcf3c22a	-0.02975567
1	0x3cd3e9a3	0.025868243
2	0xbc6b20a0	-0.01435104
3	0x3c6bbbca	0.014388034
4	0xbc8c8011	-0.01715091
5	0x3b0bd767	0.0021338107
6	0xbcac508e	-0.021034505
7	0x3b929a62	0.0044739703
8	0xbd2805f8	-0.041021317
9	0xbd01724c	-0.031603143
10	0xbd0ca274	-0.034334615
11	0x3cc9a17b	0.024613133
12	0x3d16eca8	0.036846787
13	0x3cdcfaad	0.026975
14	0x3cace6ad	0.021106089
15	0x3abf273e	0.0014583839
16	0xbac9d8c7	-0.0015399688
17	0x3c7fc51b	0.015610958
18	0xbabe19ec	-0.0014503575
19	0x3cb822c6	0.022477519
20	0x3d0702bf	0.032961603
21	0xbb96a9d5	-0.0045978823
22	0xbcd95b6d	-0.026532853
23	0xbcdc2c6f	-0.026876656
24	0x3cc1422d	0.023591125
