model_full.pth (torch, 224614 bytes, 6 tensors)

weight f4 [64, 20, 3, 3]
-0.0357598 0.014319923 0.0006072911 0.028280422 0.032845654 -0.054979313 0.036888212 0.06137368
-0.008504566 -0.0021157619 -0.062325284 -0.048513263 0.012419258 -0.10577168 -0.070360415 -0.038405526
-0.025690608 -0.07301016 0.03701244 -0.04499657 -0.00926617 0.058825243 -0.008957035 0.008538368
0.04256056 -0.006362715 0.04136758 0.0616051 -0.053770278 0.0294124 0.010644671 -0.026758522
-0.042860784 0.030118486 0.030196736 0.041057564 0.036826644 0.013360119 0.08175531 0.034887053
0.018009592 -0.050791018 -0.09194719 -0.01635518 -0.00706992 -0.041117754 -0.05530176 0.054581005
-0.06166593 0.05744987 -0.012442559 0.0133507205 0.050475866 0.0008195472 -0.04268695 0.07672936
0.060149953 -0.033654623 0.011169612 0.041394502 0.014341769 -0.012868992 -0.024760287 -0.06967818
0.0249013 -0.023350354 0.04404667 0.040002313 0.019881452 0.018004002 -0.03297005 -0.003394867
-0.04334753 -0.052747007 0.010102565 -0.01863124 -0.007933333 0.042334057 0.07840188 0.071781464
-0.038807597 0.00941639 0.046356123 -0.042964317 -0.043194596 -0.00692649 -0.064815305 0.024536278
0.009373793 0.053553812 0.008434735 -0.06463859 -0.045720093 0.049025133 -0.055953547 -0.014007955
-0.018195784 0.07514859 0.04715067 -0.030241264 -0.02951437 0.044235658 0.06119621 0.034009103
-0.01877814 -0.06687562 -0.006698303 -0.08456471 0.0021939345 0.048037894 0.055226214 0.058379494
-0.03306251 0.06419003 0.0507749 0.052546043 0.06037836 -0.03310538 0.05042524 0.049776495
0.011066255 0.010460631 0.03395047 -0.05464311 -0.005620922 -0.016901229 0.06761965 0.07012328
0.065299675 -0.04472466 -0.007828689 0.024982534 0.009503126 0.059638537 -0.024312224 -0.06508469
0.051410183 -0.014167314 -0.007869423 0.067833066 0.00084034936 0.009076913 -0.024613421 0.014862751
0.008628868 -0.055111293 0.05618509 0.03358162 0.0071601537 0.025592234 0.04241515 -0.065132335
0.041408267 0.04433544 -0.009579528 -0.029180411 0.060815755 0.031038735 0.044727962 -0.010735523
-0.008884031 -0.06419248 0.011217802 0.029870415 0.032755855 0.051590104 -0.06060895 0.030463712
0.049946174 0.0108686155 0.054886885 -0.021993248 -0.065167986 -0.012202957 0.05530465 0.05108649
-0.0019470559 -0.008130074 0.081609495 -0.012709604 -0.017723344 0.020852365 -0.015909253 0.008610094
0.01193373 -0.051687863 -0.0460974 0.02362972 -0.0011300778 -0.038945097 -0.05809154 0.015686573
-0.030929158 0.008688436 0.03160909 -0.030753428 0.0661119 0.07021161 0.06328963 0.037605565
0.004100964 -0.03855724 0.027579349 -0.049811043 0.0071097366 -0.017437771 -0.09673143 -0.013838333
0.03256593 0.009252817 -0.037550915 -0.03263478 -0.0287475 0.029731324 0.029542327 -0.032011326
-0.062135328 -0.04733043 0.054345477 0.01790553 -0.029367652 -0.04497614 -0.01209589 -0.036102872
0.077146165 -0.061595634 0.02604458 0.009147415 -0.015029835 -0.007953883 0.036517236 0.033958916
0.06549298 -0.071862675 0.032169633 0.025506757 0.030036323 -0.055694193 0.0055686245 0.0082560405
-0.0063165347 -0.028161315 0.041137595 0.06985264 -0.05627242 -0.035556123 -0.011281092 0.029592216
-0.002747363 0.017851742 0.057265833 -0.009838315 0.008868995 0.02689502 -0.024540486 -0.06983473
00000000: de78 12bd 1c9e 6a3c 9e32 1f3a 58ac e73c
00000010: 2a89 063d fd31 61bd 1818 173d f862 7b3d
00000020: bc56 0bbc 98a8 0abb cc48 7fbd d8b5 46bd
00000030: 257a 4b3c d39e d8bd 1f19 90bd 1d4f 1dbd
00000040: 1c75 d2bc 5a86 95bd 5b9a 173d 534e 38bd
00000050: 22d1 17bc bdf2 703d 87c0 12bc 83e4 0b3c
00000060: fb53 2e3d 527e d0bb 0d71 293d a155 7c3d
00000070: 393e 5cbd 46f2 f03c fc66 2e3c b034 dbbc
00000080: ca8e 2fbd 0bbb f63c 255f f73c fa2b 283d
00000090: 89d7 163d 67e4 5a3c 546f a73d bae5 0e3d
000000a0: da88 933c 3e0a 50bd cf4e bcbd 4cfb 85bc
000000b0: caaa e7bb 176b 28bd 1984 62bd 5590 5f3d
000000c0: 6a95 7cbd 8e50 6b3d e0db 4bbc fbbc 5a3c
000000d0: c8bf 4e3d e2d6 563a 83d8 2ebd 4824 9d3d
000000e0: cc5f 763d 6ed9 09bd c000 373c 488d 293d
000000f0: bdf9 6a3c 77d8 52bc 16d6 cabc 6fb3 8ebd
00000100: d0fd cb3c 3e49 bfbc 486a 343d 77d9 233d
00000110: 6dde a23c 217d 933c 9a0b 07bd 6b7c 5ebb
00000120: 2e8d 31bd 3f0d 58bd 3b85 253c 8ba0 98bc
00000130: cffa 01bc 7a66 2d3d 2a91 a03d 2902 933d
00000140: b7f4 1ebd 3447 1a3c ebdf 3d3d 5afb 2fbd
00000150: d1ec 30bd 9cf7 e2bb e3bd 84bd 4e00 c93c
00000160: 8a94 193c 3e5b 5b3d d831 0a3c 3d61 84bd
00000170: fe44 3bbd 94ce 483d 8c2f 65bd 9f81 65bc
00000180: 530f 95bc 81e7 993d 1021 413d 87bc f7bc
00000190: 1fc8 f1bc 7330 353d e1a8 7a3d 214d 0b3d
000001a0: 9dd4 99bc 16f6 88bd 707d dbbb 4330 adbd
000001b0: 1dc8 0f3b 62c3 443d e234 623d 561f 6f3d
000001c0: 8e6c 07bd 1076 833d 57f9 4f3d 853a 573d
000001d0: 4d4f 773d 8299 07bd b28a 4e3d 70e2 4b3d
000001e0: 3d4f 353c 1163 2b3c a60f 0b3d 74d1 5fbd
000001f0: b62f b8bb 7274 8abc 2c7c 8a3d cb9c 8f3d
00000200: d6bb 853d 3531 37bd e743 00bc 2ca8 cc3c
00000210: 00b3 1b3c 8a47 743d 6e2a c7bc 1f4b 85bd
00000220: 7c93 523d 061e 68bc c1ee 00bc 10ec 8a3d
00000230: e44a 5c3a 55b7 143c 16a2 c9bc e582 733c
00000240: 1860 0d3c 61bc 61bd 5622 663d e18c 093d
00000250: b99f ea3b cea6 d13c 82bb 2d3d 1a64 85bd
00000260: b79b 293d 1499 353d 74f3 1cbc c20b efbc
00000270: f119 793d f244 fe3c ab34 373d 0ce4 2fbc
00000280: 548e 11bc 5977 83bd dfca 373c cdb2 f43c
00000290: 012b 063d 2550 533d 1741 78bd 098f f93c
000002a0: 5c94 4c3d 4712 323c 12d1 603d 2f2b b4bc
000002b0: cb76 85bd e9ee 47bc 2187 623d 1140 513d
000002c0: 5b34 ffba 0034 05bc e122 a73d f13b 50bc
000002d0: 8c30 91bc 94d2 aa3c 1f54 82bc 5a11 0d3c
000002e0: b185 433c a7b6 53bd a1d0 3cbd 1d93 c13c
000002f0: 1e1f 94ba e584 1fbd 65f1 6dbd 2181 803c
00000300: 255f fdbc f159 0e3c 8878 013d 9dee fbbc
00000310: ad65 873d 1bcb 8f3d fe9d 813d 4b08 1a3d
00000320: 6161 863b 32ee 1dbd 16ee e13c aa06 4cbd
00000330: cbf8 e83b a8d9 8ebc 211b c6bd 2dba 62bc
00000340: da63 053d 2199 173c fdce 19bd 0cac 05bd
00000350: e17f ebbc 1b8f f33c c002 f23c 4f1e 03bd
00000360: 9d81 7ebd 8edd 41bd 5d99 5e3d 9eae 923c
00000370: 6e94 f0bc e738 38bd d72d 46bc 9be0 13bd
00000380: cffe 9d3d b44b 7cbd 715b d53c 0adf 153c
00000390: b23f 76bc 0151 02bc 1993 153d 8118 0b3d
000003a0: 2f21 863d bd2c 93bd 4ec4 033d 8cf3 d03c
000003b0: bc0e f63c 981f 64bd 0279 b63b 5844 073c
000003c0: effa cebb 8fb2 e6bc e57f 283d e70e 8f3d
000003d0: e97d 66bd 4ca3 11bd 54d4 38bc 606b f23c
000003e0: 1a0d 34bb d13d 923c 948f 6a3d e230 21bc
000003f0: 434f 113c f252 dc3c 2109 c9bc 8305 8fbd

bias f4 [64]
0.05691603 0.006060377 -0.043725252 4.4134937e-05 0.00032927617 0.037438706 -0.024846349 -0.0039472645
-0.05602876 -0.007771061 -0.06651478 -0.089501835 0.059741426 0.057447955 0.070326515 -0.0026339474
-0.031389672 -0.02893962 -0.07001191 -0.029682985 -0.013062034 -0.054805595 -0.0027094928 0.010124261
-0.043011647 -0.057622977 0.05098572 -0.057247926 0.041928172 -0.04289123 0.036960155 -0.052934166
0.044831343 -0.0513842 0.0040320805 0.05682789 -0.040150754 -0.0061039366 0.056124605 0.045913592
0.028383942 0.034184743 -0.05035521 0.026264051 -0.04001106 -0.024767255 -0.019732127 0.067126
0.01076438 0.03546479 0.06420836 -0.005506346 -0.003774756 0.0655674 -0.05173851 0.017064657
0.032171484 -0.053853877 0.022198437 -0.023928616 0.003666653 0.0043520276 -0.04240957 0.063834004
00000000: c820 693d 2196 c63b 4019 33bd 871d 3938
00000010: b3a2 ac39 5459 193d 928a cbbc 0e58 81bb
00000020: 6a7e 65bd 62a4 febb e738 88bd bd4c b7bd
00000030: 6db3 743d 8c4e 6b3d 5907 903d 4e9e 2cbb
00000040: 7592 00bd c812 edbc 6762 8fbd bb29 f3bc
00000050: 2402 56bc d57b 60bd bf91 31bb 3ae0 253c
00000060: fb2c 30bd 1206 6cbd 67d6 503d cd7c 6abd
00000070: e0bc 2b3d b7ae 2fbd 8863 173d 7fd1 58bd
00000080: 12a1 373d 3d78 52bd 8b1f 843b 5dc4 683d
00000090: 1e75 24bd 8803 c8bb eae2 653d e40f 3c3d
000000a0: 7185 e83c 4d05 0c3d 4441 4ebd b527 d73c
000000b0: a3e2 23bd b3e4 cabc 45a5 a1bc 5b79 893d
000000c0: 155d 303c 8743 113d ac7f 833d 946e b4bb
000000d0: e661 77bb 3348 863d c3eb 53bd 2ecb 8b3c
000000e0: 3fc6 033d e295 5cbd 7fd9 b53c f205 c4bc
000000f0: 3b4c 703b 749b 8e3b a8b5 2dbd 67bb 823d

weight f4 [512, 64]
0.024477437 0.06427039 -0.07657558 0.021193853 0.06311268 0.102811284 -0.0052603777 0.02004596
-0.045310907 -0.016845286 0.07094823 -0.11016885 -0.09114873 -0.05718205 0.10165637 0.024862558
-0.08081222 -0.027578702 0.04228472 -0.0972945 -0.040823795 -0.11171285 -0.03560874 -0.08567318
-0.061978057 0.0073707527 0.039280895 0.06319194 -0.072423235 -0.02220903 0.11865794 -0.06462738
-0.019558603 0.09735107 -0.048518732 -0.09305387 -0.025569951 0.03713513 -0.002228925 0.0046735657
-0.009377287 0.115843326 0.08542744 -0.042496163 0.028355822 0.08035351 0.025801491 -0.069938496
0.0073831417 -0.021381522 -0.016896477 -0.09572072 -0.14417157 -0.040324263 -0.109946154 -0.026319914
-0.11028524 0.010645661 0.094641514 0.071798 0.12170567 -0.005159252 0.14053938 -0.03510673
0.05458763 -0.097404204 -0.08891753 0.0011697666 0.011890893 0.115687564 0.11803053 -0.016620008
0.02814817 -0.05277325 -0.0021461307 0.11498269 0.009788505 0.044466972 0.02569641 -0.01479664
0.08939892 0.057889916 -0.01405108 -0.10709793 -0.0057663405 -0.08367703 0.053473238 -0.08442859
-0.029247375 0.03638854 0.014201093 0.036097676 0.122064 0.05167302 0.072060026 0.048142698
0.06423153 0.06584224 -0.10328671 -0.15238675 0.10678898 0.10982475 0.026235044 -0.11641475
0.10649588 -0.052216858 -0.060075693 -0.0640256 0.121673346 -0.1012443 -0.06635898 0.05653284
-0.09105086 -0.097810306 -0.01535059 -0.104775794 0.006719925 0.047540203 -0.06942145 -0.12663186
-0.06624016 0.034850035 -0.10065806 -0.016110754 -0.06789534 0.12551388 0.0021009326 0.07552291
-0.032420255 0.1065984 0.03807153 -0.07425202 0.038471084 -0.02629317 -0.114536785 0.06603389
0.13448639 -0.10883193 -0.03340649 -0.12397842 0.02015529 0.06410308 0.061379187 -0.026641978
0.11907212 -0.052919693 0.02089979 -0.05583084 -0.17921768 -0.032277226 -0.13952076 -0.08808056
0.0046507427 0.104390346 -0.071761556 0.006085616 -0.03957038 -0.05307932 -0.08964384 -0.028790604
0.0028036889 -0.13543351 0.08997247 -0.021475835 -0.045706313 -0.053312287 0.023344157 -0.021708522
0.063429035 -0.06681625 -0.04027987 0.002139558 -0.048224714 -0.024595663 -0.13915563 0.06918554
0.116446406 0.10109909 0.047870222 -0.0001901049 -0.01700091 -0.0063290205 0.05478944 -0.053081583
0.09039668 0.016026758 0.0278524 -0.033201728 0.087042525 0.00951866 0.090172134 -0.021804897
-0.03090309 -0.11452727 0.050926074 -0.10575588 -0.056765523 0.016914582 -0.12302094 0.08865027
-0.019192394 -0.018206881 -0.07919057 0.1084497 0.04330278 -0.13552384 0.029962042 0.020008191
-0.05750581 -0.012185343 -0.023996036 -0.06365437 0.11980128 -0.10021786 -0.0757155 0.08111128
-0.036652446 -0.033297583 0.11925306 0.009891898 0.057303686 0.01972672 0.026786042 0.021227892
0.014069774 -0.05793619 -0.14246054 -0.13389362 0.122641176 -0.014466851 0.05518152 0.024858292
0.101839066 0.08448369 -0.079103425 0.04395398 0.036215235 0.09676048 0.11855698 -0.05109477
0.06728835 0.03164967 0.08741525 0.022459293 -0.06504931 0.0722647 0.07948399 -0.084968254
-0.114212014 0.1309905 0.12822364 0.032483563 -0.09225713 -0.00088824413 0.06254959 0.034871608
00000000: e884 c83c 32a0 833d a8d3 9cbd bb9e ad3c
00000010: 3941 813d b98e d23d 3f5f acbb 6d37 a43c
00000020: ee97 39bd 20ff 89bc 4e4d 913d 35a0 e1bd
00000030: 2fac babd ba37 6abd 3731 d03d 90ac cb3c
00000040: e180 a5bd bbec e1bc be32 2d3d 5742 c7bd
00000050: da36 27bd b5c9 e4bd 78da 11bd 6c75 afbd
00000060: b4dc 7dbd 5b86 f13b 01e5 203d c76a 813d
00000070: a252 94bd b6ef b5bc ef02 f33d 5c5b 84bd
00000080: 5d39 a0bc ff5f c73d 94bb 46bd 0793 bebd
00000090: 1378 d1bc 021b 183d 2813 12bb b624 993b
000000a0: 31a3 19bc 443f ed3d 95f4 ae3d 7510 2ebd
000000b0: 784a e83c 6290 a43d a65d d33c ea3b 8fbd
000000c0: 48ee f13b 4d28 afbc 7b6a 8abc 3a09 c4bd
000000d0: b6a1 13be 0e2b 25bd 732b e1bd dc9c d7bc
000000e0: 3add e1bd 236b 2e3c 69d3 c13d d40a 933d
000000f0: d340 f93d f10e a9bb 8ee9 0f3e 13cc 0fbd
00000100: 4797 5f3d db7b c7bd 651a b6bd db52 993a
00000110: 05d2 423c 9aed ec3d feb9 f13d af26 88bc
00000120: fe96 e63c c328 58bd 19a6 0cbb 0b7c eb3d
00000130: f75f 203c 0023 363d 4781 d23c 9b6d 72bc
00000140: c816 b73d fa1d 6d3d 8036 66bc 2956 dbbd
00000150: 92f3 bcbb dd5e abbd c106 5b3d e6e8 acbd
00000160: 3198 efbc 260c 153d b4ab 683c 28db 133d
00000170: b1fc f93d 17a7 533d 3594 933d 4731 453d
00000180: d28b 833d 4cd8 863d fc87 d3bd 460b 1cbe
00000190: 2eb4 da3d cceb e03d e0ea d63c db6a eebd
000001a0: 831a da3d 58e1 55bd ee11 76bd db1f 83bd
000001b0: e02f f93d 2c59 cfbd 38e7 87bd fb8e 673d
000001c0: e078 babd c550 c8bd 0b81 7bbc b194 d6bd
000001d0: d132 dc3b 84b9 423d d52c 8ebd c8ab 01be
000001e0: eca8 87bd e9be 0e3d d025 cebd b3fa 83bc
000001f0: b60c 8bbd b686 003e cdaf 093b c1ab 9a3d
00000200: 1acb 04bd 4350 da3d e5f0 1b3d 7111 98bd
00000210: db93 1d3d c664 d7bc 4392 eabd c73c 873d
00000220: cdb6 093e 46e3 debd 3ed5 08bd 66e8 fdbd
00000230: b51c a53c 7a48 833d be68 7b3d 4740 dabc
00000240: 15dc f33d 52c2 58bd 0936 ab3c e1ae 64bd
00000250: d784 37be 2035 04bd 88de 0ebe 9563 b4bd
00000260: 4265 983b 9bca d53d b9f7 92bd d969 c73b
00000270: 8d14 22bd b369 59bd 3197 b7bd 46da ebbc
00000280: 18be 373b 15af 0abe 7d43 b83d 17ee afbc
00000290: 8b36 3bbd fc5d 5abd 3f3c bf3c 12d6 b1bc
000002a0: 15e7 813d f5d6 88bd 81fc 24bd d437 0c3b
000002b0: 4787 45bd d87c c9bc d07e 0ebe 26b1 8d3d
000002c0: 747b ee3d 0a0d cf3d 9113 443d e556 47b9
000002d0: 7e45 8bbc ac63 cfbb e46a 603d 136c 59bd
000002e0: e521 b93d 8c4a 833c b72a e43c 89fe 07bd
000002f0: 5a43 b23d 27f4 1b3c 2bac b83d 2fa0 b2bc
00000300: 7a28 fdbc 468d eabd dc97 503d 8a96 d8bd
00000310: f782 68bd 7390 8a3c 67f2 fbbd 468e b53d
00000320: 5e39 9dbc 9926 95bc aa2e a2bd e01a de3d
00000330: 415e 313d c3c6 0abe f572 f53c 38e8 a33c
00000340: 368b 6bbd 08a5 47bc 5693 c4bc 395d 82bd
00000350: 605a f53d 053f cdbd ba10 9bbd ac1d a63d
00000360: e020 16bd 0c63 08bd f33a f43d a111 223c
00000370: 45b7 6a3d ee99 a13c 676e db3c 1ee6 ad3c
00000380: e984 663c 804e 6dbd 2de1 11be 691b 09be
00000390: 4c2b fb3d 5f06 6dbc 0406 623d 9ea3 cb3c
000003a0: 0091 d03d c905 ad3d fa00 a2bd 1709 343d
000003b0: 6d56 143d 5c2a c63d 00ce f23d c048 51bd
000003c0: 79ce 893d 16a3 013d c406 b33d 8dfc b73c
000003d0: 9338 85bd 84ff 933d 81c8 a23d d603 aebd
000003e0: fde7 e9bd 6022 063e 0f4d 033e 7c0d 053d
000003f0: 4ef1 bcbd 0ed9 68ba 001a 803d 88d5 0e3d

bias f4 [512]
-0.118600674 -0.010668282 -0.1082459 -0.05645533 -0.06790406 -0.052050434 0.058420327 0.019185476
-0.12514913 0.08666901 -0.115046896 -0.0036902418 0.00637098 -0.08380679 -0.08416376 0.10251585
-0.04095166 -0.08028335 -0.054553166 -0.07179899 -0.074723676 -0.017896293 -0.06076065 -0.09718846
0.0911459 -0.07771425 0.102332 0.03371254 0.06796931 0.002849499 0.0825003 -0.0120501425
0.022120098 0.07352365 -0.041042503 0.009263897 -0.043944657 -0.060568865 0.09256053 -0.022258483
0.08673984 -0.011753522 -0.009555705 -0.0639797 0.081982434 0.1127154 -0.09857752 0.09938789
0.0966657 0.001718661 0.10504828 0.06957248 -0.10491577 0.00496717 0.06809337 0.10872435
0.0126538025 -0.047528412 0.07435749 0.09299858 -0.07274716 -0.071921386 -0.010543924 -0.053633887
-0.13604398 -0.11293979 -0.11157589 -0.04197056 0.08287818 0.03736603 0.06804897 0.03129578
-0.085901126 -0.08262261 0.058891002 -0.048991725 -0.021044813 0.0039767376 0.064660214 -0.01854043
0.032900076 -0.03046839 0.08099521 -0.046804313 0.060636602 -0.05318076 0.10528728 -0.0628178
0.10397829 0.031927742 -0.077338606 0.026095418 0.024373824 0.0386236 -0.018669965 0.033787686
0.03250338 0.08022921 0.07660721 0.060982592 -0.09715254 0.02308135 -0.061000295 -0.11458357
-0.02192784 0.060993627 0.06419625 -0.07568933 0.022329161 -0.093714684 0.013901719 -0.10718733
-0.003291802 -0.01644755 0.051914703 -0.028238604 0.032943353 0.049934 -0.0103718825 0.036015615
0.11067601 0.00060187734 -0.037150424 0.039582025 -0.04465031 0.011216799 0.08208246 0.006983879
0.03743125 0.00012776488 -0.036784504 -0.093059145 0.046265673 -0.06495866 0.07174766 -0.0055679446
0.09525627 0.05984781 0.016787073 0.003847085 0.05840271 0.11780837 0.0120111685 -0.042180993
0.01591868 -0.08862947 -0.042726982 0.08245464 -0.040499784 -0.012426723 -0.03765438 -0.025720818
0.033027317 0.08852774 -0.12682629 -0.051487707 0.025637444 -0.0691305 -0.10887896 0.020027548
-0.06946037 0.058775663 0.038333282 0.04279852 0.056481436 -0.07031258 0.0069482094 0.02379158
-0.05994341 0.037687648 -0.10708968 0.10513723 -0.0036686212 -0.037081033 0.09710807 0.05259863
0.01394919 0.08270023 -0.0468663 -0.12452302 -0.10899636 0.06687047 0.09984224 -0.045504242
-0.092066765 0.11462758 0.051403314 -0.024008976 0.045764036 -0.112329416 -0.064232804 0.07500527
-0.091791034 0.00067870267 0.022913981 0.030249588 0.022226946 -0.14610314 0.08875833 0.011764051
0.03944162 0.004203234 -0.04668548 0.02323092 -0.09115981 -0.06128067 0.09508438 0.111255996
0.006908398 -0.10133238 0.03178838 -0.004087576 0.072426125 -0.047241185 0.06000117 0.06665619
0.08937263 -0.112468556 0.0966428 0.039241944 0.091374055 0.09959798 -0.0894434 -0.09286381
-0.04172013 -0.024251426 0.027698783 -0.10147065 0.11293911 0.105910294 0.0054778648 -0.07465677
0.096406505 -0.10130578 0.10732776 -0.019026393 0.07776124 0.063343026 -0.08931958 -0.08056811
0.10048941 0.026601506 0.06640806 -0.022949254 -0.051830407 -0.049037267 -0.04857508 -0.07434807
0.11217326 -0.09432452 -0.10818004 0.109467216 0.0036931855 -0.054767396 -0.036026616 0.020027341
00000000: e9e4 f2bd 05ca 2ebc 07b0 ddbd b43d 67bd
00000010: 4911 8bbd d632 55bd 274a 6f3d dc2a 9d3c
00000020: 1827 00be 867f b13d b59d ebbd fcd7 71bb
00000030: a7c3 d03b e5a2 abbd 0d5e acbd d4f3 d13d
00000040: eebc 27bd 996b a4bd 2473 5fbd 590b 93bd
00000050: ba08 99bd 3f9b 92bc 29e0 78bd be0a c7bd
00000060: b4aa ba3d a628 9fbd 7193 d13d 2916 0a3d
00000070: 7e33 8b3d a9be 3a3b ebf5 a83d f66d 45bc
00000080: 3535 b53c 9193 963d 2f1c 28bd 9ac7 173c
00000090: 50ff 33bd 0f17 78bd 6090 bd3d 6c57 b6bc
000000a0: a8a4 b13d d891 40bc 888f 1cbc ca07 83bd
000000b0: 68e6 a73d 55d7 e63d 03e3 c9bd e18b cb3d
000000c0: abf8 c53d b244 e13a 8d23 d73d 047c 8e3d
000000d0: 14de d6bd a4c3 a23b 8974 8b3d dfaa de3d
000000e0: e551 4f3c 27ad 42bd bd48 983d 0a76 be3d
000000f0: 77fc 94bd 854b 93bd 6cc0 2cbc 35af 5bbd
00000100: 1d4f 0bbe fa4c e7bd e681 e4bd 52e9 2bbd
00000110: 09bc a93d 1f0d 193d 425d 8b3d 0130 003d
00000120: eeec afbd 0b36 a9bd b137 713d 8cab 48bd
00000130: 2c66 acbc 4b4f 823b 936c 843d 1ae2 97bc
00000140: 3bc2 063d d898 f9bc d1e0 a53d e1b5 3fbd
00000150: 165e 783d 12d4 59bd dca0 d73d 9ea6 80bd
00000160: 92f2 d43d aac6 023d b463 9ebd 0fc6 d53c
00000170: 9dab c73c c833 1e3d c1f1 98bc f564 0a3d
00000180: 4422 053d 364f a43d 3ee4 9c3d e2c8 793d
00000190: e9f7 c6bd 1915 bd3c 72db 79bd caaa eabd
000001a0: 03a2 b3bc 74d4 793d 5379 833d 0203 9bbd
000001b0: a5eb b63c 7ced bfbd 09c4 633c 0885 dbbd
000001c0: 46bb 57bb 03bd 86bc 83a4 543d a554 e7bc
000001d0: 9cef 063d 9887 4c3d d4ee 29bc 1c85 133d
000001e0: 1baa e23d 4ec7 1d3a 0b2b 18bd c320 223d
000001f0: 3ee3 36bd aac6 373c d91a a83d 06d9 e43b
00000200: 8351 193d a0f8 0539 59ab 16bd cb95 bebd
00000210: 1381 3d3d 0c09 85bd 70f0 923d 4e73 b6bb
00000220: b815 c33d fa22 753d 0b85 893c 601f 7c3b
00000230: ae37 6f3d 8445 f13d 7eca 443c fac5 2cbd
00000240: e467 823c 5e83 b5bd 7d02 2fbd fadd a83d
00000250: 1ae3 25bd 7499 4bbc 7b3b 1abd 77b4 d2bc
00000260: a747 073d 084e b53d c0de 01be c6e4 52bd
00000270: 9e05 d23c 4b94 8dbd effb debd d010 a43c
00000280: 3d41 8ebd c0be 703d 5c03 1d3d 804d 2f3d
00000290: 1459 673d 0b00 90bd cead e33b 8fe6 c23c
000002a0: 3987 75bd 5d5e 1a3d d651 dbbd 3052 d73d
000002b0: 406d 70bb 48e2 17bd 99e0 c63d a971 573d
000002c0: 258b 643c bd5e a93d e1f6 3fbd ed05 ffbd
000002d0: 7c39 dfbd 63f3 883d 177a cc3d a862 3abd
000002e0: 808d bcbd ddc1 ea3d 488c 523d 79ae c4bc
000002f0: 1273 3b3d f70c e6bd 7d8c 83bd 5d9c 993d
00000300: f0fc bbbd f7ea 313a 1ab6 bb3c fccd f73c
00000310: 4915 b63c 109c 15be edc6 b53d 02be 403c
00000320: 898d 213d 48bb 893b 4639 3fbd c54e be3c
00000330: ffb1 babd 7101 7bbd 99bb c23d 2fda e33d
00000340: d85f e23b 5a87 cfbd 8834 023d 13f1 85bb
00000350: 2654 943d f97f 41bd c9c3 753d 0a83 883d
00000360: ff08 b73d ea55 e6bd a9ec c53d 29bc 203d
00000370: 5222 bb3d 07fa cb3d 1a2e b7bd 622f bebd
00000380: bae2 2abd edaa c6bc 8fe8 e23c d8cf cfbd
00000390: 9f4c e73d 7fe7 d83d a97f b33b a6e5 98bd
000003a0: c670 c53d 6879 cfbd a8ce db3d 3ddd 9bbc
000003b0: 4941 9f3d fdb9 813d 2fed b6bd e500 a5bd
000003c0: 64cd cd3d 67eb d93c f300 883d 1300 bcbc
000003d0: 1f4c 54bd 4ddb 48bd aaf6 46bd cd43 98bd
000003e0: 18bb e53d 372d c1bd 7f8d ddbd 5930 e03d
000003f0: 5f09 723b c753 60bd a590 13bd 6110 a43c

weight f4 [20, 512]
0.038040098 0.0035773367 0.043641184 0.0043724626 -0.041359186 -0.016986638 0.003296014 -0.020044051
-0.021915544 0.027224977 0.01170456 -0.028672911 -0.0028063469 0.022461232 0.03691982 -0.02648528
0.03020059 -0.0091807805 -0.008594882 -0.022896122 0.03139766 -0.020091591 0.014943697 -0.020979779
-0.036886185 -0.027144983 0.010286745 -0.026393251 0.03757489 -0.043280657 0.012519162 -0.020959422
0.008804139 -0.038302682 -0.025107214 -0.010988209 0.015163455 -0.043681268 0.01495238 0.041132946
0.017969444 0.011715345 -0.007969696 0.013674572 0.014532529 -0.03037319 -0.011977967 -0.018742982
-0.0038957596 0.01685308 0.032064755 -0.00032225624 0.0089089535 -0.039052416 -0.015258413 0.029833551
-0.04302844 0.032770615 0.020308737 -0.022871193 -0.023614906 -0.020024072 -0.034570403 -0.0070889853
-0.03315345 0.013704188 0.026593942 0.030891728 0.037671346 0.008632384 -0.034682967 -0.02043836
-0.004015103 0.030365426 -0.011586484 -0.038586956 0.024267126 0.024113972 0.0389211 0.005746115
-0.027080836 0.04041378 0.02053814 -0.01937578 -0.021139115 -0.040437214 -0.00047878176 0.034056682
-0.0046235733 0.0037090331 0.0052616224 0.003934756 -0.00998237 0.027625587 0.0066561885 0.0045607537
0.004371725 0.029296119 -0.019919422 -0.026321033 0.030129042 -0.004909493 -0.022171844 0.021380145
-0.005209312 -0.022720838 0.022877682 -0.020696526 -0.039575472 0.04136843 0.041376624 0.01225543
0.04149131 -0.02833474 0.0032778867 0.001851175 0.012576792 0.036190752 0.005685672 -0.027817257
0.008470714 0.0028340593 0.026629444 0.0011530966 0.01808624 -0.0036904924 0.040874448 0.0020000637
0.03075124 0.013983034 0.024996188 0.009010386 -0.005000148 -0.026508387 -0.03012459 -0.02550527
-0.011600308 -0.002129458 0.0040841885 -0.005311325 0.032038335 0.020742405 -0.038230833 -0.012200158
-0.0030498318 -0.011204787 -0.012600165 -0.0010463521 0.0009926222 -0.027758477 0.010743391 0.002026163
-0.031689513 -0.042996448 0.04023261 0.034985002 0.026464406 -0.042195674 0.03696054 -0.034310475
0.009902962 -0.03872054 -0.019408882 0.028798405 0.03562068 0.013313234 0.008947212 -0.028076481
-0.010491621 -0.015601419 0.036959093 -0.016907297 -0.01026221 -0.03550624 -0.030046225 -0.011801239
0.009340003 -0.021115117 -0.028858779 -0.043459374 -0.00425737 0.031316023 0.025673632 0.026645314
-0.03187103 0.039457556 0.02382474 -0.021800136 0.006613899 0.012464821 0.00055100024 -0.024700588
-0.04174227 0.03288201 0.040876728 -0.030475827 0.008583132 0.012596212 -0.027568921 0.021771926
-0.017405037 0.033684965 0.009533454 0.008377481 0.020520452 -0.014427118 -0.0019161813 -0.0071284845
0.03270674 -0.015124297 0.011679541 -0.02827875 0.0053321235 -0.0064592697 -0.006695118 -0.02217333
0.006513238 0.043021377 -0.036717057 -0.006101351 -0.036137823 0.027192142 0.023394737 -0.0032838248
0.030716967 -0.014428131 0.014979355 0.0063259564 0.020989414 0.015315987 0.008268051 -0.033296157
0.018541407 -0.0058680326 0.022298243 0.03857443 0.036185835 -0.008366492 0.0003161654 -0.01432102
0.02114458 -0.01571214 -0.021219052 -0.0083167255 0.027323764 0.02002455 0.036406588 -0.019272052
-0.022870054 -0.02987428 0.019992683 -0.023658706 -0.032080088 0.020273935 -0.010226671 -0.014486657
00000000: efcf 1b3d c071 6a3b 19c1 323d e046 8f3b
00000010: 4068 29bd 9027 8bbc f001 583b 6c33 a4bc
00000020: 3a88 b3bc ea06 df3c 7cc4 3f3c 74e3 eabc
00000030: b0ea 37bb 9e00 b83c 3d39 173d a8f7 d8bc
00000040: 3a67 f73c fc6a 16bc 8cd1 0cbc a690 bbbc
00000050: d59a 003d 1f97 a4bc 68d6 743c c9dd abbc
00000060: f815 17bd 285f debc bc89 283c a936 d8bc
00000070: 21e8 193d 0f47 31bd 2c1d 4d3c 18b3 abbc
00000080: 3c3f 103c 46e3 1cbd a5ad cdbc e407 34bc
00000090: 2470 783c 21eb 32bd d4fa 743c 057b 283d
000000a0: a834 933c b8f1 3f3c 5493 02bc 500b 603c
000000b0: d819 6e3c 32d1 f8bc 3c3f 44bc e28a 99bc
000000c0: 0050 7fbb 780f 8a3c 5556 033d 80f4 a8b9
000000d0: dcf6 113c 6df5 1fbd 6cfe 79bc 7e65 f43c
000000e0: 973e 30bd 7b3a 063d 825e a63c 5e5c bbbc
000000f0: 0c74 c1bc 8609 a4bc b299 0dbd b84a e8bb
00000100: e9cb 07bd 8887 603c 8adb d93c a610 fd3c
00000110: 454d 1a3d d86e 0d3c ba0f 0ebd 596e a7bc
00000120: 2091 83bb eac0 f83c 3cd5 3dbc 5b0d 1ebd
00000130: dacb c63c aa8a c53c bb6b 1f3d e849 bc3b
00000140: a1d8 ddbc eb88 253d 9a3f a83c f5b9 9ebc
00000150: f02b adbc 7ea1 25bd 0005 fbb9 057f 0b3d
00000160: 5881 97bb 4013 733b b069 ac3b 20ef 803b
00000170: 188d 23bc 0e4f e23c 281c da3b 6072 953b
00000180: b040 8f3b 6afe ef3c 0e2e a3bc 359f d7bc
00000190: 2ed1 f63c d0df a0bb baa1 b5bc 6a25 af3c
000001a0: e0b2 aabb 0d21 babc fa69 bb3c c38b a9bc
000001b0: e419 22bd f171 293d 897a 293d 00cb 483c
000001c0: cbf2 293d 421e e8bc d0d1 563b 20a3 f23a
000001d0: e40e 4e3c c13c 143d e04e ba3b 04e1 e3bc
000001e0: c0c8 0a3c a0bb 393b fe25 da3c 8023 973a
000001f0: 9829 943c 30dc 71bb f76b 273d 8013 033b
00000200: 06ea fb3c 1819 653c cec4 cc3c 4ca0 133c
00000210: 48d8 a3bb 1e28 d9bc d8c7 f6bc 6ef0 d0bc
00000220: 380f 3ebc 608e 0bbb a8d4 853b a00a aebb
00000230: a13a 033d faeb a93c ef97 1cbd 2ce3 47bc
00000240: b0df 47bb 4894 37bc ec70 4ebc c025 89ba
00000250: e01a 823a bf65 e3bc 0c05 303c 60c9 043b
00000260: ddcc 01bd 0b1d 30bd f3ca 243d 6f4c 0f3d
00000270: e2cb d83c 5fd5 2cbd ef63 173d 2489 0cbd
00000280: 0840 223c 6e99 1ebd 60ff 9ebc a2ea eb3c
00000290: fde6 113d c01f 5a3c 5497 123c a600 e6bc
000002a0: 0ce5 2bbc 189d 7fbc 6b62 173d 2c81 8abc
000002b0: d422 28bc fe6e 11bd 8023 f6bc fc59 41bc
000002c0: d006 193c 9cf9 acbc 3f69 ecbc 7502 32bd
000002d0: 6881 8bbb 3b45 003d 8251 d23c 4647 da3c
000002e0: 328b 02bd 3f9e 213d 1a2c c33c 3396 b2bc
000002f0: 68b9 d83b 4039 4c3c 0071 103a e358 cabc
00000300: f1f9 2abd 49af 063d 5b6e 273d 71a8 f9bc
00000310: 44a0 0c3c 5860 4e3c 38d8 e1bc 0a5b b23c
00000320: 0295 8ebc 3ff9 093d 3432 1c3c b441 093c
00000330: 821a a83c b85f 6cbc 6028 fbba 1096 e9bb
00000340: 81f7 053d e6cb 77bc 8c5b 3f3c d6a8 e7bc
00000350: 18b9 ae3b 48a8 d3bb b862 dbbb d8a4 b5bc
00000360: 006d d53b 2f37 303d a064 16bd d8ed c7bb
00000370: 4105 14bd 0ec2 de3c 52a6 bf3c 7035 57bb
00000380: 26a2 fb3c f863 6cbc f86b 753c f849 cf3b
00000390: fef1 ab3c e8ef 7a3c b876 073c 8d61 08bd
000003a0: 26e4 973c a048 c0bb ceaa b63c 3900 1e3d
000003b0: 9937 143d 9c13 09bc 00c3 a539 b6a2 6abc
000003c0: 6637 ad3c bfb6 80bc 94d3 adbc e042 08bc
000003d0: 16d6 df3c 860a a43c 131f 153d 6ce0 9dbc
000003e0: fb59 bbbc e8ba f4bc b2c7 a33c e7cf c1bc
000003f0: 6966 03bd 8615 a63c c48d 27bc 7259 6dbc

bias f4 [20]
-0.0017171167 -0.026200641 0.013688305 0.003020276 -0.044164784 -0.015832815 0.014058964 0.03736191
-0.01207091 0.0131554715 -0.031043839 -0.017398318 0.018957982 -0.017549178 0.01737823 0.027303642
0.040608414 -0.018378198 -0.011638153 0.0219511
00000000: e010 e1ba baa2 d6bc ea44 603c d3ef 453b
00000010: 22e6 34bd d2b3 81bc 9257 663c cd08 193d
00000020: 11c5 45bc 0c8a 573c a64f febc eb86 8ebc
00000030: c54d 9b3c 4bc3 8fbc ca5c 8e3c e3ab df3c
00000040: 0255 263d e08d 96bc f4ad 3ebc cbd2 b33c
